models/multi/initial.model (torch, 99265 bytes, 12 tensors)

struct.0.weight f4 [128, 67]
-0.010728186 -0.14363332 0.005569988 0.5377703 -0.17736244 0.11633448 0.038624696 -0.08609697
-0.045538194 -0.13858344 0.02174532 -0.39545178 0.008623896 0.17457367 -0.25343108 -0.0040169703
-0.0365823 -0.0006366072 0.0007399748 -0.10926394 -0.041264273 0.026511075 -0.14122607 0.073704936
-0.23601042 -0.009099694 -0.028786037 -0.043603327 0.025605828 0.0039005766 0.36761764 -0.06488283
-0.16170876 -0.06613648 0.16756025 -0.022186661 0.04899349 -0.042778447 0.03105301 0.033823565
0.33462745 0.42491704 0.11331563 -0.07299852 -0.06706067 0.073344916 0.25460538 -0.15251786
-0.117516086 0.057785414 -0.061799847 -0.18509474 0.37052938 0.34491453 -0.1472986 -0.050667886
-1.801283 0.036510147 0.008463945 -0.045314252 0.06605622 0.025403267 0.09632939 0.007410432
-0.1076409 0.14829522 0.18032497 0.0031195574 -0.038877085 -0.15202455 0.076899536 -0.042058196
0.0050097657 -0.07036965 0.00845967 0.10988058 0.3729617 -0.08397961 0.00840926 -0.020787686
-0.20286272 0.12294123 0.03756726 0.04759417 0.056948755 0.098967195 -0.13142453 0.058202263
-0.14939928 -0.083888546 0.114252634 -0.13422832 0.07753796 0.045068264 -0.09197275 0.014351277
-0.30370972 -0.041793335 0.10822031 -0.05764492 -0.04211703 -0.0092308195 0.0045988364 0.09314479
0.16877751 0.13751903 0.033281725 0.052473634 0.056309577 -0.26311395 0.25455773 0.026028669
0.08552818 -0.06547713 -0.03365417 0.030962866 0.054889064 -0.07765823 0.003074579 0.078945525
-0.005756185 -0.14365578 0.06142611 0.8097377 -0.017709788 -0.06767774 0.04517118 -0.08401833
0.04447356 0.045778032 -0.11253886 -0.050919153 -0.063339815 -0.54960525 0.022785433 0.31795037
-0.018669574 -0.16554184 -0.17311397 -0.113405734 0.36784434 0.49213588 0.37050658 -0.079059586
-0.039422758 -0.22917683 -0.13229974 -0.014637084 0.10056213 0.062104747 0.084055334 0.029621508
0.20427555 -0.005982727 0.39930582 0.0806222 0.053663 0.20720519 -0.21626201 0.033924635
0.0614605 0.048145246 0.06264662 0.05214243 0.03095867 0.03596013 0.1363559 -0.056199547
0.022306958 0.53783077 0.31883696 0.53258026 -0.23352711 -0.18156666 -0.20810066 -0.077802114
-0.1093374 -0.05815099 -0.0215818 -0.018928388 0.5294252 0.55626583 -0.17189102 -0.023814898
-0.11874559 -0.016974961 -0.10200804 -0.022842905 -0.17524983 -0.23183079 -0.18151867 -0.050658487
0.05412351 0.013655593 0.08581474 0.006031494 0.042563897 -0.013489094 -0.11703426 -0.11570171
0.06893399 -0.007255212 -0.060664237 -0.11620301 -0.22137895 -0.18557835 -0.17981392 0.35038775
0.35969752 0.34020868 -0.05561908 -0.20866036 -0.32329032 -0.17513874 -0.1296124 0.14429544
0.038943406 0.1380744 0.13719766 0.06130902 -0.14770184 -0.12794326 0.08808661 -0.018068386
-0.046103984 -0.30835536 -0.08794468 -0.15609331 -0.2385668 -0.20434795 -0.20444934 -0.10020569
-0.012445004 0.040842608 -0.10850443 0.0142968455 0.38820815 0.21079879 0.2786102 -0.075401604
-0.37572876 -0.2054017 -0.15638494 -0.20577879 -0.15798438 -0.21944422 -0.077328525 0.45486122
0.43632704 -0.26725543 -0.09917777 -0.15605503 -0.18778238 -0.07002565 -0.25090018 -0.122892946
00000000: 46c5 2fbc 9d14 13be 7284 b63b 50ab 093f
00000010: 809e 35be c640 ee3d ee34 1e3d 9c53 b0bd
00000020: 4286 3abd d1e8 0dbe 3e23 b23c a878 cabe
00000030: 3e4b 0d3c 71c3 323e b8c1 81be caa0 83bb
00000040: 52d7 15bd fce1 26ba defa 413a c6c5 dfbd
00000050: ba04 29bd c12d d93c 919d 10be 9df2 963d
00000060: b7ac 71be e216 15bc b2d0 ebbc 6799 32bd
00000070: 50c3 d13c d1a0 7f3b 6138 bc3e 4ae1 84bd
00000080: fb96 25be 9072 87bd ea94 2b3e cdc0 b5bc
00000090: 66ad 483d 7438 2fbd e262 fe3c 948a 0a3d
000000a0: 4a54 ab3e ba8e d93e 0612 e83d 4080 95bd
000000b0: 1b57 89bd dc35 963d a35b 823e a42d 1cbe
000000c0: 46ac f0bd 66b0 6c3d d621 7dbd 7a89 3dbe
000000d0: 07b6 bd3e a398 b03e 72d5 16be 2189 4fbd
000000e0: 7190 e6bf aa8b 153d 5cac 0a3c 709b 39bd
000000f0: 7c48 873d 831a d03c 5848 c53d 36d3 f23b
00000100: d572 dcbd b4da 173e 1ca7 383e 7d71 4c3b
00000110: 943d 1fbd 53ac 1bbe 817d 9d3d 3745 2cbd
00000120: f628 a43b f71d 90bd 6d9a 0a3c 1209 e13d
00000130: d6f4 be3e 80fd abbd fec6 093c f04a aabc
00000140: 3fbb 4fbe 9dc8 fb3d 21e0 193d 1bf2 423d
00000150: 1943 693d 50af ca3d 2794 06be 7f65 6e3d
00000160: 20fc 18be c2cd abbd 49fd e93d 2673 09be
00000170: 39cc 9e3d 8099 383d 365c bcbd 9e21 6b3c
00000180: d77f 9bbe 7d2f 2bbd 9ca2 dd3d 141d 6cbd
00000190: e882 2cbd dd3c 17bc d6b1 963b b2c2 be3d
000001a0: 03d4 2c3e cad1 0c3e 6b52 083d 98ee 563d
000001b0: dfa4 663d dfb6 86be 6455 823e 133a d53c
000001c0: 6629 af3d e018 86bd f4d8 09bd d6a5 fd3c
000001d0: 5bd3 603d 470b 9fbd e07e 493b 31ae a13d
000001e0: 619e bcbb 801a 13be f299 7b3d f84a 4f3f
000001f0: 1e14 91bc a09a 8abd 6a05 393d cd11 acbd
00000200: e829 363d bf81 3b3d c67a e6bd 9a90 50bd
00000210: 4eb8 81bd eeb2 0cbf 84a8 ba3c 64ca a23e
00000220: eff0 98bc cd83 29be ca44 31be 4441 e8bd
00000230: 1856 bc3e 3cf9 fb3e 0ab3 bd3e fee9 a1bd
00000240: c279 21bd 55ad 6abe 9579 07be 61d0 6fbc
00000250: 85f3 cd3d 8c61 7e3d 3425 ac3d cea8 f23c
00000260: 9c2d 513e c00a c4bb d071 cc3e 411d a53d
00000270: bccd 5b3d 992d 543e ca73 5dbe 8ff4 0a3d
00000280: 01be 7b3d f333 453d df4c 803d 4d93 553d
00000290: 099d fd3c ee4a 133d e2a0 0b3e 7f31 66bd
000002a0: 15bd b63c 47af 093f 993e a33e 2e57 083f
000002b0: bb21 6fbe 9cec 39be 5718 55be b756 9fbd
000002c0: 49ec dfbd bc2f 6ebd 51cc b0bc b50f 9bbc
000002d0: 6988 073f 7067 0e3f 3304 30be 7617 c3bc
000002e0: e330 f3bd 130f 8bbc 97e9 d0bd 0b21 bbbc
000002f0: b174 33be 0d65 6dbe 08e0 39be 467f 4fbd
00000300: 9db0 5d3d b5bb 5f3c a3bf af3d d7a3 c53b
00000310: 7b57 2e3d 5c01 5dbc a8af efbd 05f5 ecbd
00000320: 442d 8d3d 21bd edbb 107b 78bd d8fb edbd
00000330: 2ab1 62be 4008 3ebe 2421 38be 0666 b33e
00000340: 462a b83e d52f ae3e d5d0 63bd 10ab 55be
00000350: 4f86 a5be 9257 33be 1db9 04be 2fc2 133e
00000360: 1f83 1f3d 6063 0d3e 8b7d 0c3e 2b1f 7b3d
00000370: 273f 17be 8f03 03be c166 b43d 2704 94bc
00000380: 88d7 3cbd c1e0 9dbe 571c b4bd edd6 1fbe
00000390: db4a 74be 9740 51be 2b5b 51be a438 cdbd
000003a0: 21e6 4bbc 944a 273d 9237 debd 513d 6a3c
000003b0: 38c3 c63e a3db 573e ffa5 8e3e 286c 9abd
000003c0: 855f c0be d354 52be 6023 20be adb7 52be
000003d0: a8c6 21be fcb5 60be 6b5e 9ebd 92e3 e83e
000003e0: 4266 df3e b4d5 88be b71d cbbd e4cc 1fbe
000003f0: 064a 40be 9c69 8fbd fd75 80be 4caf fbbd

struct.0.bias f4 [128]
-0.438889 0.36192697 0.26136515 0.20778026 0.009908614 -0.22800113 -0.04727157 -0.034005594
0.2591838 0.09352099 -0.40958232 -0.22545342 -0.13275768 -0.14399731 0.2995201 -0.0017417152
-0.06898386 0.023616593 0.36442354 0.13520841 0.28064454 0.1935332 0.011582931 0.10506468
-0.025674721 -0.16274606 -0.0018328127 -0.31012765 -0.27388248 0.05491218 -0.003182204 -0.03636761
-0.2474419 0.028419822 -0.08531951 -0.27583614 -0.22140755 0.10499985 0.29314366 -0.39731136
-0.05393286 0.17900841 -0.12293808 -0.2514195 0.15074843 -0.25468317 -0.13919666 0.0889918
0.23861317 -0.04543665 0.09187105 -0.2327797 0.17436582 0.26951712 0.21573985 -0.27110952
-0.062244333 -0.30805045 0.016678626 -0.049557578 -0.30792022 -0.1668727 0.26839444 0.023197055
0.2926923 -0.206075 0.17653577 -0.11527825 0.20455174 0.22494726 0.16863352 0.22144462
-0.23703508 0.29729912 0.19710365 0.20095995 -0.07612175 0.22470662 -0.4786051 0.16631752
-0.09333223 -0.23185277 -0.22175746 0.13504371 -0.15151414 -0.2762453 0.3298852 -0.19108358
0.15886422 0.0044553205 0.105821796 -0.15643051 -0.21110283 -0.18472895 0.35635972 0.08746553
0.20573439 0.1404138 0.27739784 -0.22771691 0.2270599 0.16971703 -0.31587395 0.06702327
0.13808331 0.32694003 -0.12336984 -0.23691225 -0.0896197 0.0393287 0.20469296 -0.14722387
-0.24287483 -0.08232253 -0.17641953 -0.26764712 -0.034154385 -0.24135911 -0.11534077 -0.1312951
-0.2781394 -0.317619 0.23010881 -0.009285644 0.3557842 0.040666725 0.24656451 -0.07695564
00000000: 0fb6 e0be 7e4e b93e a7d1 853e 59c4 543e
00000010: bd57 223c 2179 69be d59f 41bd 7349 0bbd
00000020: bdb3 843e ef87 bf3d c6b4 d1be 43dd 66be
00000030: a1f1 07be 0874 13be b35a 993e 444a e4ba
00000040: 6947 8dbd 9677 c13c b995 ba3e 1374 0a3e
00000050: a4b0 8f3e 912d 463e 55c6 3d3c 272c d73d
00000060: cb53 d2bc e7a6 26be fd3a f0ba 0dc9 9ebe
00000070: 533a 8cbe 98eb 603d 868c 50bb 34f6 14bd
00000080: 6961 7dbe b0d0 e83c ffbb aebd 653a 8dbe
00000090: a9b8 62be 290a d73d ed16 963e 656c cbbe
000000a0: b4e8 5cbd fb4d 373e f6c6 fbbd 0fba 80be
000000b0: cc5d 1a3e d565 82be 9289 0ebe 5541 b63d
000000c0: 0357 743e c81b 3abd e426 bc3d cd5d 6ebe
000000d0: f48c 323e 26fe 893e e8ea 5c3e dece 8abe
000000e0: eaf3 7ebd cab8 9dbe 9da1 883c e3fc 4abd
000000f0: b8a7 9dbe ade0 2abe ff6a 893e c007 be3c
00000100: c4db 953e 5305 53be cbc5 343e 0117 ecbd
00000110: 0376 513e 9358 663e 44ae 2c3e 61c2 623e
00000120: 53b9 72be 9737 983e 8ad5 493e 72c8 4d3e
00000130: b8e5 9bbd 7e19 663e ba0b f5be 244f 2a3e
00000140: f824 bfbd d06a 6dbe 6314 63be e648 0a3e
00000150: 8626 1bbe 0670 8dbe b7e6 a83e 6aab 43be
00000160: 4dad 223e f0fd 913b 19b9 d83d 522f 20be
00000170: 572b 58be 9629 3dbe c874 b63e 2121 b33d
00000180: 09ac 523e a3c8 0f3e 1707 8e3e 9f2e 69be
00000190: 6482 683e 4dca 2d3e 3bba a1be 7f43 893d
000001a0: b665 0d3e af64 a73e 54a9 fcbd 2099 72be
000001b0: 898a b7bd 2217 213d 089b 513e dbc1 16be
000001c0: 2eb4 78be b798 a8bd 52a7 34be 0b09 89be
000001d0: 78e5 0bbd d826 77be c837 ecbd 3972 06be
000001e0: 4a68 8ebe f59e a2be a5a1 6b3e d022 18bc
000001f0: 5929 b63e 2792 263d 687b 7c3e eb9a 9dbd

struct.2.weight f4 [64, 128]
0.015480426 0.024176043 0.026765652 -0.18015166 -0.22256972 0.2721032 0.026790367 -0.25608155
-0.021813743 -0.37945583 -0.44320473 0.099710986 -0.012008432 0.6282418 -0.14314836 -0.09790344
-0.21909711 -0.09900344 0.23682767 0.0623368 -1.2021117 -0.48780072 0.24497764 -0.28976685
-0.11288799 -0.007970081 -0.34340343 -0.22240695 -0.41569683 -0.13804461 -0.19809505 0.4355866
0.19149101 -0.3560181 0.087434806 0.4358414 0.013289766 0.15419261 -0.26154327 -0.3117185
0.7576094 0.4034405 -0.27782252 -0.30959192 -0.39502853 0.13349378 -0.3522982 0.0820035
-0.059153944 -0.26864433 0.8059999 0.072225116 0.59134537 -0.106050275 -1.0036854 -0.27283832
0.019509707 0.25363335 -0.008303971 -0.3405461 0.1500411 0.25313953 -0.01775238 0.35277024
0.086013384 -0.0022743135 -0.25544995 -0.5323737 0.34848502 -0.083834216 -0.2184938 0.05497006
-0.011350672 -0.25647923 -0.25667644 -0.018195767 0.009940874 -0.17455842 -0.01890579 0.04917906
-0.033310156 -0.3002118 -0.530606 0.12424598 -0.116264336 0.29727232 0.058180243 0.3315685
0.12941991 0.10947145 -0.19579843 -0.28844234 0.14513764 0.07304731 -0.30985987 -0.105365455
-0.40414882 -0.10508738 0.040215127 0.08237869 -0.510335 0.48666653 -0.15223067 0.26649585
-0.0326585 0.035875212 -0.119770974 0.25083122 -0.0004737366 -0.29586446 -0.22238569 -0.018579535
-0.334276 0.40620938 0.13255277 -0.30679083 0.12534526 0.108641125 0.22134285 0.34110087
-0.0072766203 0.6620066 0.048363443 -0.26140633 0.22987683 0.2747773 0.1501979 0.2029408
-0.09720618 -0.007081622 0.68217456 0.29531142 -0.8273427 0.12189432 0.11722294 -0.2717072
0.3408329 0.19422638 0.06152811 0.20701617 -0.10842136 -0.19305158 0.059614513 -0.9133018
0.32000518 -0.0794687 0.07829939 -0.16711052 0.0818976 0.19353831 0.14908502 0.2468362
0.2477863 -0.638911 0.0733156 -0.1321487 0.18192604 0.15213533 0.2282225 -0.20775603
0.12165917 0.041891128 -0.3259252 -0.06778435 -0.023521965 0.1327226 0.23846406 0.109469056
-0.15890597 -0.30995247 0.23056361 -0.05166607 0.069580995 -0.47907874 -0.11701251 -0.12623703
0.33514917 -0.24851476 -0.04318856 -0.34625915 -0.1665119 0.30836913 0.029581174 -0.089887716
0.2958113 -0.275587 -0.74043214 -0.29191443 -0.17529066 -0.26741433 0.53999364 -0.13372278
0.09303238 -0.34412447 0.34706306 0.18454649 0.12269587 0.06694398 0.34279984 0.024838414
-0.13366728 0.12253467 0.4169511 0.19137077 -0.022763431 0.45874628 0.23100524 -0.043413673
-0.5988967 -0.4179751 -0.2022216 0.47327125 -1.1451036 -0.008027798 0.30713502 0.17095633
0.24860232 0.065140255 -0.12413099 -0.33256048 -0.08285099 -0.46915734 -0.03785885 -0.23179637
0.11790911 -0.14711383 -0.13440259 -0.27699783 0.023544723 0.012746744 -0.14854169 0.2931771
0.32352674 -0.07302112 -0.7118396 0.05757497 -1.2418592 0.16935779 0.2207095 -0.37892753
-0.21872906 0.24978334 -0.23007831 -0.058209468 0.94606924 -0.24934398 -0.34905127 0.20708558
-0.092385344 -0.030976864 0.32257262 -0.19151226 -0.023710478 0.33427456 0.55161065 -0.22403525
00000000: 9da1 7d3c d60c c63c a443 db3c ad79 38be
00000010: 51e9 63be 1c51 8b3e 7977 db3c 1f1d 83be
00000020: bcb2 b2bc 0948 c2be bbeb e2be 4635 cc3d
00000030: 04bf 44bc 74d4 203f 7c95 12be 9981 c8bd
00000040: fe5a 60be 51c2 cabd f482 723e df54 7f3d
00000050: ccde 99bf 04c1 f9be 6bdb 7a3e 525c 94be
00000060: d231 e7bd f194 02bc 93d2 afbe a6be 63be
00000070: 37d6 d4be 915b 0dbe 6ed9 4abe 3505 df3e
00000080: 3816 443e 0148 b6be 0511 b33d 9b26 df3e
00000090: 52bd 593c abe4 1d3e 00e9 85be 9199 9fbe
000000a0: b1f2 413f c18f ce3e c13e 8ebe d582 9ebe
000000b0: 2e41 cabe 98b2 083e 6e60 b4be 73f1 a73d
000000c0: 684b 72bd c08b 89be 0256 4e3f c3ea 933d
000000d0: 6962 173f e330 d9bd c378 80bf 77b1 8bbe
000000e0: d2d2 9f3c 3bdc 813e 610d 08bc 0f5c aebe
000000f0: 60a4 193e 819b 813e 706d 91bc 4d9e b43e
00000100: c927 b03d a60c 15bb 56ca 82be a549 08bf
00000110: a16c b23e 46b1 abbd d7bc 5fbe 4928 613d
00000120: 2bf8 39bc 3f51 83be 186b 83be 4a0f 95bc
00000130: 0cdf 223c 71bf 32be 51e0 9abc fb6f 493d
00000140: 3b70 08bd 5cb5 99be cbd5 07bf ad74 fe3d
00000150: ff1b eebd 1434 983e 684e 6e3d 59c3 a93e
00000160: a786 043e 9132 e03d 627f 48be b7ae 93be
00000170: f69e 143e d499 953d f4a5 9ebe d8c9 d7bd
00000180: 98ec cebe 0d38 d7bd 9eb8 243d 29b6 a83d
00000190: 51a5 02bf 5b2c f93e 5be2 1bbe 2572 883e
000001a0: ebc4 05bd e3f1 123d 7c4a f5bd f36c 803e
000001b0: da5f f8b9 8c7b 97be 13b9 63be 1c34 98bc
000001c0: 3926 abbe adfa cf3e eabb 073e b013 9dbe
000001d0: 825a 003e 3d7f de3d b3a7 623e c6a4 ae3e
000001e0: b770 eebb 4479 293f bf18 463d 0dd7 85be
000001f0: d564 6b3e 9caf 8c3e 7acd 193e b7cf 4f3e
00000200: 0914 c7bd f30c e8bb fea2 2e3f 0f33 973e
00000210: bbcc 53bf bba3 f93d 9512 f03d 351d 8bbe
00000220: a681 ae3e 48e3 463e e604 7c3d 0cfc 533e
00000230: 050c debd 50af 45be 592e 743d 26ce 69bf
00000240: b8d7 a33e 7cc0 a2bd 6e5b a03d 051f 2bbe
00000250: eeb9 a73d e82e 463e bea9 183e a1c2 7c3e
00000260: b1bb 7d3e ac8f 23bf 7d26 963d fd51 07be
00000270: d24a 3a3e 5dc9 1b3e 29b3 693e ffbd 54be
00000280: 7128 f93d 0896 2b3d abdf a6be 85d2 8abd
00000290: 23b1 c0bc 6fe8 073e ec2f 743e 5031 e03d
000002a0: 3fb8 22be 17b2 9ebe de18 6c3e cd9f 53bd
000002b0: 7b80 8e3d cf49 f5be 41a4 efbd 4844 01be
000002c0: ac98 ab3e a77a 7ebe 7de6 30bd e148 b1be
000002d0: 1882 2abe 8fe2 9d3e 3854 f23c 0d17 b8bd
000002e0: 9474 973e bd19 8dbe f68c 3dbf cf75 95be
000002f0: 657f 33be 88ea 88be 063d 0a3f a0ee 08be
00000300: c387 be3d 1531 b0be 40b2 b13e c1f9 3c3e
00000310: f947 fb3d ed19 893d 7683 af3e ee79 cb3c
00000320: 13e0 08be 75f3 fa3d 9d7a d53e b3f6 433e
00000330: 607a babc cbe0 ea3e a38c 6c3e 89d2 31bd
00000340: 4b51 19bf d500 d6be 2e13 4fbe 9c50 f23e
00000350: c192 92bf 0687 03bc cd40 9d3e 2d0f 2f3e
00000360: 9b91 7e3e 4168 853d 6338 febd 5e45 aabe
00000370: c8ad a9bd 6435 f0be e211 1bbd 075c 6dbe
00000380: 557a f13d 02a5 16be d5a0 09be a9d2 8dbe
00000390: dde0 c03c b8d7 503c 501b 18be 4f1b 963e
000003a0: 4ca5 a53e 198c 95bd 1f3b 36bf bbd3 6b3d
000003b0: 3ef5 9ebf 216c 2d3e ac01 623e ca02 c2be
000003c0: 83fa 5fbe 34c7 7f3e a699 6bbe 0d6d 6ebd
000003d0: 9831 723f 0754 7fbe d9b6 b2be 3e0e 543e
000003e0: 8734 bdbd 31c3 fdbc 3d28 a53e ca1b 44be
000003f0: 7a3c c2bc 0926 ab3e 5b36 0d3f 7f69 65be

struct.2.bias f4 [64]
-0.14167681 -0.13807178 0.033552874 0.2654651 0.087073356 0.3434494 -0.11588436 -0.39056963
0.34134468 -0.030165097 0.35686308 -0.39454132 0.21594197 0.30722946 0.19038495 -0.1754553
0.33209562 -0.110897884 -0.10340658 0.2708773 0.052115537 -0.013633193 0.27978697 0.22262076
0.30279216 0.24375726 -0.13512968 -0.32007977 0.22526515 0.2251928 -0.067167446 -0.3117041
-0.029456807 0.29009128 0.14651005 -0.2259057 0.30269065 0.06362274 0.52661264 0.09054663
-0.27910066 -0.08290371 -0.19911526 0.74246997 -0.45271465 0.17995688 0.19792572 -0.3160076
-0.10103881 0.08100451 0.401082 -0.023179486 0.11227301 -0.064641505 -0.27331686 0.22325404
0.30527347 -0.17140843 0.14049356 -0.21658877 0.26727846 0.34082687 -0.27292672 -0.21231417
00000000: ba13 11be b062 0dbe bd6e 093d 0beb 873e
00000010: 8453 b23d 9ad8 af3e c854 edbd bef8 c7be
00000020: bbc4 ae3e cb1c f7bc c2b6 b63e 5201 cabe
00000030: e41f 5d3e 2e4d 9d3e 46f4 423e 8eaa 33be
00000040: 7008 aa3e 6e1e e3bd d4c6 d3bd 6eb0 8a3e
00000050: 1a77 553d c25d 5fbc 3d40 8f3e b2f6 633e
00000060: 9307 9b3e 819b 793e 6f5f 0abe 7fe1 a3be
00000070: e8ab 663e f198 663e 168f 89bd ae97 9fbe
00000080: 674f f1bc d886 943e bb06 163e d353 67be
00000090: 45fa 9a3e a44c 823d 16d0 063f 8370 b93d
000000a0: 48e6 8ebe 6cc9 a9bd dfe4 4bbe 8312 3e3f
000000b0: 37ca e7be 9e46 383e 0aad 4a3e c0cb a1be
000000c0: 70ed cebd b1e5 a53d 9f5a cd3e e8e2 bdbc
000000d0: 64ef e53d c462 84bd 30f0 8bbe b59c 643e
000000e0: ce4c 9c3e b185 2fbe 8bdd 0f3e 72c9 5dbe
000000f0: b9d8 883e dc80 ae3e 0dbd 8bbe e368 59be

struct.4.weight f4 [64, 64]
0.023765258 1.7347251 -0.95788944 -0.17029756 0.040596064 0.08227281 0.006237007 -0.033314567
-0.2162105 0.43910474 0.07240096 0.24965778 0.077926934 0.038587492 -0.06936082 0.3087584
-0.1985256 -0.1760054 -0.13424449 -0.17333509 0.029962592 0.22592618 -0.31401902 0.020819003
0.1850509 0.14772628 0.03389875 -0.22375408 0.17496452 -0.16916531 1.0784905 -0.2093732
-0.8386663 0.0043043573 0.23051797 0.20147765 0.112778515 -0.11057441 -0.0852265 -1.5387671
0.14051613 -0.11837544 0.38372284 -0.2972187 0.10607457 0.34136888 0.02097199 0.1635138
0.14619792 0.06177917 -0.29549918 -0.018962054 0.19223665 0.62770057 0.05471128 -0.28592265
-0.24748228 -0.35588285 -0.15745158 0.16948318 -0.21517763 -0.018857604 0.048299484 -0.17963357
0.030456375 -0.31496087 0.37611648 -0.14195707 -0.033492945 -0.262491 0.48758087 -0.15015945
-0.23106994 -0.10033148 -0.07573266 -0.030132959 -0.0119693475 0.682846 0.016516425 0.26746306
-0.2880027 0.1651015 0.22041996 0.09797072 -0.2040266 0.25158438 0.5736018 -0.03348703
-0.0995388 -0.019129312 -0.0818739 0.070500545 -0.06416704 -0.10732738 -0.22949708 -0.18386275
0.086159825 -0.019308858 0.071922824 0.086229 -0.15098017 0.043232877 0.16446617 0.1585961
0.0008183996 -0.4616778 -0.108374655 0.1607049 0.029901482 -0.20671612 -0.07059205 0.08675265
0.29073405 -0.29917565 0.21148826 -0.52585983 0.7333127 -0.18662523 0.1311707 -0.30306888
-0.09518336 0.019828003 -0.082565054 -0.10647487 0.22760059 0.13699237 0.16875157 0.10576915
-0.07036541 -0.98515177 0.68581253 0.27104452 0.3102944 -0.08614864 0.4133979 -0.13749105
0.35000682 -0.2067283 0.028404014 -0.28117952 -0.042547915 -0.07450589 0.22864516 -0.005991968
0.17019214 0.08524285 0.3503372 0.1726468 -0.17995615 0.07707407 0.61041194 -0.12144477
-0.1886986 -0.03173756 -0.214086 -0.22844848 -0.4174594 -0.06812303 -0.89933467 -0.027799819
0.4413651 -0.066695705 -0.14429086 -0.1385789 -0.14295846 0.17255494 0.15088883 0.7240153
-0.40312868 -0.37576377 -0.1303256 0.112335786 0.1572605 -0.3406717 0.28711382 0.23811115
0.3832638 -0.24341112 0.2692925 0.11682891 0.21671131 -0.15074655 -0.3008199 -0.43323722
0.16158515 0.017459877 -0.18695602 -0.35999253 0.09426404 -0.04464281 -0.2146399 -0.18288016
0.010161932 0.24221595 -0.11735894 -0.4532305 -0.14263995 -0.4176021 0.1827067 0.11094393
-0.570254 -0.051965524 -0.2473781 0.06974084 -0.2894495 -0.40052822 -0.39677206 -0.015952475
-0.1303704 0.06730722 0.51991135 -0.46760923 0.4183136 0.027104227 0.14914085 -0.17447628
-0.2627413 0.008526885 0.20565379 0.29147074 -0.42493755 -0.24532905 0.13312018 0.10271394
-0.07894659 -0.37583184 0.027783439 0.20710588 -0.10880999 0.003817908 -0.3029763 -0.27610353
-0.0043689087 -0.25739348 0.21159258 0.16419086 0.32038355 -0.29574326 0.07066217 -0.16088189
0.25689948 0.065386355 -0.19167057 0.079206444 0.07824341 -0.10262622 0.2319066 -0.208711
0.031261016 -0.029120995 0.075879745 0.99295735 0.030008338 -0.09714194 0.37658882 0.13785936
00000000: 5caf c23c 790b de3f 3e38 75bf 7c62 2ebe
00000010: 0f48 263d a67e a83d cf5f cc3b db74 08bd
00000020: 4966 5dbe 56d2 e03e f446 943d 4aa6 7f3e
00000030: 2898 9f3d eb0d 1e3d 0c0d 8ebd 9515 9e3e
00000040: 4b4a 4bbe c23a 34be 6377 09be c17e 31be
00000050: 1c74 f53c 3159 673e 1ac7 a0be 9d8c aa3c
00000060: fc7d 3d3e 8f45 173e 6ad9 0a3d ca1f 65be
00000070: e629 333e ac39 2dbe fa0b 8a3f ee65 56be
00000080: d6b2 56bf 910b 8d3b e70c 6c3e 2850 4e3e
00000090: 6cf8 e63d d674 e2bd 3b8b aebd 52f6 c4bf
000000a0: 76e3 0f3e d36e f2bd 5277 c43e 0d2d 98be
000000b0: a03d d93d e7c7 ae3e 73cd ab3c 2970 273e
000000c0: e8b4 153e 280c 7d3d ab4b 97be 4f56 9bbc
000000d0: afd9 443e fcb0 203f ef18 603d 7464 92be
000000e0: ff6b 7dbe 4736 b6be fd3a 21be 008d 2d3e
000000f0: 8657 5cbe 437b 9abc aed5 453d ddf1 37be
00000100: a67f f93c 8d42 a1be 5792 c03e 325d 11be
00000110: e62f 09bd 3865 86be 33a4 f93e 66c3 19be
00000120: 999d 6cbe 977a cdbd ba19 9bbd 65d9 f6bc
00000130: 151b 44bc ffce 2e3f 744d 873c ebf0 883e
00000140: 1775 93be 5e10 293e c5b5 613e dfa4 c83d
00000150: 59ec 50be abcf 803e 91d7 123f b229 09bd
00000160: 00db cbbd 13b5 9cbc 81ad a7bd 9762 903d
00000170: 026a 83bd 75ce dbbd 4801 6bbe 8446 3cbe
00000180: 9074 b03d 9c2d 9ebc 464c 933d d498 b03d
00000190: 8c9a 1abe f514 313d d269 283e 0467 223e
000001a0: de89 563a 0861 ecbe 88f3 ddbd d38f 243e
000001b0: f4f3 f43c 64ad 53be 9192 90bd 60ab b13d
000001c0: 18db 943e 8d2d 99be 6190 583e c09e 06bf
000001d0: 62ba 3b3f af1a 3fbe 9d51 063e d82b 9bbe
000001e0: 7eef c2bd 566e a23c de17 a9bd 7f0f dabd
000001f0: 2110 693e ba47 0c3e 36cd 2c3e 7f9d d83d
00000200: bd1b 90bd e832 7cbf 6991 2f3f 59c6 8a3e
00000210: e8de 9e3e b36e b0bd e4a8 d33e 74ca 0cbe
00000220: 1834 b33e 95b0 53be 89af e83c c3f6 8fbe
00000230: b946 2ebd 8b96 98bd f521 6a3e 4558 c4bb
00000240: d946 2e3e ce93 ae3d 665f b33e 53ca 303e
00000250: 6d46 38be 03d9 9d3d f543 1c3f 09b8 f8bd
00000260: 353a 41be 3eff 01bd 5c39 5bbe 66ee 69be
00000270: 3dbd d5be 1684 8bbd cc3a 66bf 72bc e3bc
00000280: 9bfa e13e c297 88bd fcc0 13be a1e7 0dbe
00000290: b463 12be 3eb2 303e 9a82 1a3e 1159 393f
000002a0: e266 cebe 1c64 c0be 1374 05be 4e10 e63d
000002b0: e608 213e 856c aebe 9500 933e 69d3 733e
000002c0: 273b c43e c440 79be b5e0 893e ff43 ef3d
000002d0: 92e9 5d3e 4e5d 1abe 1105 9abe 45d1 ddbe
000002e0: 9476 253e 0408 8f3c 6671 3fbe f150 b8be
000002f0: 810d c13d 61db 36bd 90ca 5bbe f044 3bbe
00000300: 3b7e 263c 7507 783e e259 f0bd d40d e8be
00000310: 3510 12be f1cf d5be 7717 3b3e 9236 e33d
00000320: 2bfc 11bf cdd9 54bd af50 7dbe 49d4 8e3d
00000330: ba32 94be 0912 cdbe b525 cbbe c4ae 82bc
00000340: d17f 05be 5ed8 893d e918 053f 7a6a efbe
00000350: 332d d63e af09 de3c 61b8 183e e9a9 32be
00000360: 0786 86be 59b4 0b3c e896 523e a73b 953e
00000370: 6a91 d9be 8a37 7bbe a850 083e b05b d23d
00000380: c0ae a1bd 086d c0be 189a e33c 9013 543e
00000390: c6d7 debd de35 7a3b b61f 9bbe 715d 8dbe
000003a0: 1029 8fbb 14c9 83be baab 583e a621 283e
000003b0: 5009 a43e a96b 97be 54b7 903d 39be 24be
000003c0: 5488 833e 48e9 853d 4a45 44be fd36 a23d
000003d0: 153e a03d b22d d2bd ec78 6d3e 56b8 55be
000003e0: 8d0b 003d 278f eebc d766 9b3d 7432 7e3f
000003f0: 0cd4 f53c 5af2 c6bd 40d0 c03e 012b 0d3e

struct.4.bias f4 [64]
-0.3033554 -0.030841155 0.054930236 -0.20200056 0.047824744 0.70685965 -0.40227965 -0.4860157
-0.39288902 0.14410298 -0.3270643 -0.6672859 -0.22806479 -0.16391341 -0.34907308 0.04496846
-0.6317559 -0.24162033 -0.07471763 0.14595146 -0.5966944 -0.25540626 -0.004970153 0.03395084
-0.24350129 0.4258326 0.70982873 -0.008848635 -0.28270948 0.18564208 -0.08916468 0.018656977
-0.18929298 -0.8446949 -0.025959793 -0.08203065 -0.18357708 -0.1232809 0.44719228 -0.055442825
-0.25817698 -0.79426146 -0.57529247 -0.40811342 0.041253064 -0.37086868 0.21930058 -0.03812624
-0.9491375 0.20881838 -0.2873118 -0.33711174 0.09606695 -0.10201529 0.003296536 -0.46793798
0.17669587 -0.026386054 -0.14137772 -0.99349797 0.041283682 -0.14751077 0.10671126 -0.40307337
00000000: 6651 9bbe 97a6 fcbc 87fe 603d 3cd9 4ebe
00000010: e1e3 433d c1f4 343f 99f7 cdbe 0dd7 f8be
00000020: c028 c9be bb8f 133e f974 a7be 40d3 2abf
00000030: d189 69be ebd8 27be b5b9 b2be d930 383d
00000040: c1ba 21bf 526b 77be 8f05 99bd 4d74 153e
00000050: f7c0 18bf 9cc4 82be aadc a2bb 0910 0b3d
00000060: 6758 79be bb06 da3e 56b7 353f ddf9 10bc
00000070: 4cbf 90be f518 3e3e f99b b6bd 84d6 983c
00000080: 05d6 41be ed3d 58bf a2a9 d4bc afff a7bd
00000090: a1fb 3bbe b27a fcbd 63f6 e43e 0418 63bd
000000a0: c62f 84be b854 4bbf 5e46 13bf 3ef4 d0be
000000b0: f9f8 283d 80e2 bdbe 5590 603e 432a 1cbd
000000c0: adfa 72bf 7cd4 553e 881a 93be e999 acbe
000000d0: c0be c43d 64ed d0bd b20a 583b 9195 efbe
000000e0: c3ef 343e 9127 d8bc 52c5 10be e255 7ebf
000000f0: 1419 293d 100d 17be 6f8b da3d a25f cebe

struct.6.weight f4 [32, 64]
0.08811453 -0.22936828 -0.3365092 0.0981934 0.0051365714 0.20159775 -0.05636389 -0.10094854
-0.39522552 0.011893052 -0.17102344 -0.25472683 0.341684 -0.2146807 -0.11467877 -0.997554
0.19539675 -0.22848889 -0.09040693 -0.3304456 -0.039080802 0.07909794 -0.5198779 0.1234458
0.22680181 -0.0056124832 0.11533741 0.0037715337 0.13022606 -0.25350803 -0.40274954 0.24583624
0.32465887 -0.1871781 0.042022657 -0.037338383 -0.17626305 0.36887702 -0.119323954 0.01909864
0.10052714 -0.03747795 -0.26562575 -0.29233682 0.41966873 -0.2110827 0.09803826 -0.17661864
-0.12685229 0.2332456 -0.31382874 -0.08517999 -0.20910364 0.25715536 -0.6544747 0.028742753
0.13895224 0.4669689 -0.13500866 -0.42471084 0.61098826 -0.051922925 -0.17248303 -0.24504958
-0.2710559 -0.63436186 -0.23632126 -0.55724066 0.25831395 -0.04744473 -0.17360963 -0.052997384
-0.09701346 0.14817469 -0.12001018 0.03951312 -0.27141166 0.0036264462 -0.1675055 0.31025243
-0.48569348 -0.31451336 0.028944485 0.009164388 -0.08390571 0.053623956 0.008490797 -0.17252405
-0.43390825 0.13561091 0.31741557 0.30953157 -0.40748048 0.15778983 -0.15985441 0.18948597
-0.46612215 -0.13869178 -0.13174735 -0.10828252 0.3776741 0.09776274 1.2314754 0.09129394
0.039970353 -0.1016914 -0.22400993 -0.42367423 0.09276751 -0.093093574 0.07958016 0.09266189
0.01900304 0.34869453 -0.21349834 -0.9622565 0.20748782 -0.44570637 0.16573563 -0.7694514
-0.16356719 0.21888128 -0.30960977 -0.048302907 0.35006568 0.06339266 -0.016578209 0.08420734
0.4866084 -0.041554593 -0.46217868 -0.19398224 -0.6374844 -0.11110526 -0.03453759 -0.20706117
-0.21886078 0.1954428 0.11249743 -0.3167829 0.27990937 -0.31285766 0.11139824 -0.25436106
-0.13738047 0.38980532 0.16171423 -0.047341563 -0.046011016 -0.07133163 0.031797905 -0.27851972
-0.025695393 0.11784429 -0.14357479 -0.018905016 -0.23376255 0.24691327 0.27437356 -0.05213316
0.51562476 0.102009095 -0.0066339253 -0.043404162 -0.70480317 -0.17652377 0.068572685 0.06479503
-0.21398841 -0.008249033 -0.118888855 -0.13680892 -0.14143288 -0.14020947 0.042559963 0.08831818
-0.008190602 -0.89908826 0.021672856 0.020748595 -1.3379796 0.20868574 -0.28827867 -0.11106395
0.11824967 -0.15085495 1.1470635 0.0154284565 -0.27144742 0.1484565 0.077507935 0.050912056
-0.2894944 -0.15615511 -0.39889547 -0.11635596 -0.4833138 0.10899917 -0.5240223 -0.4202302
-0.38100785 0.2625333 -0.028840303 -0.37043363 -0.09517028 -0.102513194 -0.1751903 -0.02506466
-0.35011673 -0.14845611 0.27858782 0.3360339 0.28432906 0.103829384 0.34315357 -0.1868594
0.14007042 -0.08567971 0.13743101 0.057594657 -0.71257776 -0.16322705 0.22489758 0.30715165
-0.17683774 -0.06796131 -0.23307891 0.12977333 -0.8043435 0.18426226 0.050250698 0.24835807
0.07221242 0.09833151 -0.73216015 -0.24361484 -0.19189909 0.08199011 0.17411137 -0.028546236
0.26868382 0.018049356 -0.02111477 -0.4979579 -0.3409764 0.47152156 -0.0800043 -0.57265115
0.1578513 0.04136181 0.08171001 0.09086234 0.070792325 0.20577803 -0.23263611 0.06440296
00000000: 6475 b43d 85df 6abe ef4a acbe 9f19 c93d
00000010: af50 a83b a46f 4e3e d3dd 66bd 1cbe cebd
00000020: 005b cabe 13db 423c c520 2fbe 8e6b 82be
00000030: 35f1 ae3e 42d5 5bbe b4dc eabd b35f 7fbf
00000040: 1616 483e fef8 69be 4527 b9bd 2a30 a9be
00000050: 3113 20bd 1afe a13d b816 05bf 27d1 fc3d
00000060: bc3e 683e ece8 b7bb 0536 ec3d d62b 773b
00000070: fb59 053e cecb 81be 3035 cebe 7fbc 7b3e
00000080: b039 a63e 9eab 3fbe f31f 2c3d 22f0 18bd
00000090: 4d7e 34be 73dd bc3e 1e60 f4bd c074 9c3c
000000a0: 2ce1 cd3d 7b82 19bd 1900 88be 2cad 95be
000000b0: d2de d63e 1026 58be 49c8 c83d 84db 34be
000000c0: 91e5 01be efd7 6e3e 29ae a0be d972 aebd
000000d0: 441f 56be dea9 833e a78b 27bf ec75 eb3c
000000e0: 7f49 0e3e 8c16 ef3e b63f 0abe b373 d9be
000000f0: ba69 1c3f 22ad 54bd 649f 30be 47ee 7abe
00000100: d7c7 8abe 8a65 22bf 33fe 71be 53a7 0ebf
00000110: ba41 843e 6855 42bd b9c6 31be c913 59bd
00000120: feae c6bd 1bbb 173e e6c7 f5bd 82d8 213d
00000130: 78f6 8abe aca9 6d3b 9086 2bbe 68d9 9e3e
00000140: d1ac f8be e507 a1be fc1c ed3c 3b26 163c
00000150: c2d6 abbd cba4 5b3d fc1c 0b3c 25aa 30be
00000160: 3929 debe 96dd 0a3e 4b84 a23e ec7a 9e3e
00000170: 48a1 d0be a893 213e e0b0 23be 9c08 423e
00000180: 90a7 eebe 3805 0ebe c7e8 06be 3ac3 ddbd
00000190: 805e c13e d537 c83d fca0 9d3f 51f8 ba3d
000001a0: f4b7 233d 9543 d0bd dc62 65be d4eb d8be
000001b0: e4fc bd3d d8a7 bebd ecfa a23d 84c5 bd3d
000001c0: 43ac 9b3c 1788 b23e 4f9f 5abe 7156 76bf
000001d0: b077 543e a033 e4be 9ab6 293e c4fa 44bf
000001e0: 287e 27be 6a22 603e 2c85 9ebe 45d9 45bd
000001f0: cf3b b33e 03d4 813d 06cf 87bc e674 ac3d
00000200: bc24 f93e 2635 2abd afa2 ecbe 48a3 46be
00000210: 2d32 23bf 288b e3bd 4a77 0dbd d807 54be
00000220: 0a1d 60be 2822 483e 0d65 e63d 5e31 a2be
00000230: 4850 8f3e e12e a0be c324 e43d 9d3b 82be
00000240: 77ad 0cbe 9094 c73e 6a98 253e 3ae9 41bd
00000250: 0c76 3cbd 5116 92bd 853e 023d 239a 8ebe
00000260: 257f d2bc 5958 f13d 4505 13be b1de 9abc
00000270: 735f 6fbe d5d6 7c3e b17a 8c3e 9589 55bd
00000280: fcff 033f 25ea d03d 6661 d9bb 90c8 31bd
00000290: fb6d 34bf a6c2 34be d66f 8c3d 42b3 843d
000002a0: c71f 5bbe f426 07bc 007c f3bd a317 0cbe
000002b0: c8d3 10be 1293 0fbe 5b53 2e3d 29e0 b43d
000002c0: e031 06bc a62a 66bf 468b b13c f5f8 a93c
000002d0: ea42 abbf b7b1 553e 4399 93be 7f75 e3bd
000002e0: e22c f23d b879 1abe fad2 923f a3c7 7c3c
000002f0: 28fb 8abe fb04 183e 7bbc 9e3d 2989 503d
00000300: 9c38 94be 20e7 1fbe 073c ccbe 094c eebd
00000310: e874 f7be f53a df3d 5326 06bf 6a28 d7be
00000320: 7613 c3be c46a 863e 8042 ecbc 7aa9 bdbe
00000330: a3e8 c2bd 70f2 d1bd 1665 33be 6754 cdbc
00000340: 8042 b3be e104 18be 10a3 8e3e a30c ac3e
00000350: 9493 913e 80a4 d43d d3b1 af3e 1258 3fbe
00000360: 9f6e 0f3e d878 afbd b7ba 0c3e 60e8 6b3d
00000370: 7f6b 36bf fe24 27be 8d4b 663e fb42 9d3e
00000380: f414 35be 4d2f 8bbd 3dac 6ebe 4de3 043e
00000390: 75e9 4dbf 3faf 3c3e add3 4d3d 9451 7e3e
000003a0: 1be4 933d 0862 c93d d96e 3bbf 2b76 79be
000003b0: 3281 44be 6eea a73d 404a 323e ccd9 e9bc
000003c0: ed90 893e 3edc 933c e2f8 acbc 56f4 febe
000003d0: 7594 aebe 466b f13e 4bd9 a3bd 4499 12bf
000003e0: c5a3 213e 006b 293d 9457 a73d 0916 ba3d
000003f0: 91fb 903d 7ab7 523e 2938 6ebe b3e5 833d

struct.6.bias f4 [32]
0.19518828 0.63812554 -0.08565819 0.48456576 0.10950186 0.59727746 -0.21702506 0.18136603
0.12088389 0.24101713 -0.099125504 0.17013164 -0.21356352 0.5009626 0.34194207 0.07479164
0.2247612 -0.30874327 0.119322754 -0.09528973 0.50771105 0.018883131 -0.65703905 0.34896496
-0.62322277 -0.20039916 -0.15224513 0.13563807 0.022613335 0.0834388 -0.13856457 -0.67541665
00000000: 70df 473e 325c 233f 906d afbd 0119 f83e
00000010: 8342 e03d 2de7 183f d13b 5ebe 04b8 393e
00000020: f991 f73d 32cd 763e 5002 cbbd fd36 2e3e
00000030: 65b0 5abe 163f 003f 0813 af3e 5c2c 993d
00000040: cd27 663e 9913 9ebe 7d5f f43d 4327 c3bd
00000050: 5af9 013f ccb0 9a3c b633 28bf 89ab b23e
00000060: 878b 1fbf 7035 4dbe 26e6 1bbe b5e4 0a3e
00000070: 9a3f b93c f6e1 aa3d dfe3 0dbe 1be8 2cbf

struct.8.weight f4 [16, 32]
-0.058802467 0.29859033 0.61288005 0.685633 -1.1233283 0.1550767 -0.8501632 0.73265105
0.4851044 -0.40576386 0.01965847 -0.70004576 0.22199884 -0.09230743 0.2825903 -0.5307261
-0.37652257 -0.015740836 0.81153375 -1.3570337 0.77745515 0.000867929 0.434867 -0.012826902
-0.3327517 -0.05787781 -0.37036178 0.1981115 -0.34194633 0.3585095 0.17020454 -0.27368185
-0.6446137 0.20358531 0.24627385 0.11808032 -0.035809476 -0.4918821 -0.16608118 -0.6454398
0.123161055 -0.5137269 0.33892313 -0.016917096 0.44911498 -0.14446098 0.24615745 0.2676262
-0.9855337 -0.011921923 -0.49257836 0.3438417 0.16403048 0.085254006 0.8112029 0.32797045
0.28543225 -0.15632206 -0.33634394 0.5988049 -0.05816189 0.043513067 0.21657631 -0.08437122
0.04786458 -0.42850098 -0.18781734 -0.06333533 0.038630538 -0.18240044 -0.1425144 -0.03166741
-0.22068015 0.020399693 -0.16034421 0.025618933 -0.27478543 0.2697219 -0.40976667 -0.054120664
-0.11480839 0.36984485 0.3411335 -0.21023999 -0.15435939 0.15402398 0.00022735514 -0.3968455
0.07967929 0.5754098 0.89607346 0.0032233659 0.6032633 0.056045905 0.30024704 0.6539734
-0.34606245 -0.02871526 -0.55766135 -0.59623957 -0.45882308 0.341902 0.63350534 -0.10168467
-0.5758452 -0.29517266 -1.0362128 -0.34649605 0.16161397 0.17754973 -0.018096477 -0.7364637
0.12735595 -0.8692055 -0.15375106 -0.21090284 -0.5060312 -0.431452 0.13395555 0.52019435
0.9521832 -0.09615441 -0.36205515 0.1882459 -0.34342685 -0.5095114 -0.33688134 0.29488066
-0.13727227 -0.13633959 -0.16805528 -0.050818272 -0.22480084 -0.3396212 -0.46710756 -0.53056437
0.2602053 -0.05463899 -0.06171546 -0.43120855 0.40248758 -0.08185363 0.6259924 -0.69788176
0.42891616 0.3674413 -0.7320036 -0.14970908 -0.10049065 0.095268175 0.34162283 -0.3744165
0.31050313 0.006458891 -0.27611914 -0.45566884 -0.36574522 0.40010354 0.26403508 0.59251577
-0.27233464 -0.11920031 0.9355714 0.75768757 -0.048146874 0.3988976 -0.43424693 -0.7431597
0.33275628 -0.28002766 -0.35580286 0.03530208 0.021840883 -0.8276494 -0.17707184 0.36310297
-0.89652973 0.42224914 0.35365325 -0.04127129 -0.069134764 0.4095199 0.7508761 0.044262268
-1.122604 0.6130551 0.3589559 0.33468348 0.5665073 0.7333403 0.09222324 -0.5256085
0.59940606 0.31261933 0.5181278 0.46215624 -0.45972055 -0.06937989 -0.4682932 0.61697257
0.21780047 0.21815953 -0.2888523 -0.2615469 -0.26903808 0.7449455 0.2880475 -1.308866
-0.12873952 0.52471393 -0.4222179 0.16514203 0.684242 0.22591893 -0.19985858 -0.15099774
-0.27311644 -0.13940229 -0.1649527 -0.47035983 -0.06095375 0.5237049 0.41101906 0.9071056
-0.15472306 0.37245876 -0.29189464 0.056183234 0.16242048 0.5862541 -0.42825285 -0.030712169
-0.12008097 -0.3473749 0.038927395 0.05528003 0.1120926 -0.9411277 -0.50026 0.5497146
-0.19445822 -0.33924204 -0.3295337 0.61309946 -0.08843243 0.22521468 0.5564334 0.42728487
-0.12834395 -0.009260368 0.20906395 1.0453414 0.108864315 -0.08755741 -0.07443327 -0.3956527
00000000: dbda 70bd d5e0 983e b5e5 1c3f a585 2f3f
00000010: 39c9 8fbf 6dcc 1e3e 4ca4 59bf 058f 3b3f
00000020: 9b5f f83e 48c0 cfbe cd0a a13c 3336 33bf
00000030: aa53 633e ae0b bdbd adaf 903e aadd 07bf
00000040: 91c7 c0be edf2 80bc adc0 4f3f 48b3 adbf
00000050: 4d07 473f bb85 633a e3a6 de3e ed27 52bc
00000060: 6e5e aabe 4811 6dbd 0fa0 bdbe bedd 4a3e
00000070: 9713 afbe 8f8e b73e 194a 2e3e 0720 8cbe
00000080: 6705 25bf ab78 503e 362f 7c3e 18d4 f13d
00000090: f5ac 12bd f8d7 fbbe 2f11 2abe 8b3b 25bf
000000a0: dd3b fc3d 9b83 03bf 5587 ad3e b995 8abc
000000b0: 66f2 e53e 94ed 13be b310 7c3e 4d06 893e
000000c0: f04b 7cbf 2b54 43bc 3b33 fcbe 050c b03e
000000d0: 9bf7 273e a799 ae3d feaa 4f3f beeb a73e
000000e0: 2d24 923e e412 20be 4635 acbe 474b 193f
000000f0: 293b 6ebd c23a 323d 2ec6 5d3e d1ca acbd
00000100: a60d 443d 7b64 dbbe 3053 40be f4b5 81bd
00000110: 0e3b 1e3d 2ec7 3abe 4bef 11be b0b5 01bd
00000120: faf9 61be 421d a73c 4631 24be ccde d13c
00000130: adb0 8cbe fd18 8a3e f0cc d1be a1ad 5dbd
00000140: a920 ebbd 4e5c bd3e 0da9 ae3e 2749 57be
00000150: 6310 1ebe 76b8 1d3e 2e66 6e39 552f cbbe
00000160: e52e a33d 0f4e 133f 1265 653f 1b3f 533b
00000170: 776f 1a3f 6490 653d fbb9 993e cd6a 273f
00000180: 192f b1be 443c ebbc e5c2 0ebf 28a3 18bf
00000190: dcea eabe c70d af3e 682d 223f 0d40 d0bd
000001a0: 976a 13bf df20 97be 9fa2 84bf ee67 b1be
000001b0: 227e 253e 99cf 353e 103f 94bc e388 3cbf
000001c0: 9969 023e 4084 5ebf eb70 1dbe eaf6 57be
000001d0: 438b 01bf 47e7 dcbe a52b 093e 752b 053f
000001e0: 47c2 733f 9aec c4bd 4b5f b9be 89c3 403e
000001f0: a5d5 afbe 576f 02bf b67b acbe 99fa 963e
00000200: 1a91 0cbe 9b9c 0bbe af16 2cbe d226 50bd
00000210: 3132 66be d4e2 adbe b928 efbe 11d3 07bf
00000220: a139 853e 22cd 5fbd 5ac9 7cbd 5ec7 dcbe
00000230: da12 ce3e e0a2 a7bd 0a41 203f 61a8 32bf
00000240: e69a db3e 4421 bc3e 9764 3bbf 564d 19be
00000250: 0bce cdbd f61b c33d 30e9 ae3e 85b3 bfbe
00000260: 44fa 9e3e 1ba5 d33b 7d5f 8dbe 6d4d e9be
00000270: f542 bbbe 5fda cc3e 9b2f 873e 1daf 173f
00000280: 726f 8bbe 4b1f f4bd 9b81 6f3f d0f7 413f
00000290: a835 45bd 4e3c cc3e 9d55 debe b73f 3ebf
000002a0: 085f aa3e c95f 8fbe cb2b b6be ea98 103d
000002b0: a7eb b23c d5e0 53bf 5252 35be a2e8 b93e
000002c0: f982 65bf 0a31 d83e 0a12 b53e 160c 29bd
000002d0: 8796 8dbd 98ac d13e 6b39 403f 5a4c 353d
000002e0: 7db1 8fbf 2ef1 1c3f 11c9 b73e a25b ab3e
000002f0: 9f06 113f 31bc 3b3f 8adf bc3d 478e 06bf
00000300: ad72 193f a40f a03e 06a4 043f be9f ec3e
00000310: 7e60 ebbe 0b17 8ebd 20c4 efbe eaf1 1d3f
00000320: 1607 5f3e 3665 5f3e 73e4 93be 7ae9 85be
00000330: 5cbf 89be c0b4 3e3f f67a 933e ec88 a7bf
00000340: 4bd4 03be a753 063f f22c d8be fe1a 293e
00000350: 7c2a 2f3f 4b57 673e baa7 4cbe 279f 1abe
00000360: ebd5 8bbe 79bf 0ebe 5ce9 28be 01d3 f0be
00000370: a4aa 79bd 8611 063f 1771 d23e 1338 683f
00000380: b96f 1ebe eab2 be3e 3773 95be 6420 663d
00000390: 8e51 263e c014 163f f543 dbbe 1698 fbbc
000003a0: 03ed f5bd 1fdb b1be 5572 1f3d 506d 623d
000003b0: ce90 e53d bfed 70bf 0a11 00bf 19ba 0c3f
000003c0: 0e20 47be 22b1 adbe a4b8 a8be 16f4 1c3f
000003d0: 101c b5bd ad9e 663e 6b72 0e3f 15c5 da3e
000003e0: 996c 03be ccb8 17bc dc14 563e bfcd 853f
000003f0: 41f4 de3d 4d51 b3bd 7870 98bd fe92 cabe

struct.8.bias f4 [16]
-0.0940487 -0.15156429 -0.14435142 -0.26846007 -0.58141977 -0.0662438 -0.13874602 0.3408984
0.14968316 -0.5569568 1.0190594 0.2723166 0.0067290594 0.09566483 -0.10333737 0.38146842
00000000: 9b9c c0bd ab33 1bbe dcd0 13be 9973 89be
00000010: edd7 14bf d4aa 87bd 7013 0ebe 3c8a ae3e
00000020: 8b46 193e b994 0ebf 8a70 823f 156d 8b3e
00000030: 717f dc3b eceb c33d 8ba2 d3bd d44f c33e

struct.10.weight f4 [12, 16]
0.71149796 0.37275454 1.4954377 -2.6100373 1.5082797 1.8761468 -0.9606909 0.57341003
0.3146887 -0.6500148 -0.43461233 0.7654812 1.9525219 -0.96400636 0.16903473 -0.7533587
1.1603686 -0.49500215 0.12507044 0.41067868 -0.49728778 -0.95114946 -0.5505883 -1.6689948
-0.15245563 -0.2972076 0.9612397 -0.29829377 0.44208357 -0.5265116 0.095393814 0.32337072
0.99834377 -0.25549653 -0.4667712 0.39750424 -0.26587415 -0.18218547 0.7366497 -1.1764139
0.464776 -0.4722143 0.20576061 -0.22430673 0.94721806 -0.90016156 -0.54950064 0.33476537
0.471499 -0.8453524 -0.8457775 -0.11710967 0.21064399 -0.40837234 -0.5488165 0.5456877
1.6211911 -0.6090421 1.0471461 -0.7736381 0.7959676 0.025110878 1.5282798 -0.54122007
0.7798876 -0.77635 0.24254781 -0.88203853 1.73101 -1.158582 1.0389336 -0.2029909
-0.17360711 -0.18515822 0.66613317 0.6932035 -0.49047554 0.91217536 1.4271572 -0.045951013
-1.1483734 1.2249739 0.040868405 -0.018275395 1.3689293 -0.01895059 -1.6456803 -0.46087512
-1.5725018 -0.64713377 -0.06804359 0.4615725 0.6902308 -2.2094774 -0.18543242 -0.7513501
-0.6923831 -0.7503099 -0.49069768 0.31220466 0.4878585 -0.66734797 1.6210711 0.006051488
0.10679685 -0.45083728 0.57411563 0.5387106 0.6170199 0.0891222 -0.56912786 1.2751567
-0.7108756 -0.1448817 0.24326013 0.59407634 -0.7765957 -0.53453135 -0.38726977 0.3002485
0.11774995 0.08031271 0.5766295 -0.7833081 -0.3622794 0.9682488 -0.97925544 -0.67117435
-0.454203 0.60697705 0.71674144 -1.0923868 0.15560018 1.6705223 -1.1144433 0.92028606
-0.8479095 1.2269611 -2.3342178 0.56842965 -1.4489447 -0.5283353 1.5707737 0.010006758
-0.10240947 1.1788436 -0.32364073 -1.4054428 -0.76540035 2.4668214 0.40604195 0.3623711
0.028704552 -0.038796093 -0.0075593926 0.9279297 -0.6661747 1.4131118 0.42355898 1.4755471
-0.46814814 0.2658262 0.3524195 0.7662816 -0.46939075 -0.4751694 -0.65132254 0.35980806
-0.101835355 0.58266586 0.21495724 -0.7606089 -0.7136207 0.9898056 -0.7453546 -0.81127214
-1.3723693 -0.3537002 0.6975174 1.0118034 -0.79626405 0.808178 0.28271848 0.38382563
-0.034518667 0.7798336 -1.0254753 -0.26806602 -1.2367786 -0.2214597 -0.8717128 0.32193208
00000000: bb24 363f afd9 be3e 816a bf3f da0a 27c0
00000010: 4f0f c13f 9425 f03f d7ef 75bf 00cb 123f
00000020: e11e a13e 5f67 26bf 8285 debe 93f6 433f
00000030: 3dec f93f 1fc9 76bf 7117 2d3e 1edc 40bf
00000040: f586 943f ec70 fdbe 7712 003e 7a44 d23e
00000050: 819c febe 887e 73bf 5bf3 0cbf 9fa1 d5bf
00000060: 541d 1cbe 982b 98be ce13 763f f6b9 98be
00000070: c758 e23e 77c9 06bf d55d c33d d990 a53e
00000080: 7593 7f3f 71d0 82be a2fc eebe ad85 cb3e
00000090: a820 88be d48e 3abe 1395 3c3f bb94 96bf
000000a0: 1ff7 ed3e 13c6 f1be e9b2 523e aab0 65be
000000b0: e27c 723f fd70 66bf 13ac 0cbf 5e66 ab3e
000000c0: 5168 f13e 0469 58bf e084 58bf 32d7 efbd
000000d0: 0fb3 573e 2e16 d1be 3d7f 0cbf 30b2 0b3f
000000e0: 3183 cf3f 2fea 1bbf e208 863f 260d 46bf
000000f0: 88c4 4b3f 54b5 cd3c ac9e c33f 668d 0abf
00000100: b7a6 473f e0be 46bf 745e 783e 47cd 61bf
00000110: bc91 dd3f 6a4c 94bf c7fb 843f d9dc 4fbe
00000120: 10c6 31be 1e9a 3dbe b487 2a3f c975 313f
00000130: 9c1f fbbe 5384 693f 16ad b63f 2137 3cbd
00000140: e6fd 92bf f2cb 9c3f a165 273d 48b6 95bc
00000150: 1339 af3f 453e 9bbc a7a5 d2bf d3f7 ebbe
00000160: bd47 c9bf 8faa 25bf 705a 8bbd 3b53 ec3e
00000170: f7b2 303f 1468 0dc0 ffe1 3dbe 7b58 40bf
00000180: 0540 31bf 4f14 40bf ba3c fbbe 4ad9 9f3e
00000190: 97c8 f93e 51d7 2abf 427f cf3f 904b c63b
000001a0: 4fb8 da3d 25d4 e6be 3ef9 123f f0e8 093f
000001b0: 04f5 1d3f b385 b63d 5db2 11bf 5638 a33f
000001c0: f1fb 35bf de5b 14be 2f19 793e 6315 183f
000001d0: face 46bf 0cd7 08bf 3948 c6be 2cba 993e
000001e0: e326 f13d fd7a a43d fe9d 133f e186 48bf
000001f0: af7c b9be 27df 773f 7cb0 7abf 15d2 2bbf
00000200: 4c8d e8be d962 1b3f 5e7c 373f 55d3 8bbf
00000210: a755 1f3e add3 d53f 14a6 8ebf de97 6b3f
00000220: 9910 59bf 100d 9d3f d363 15c0 9b84 113f
00000230: 0577 b9bf fb40 07bf 1d0f c93f 63f3 233c
00000240: 0ebc d1bd 59e4 963f 3db4 a5be 8de5 b3bf
00000250: 47f1 43bf 67e0 1d40 bbe4 cf3e b488 b93e
00000260: cf25 eb3c a7e8 1ebd c8b4 f7bb cd8c 6d3f
00000270: 6d8a 2abf d9e0 b43f b9dc d83e bade bc3f
00000280: 1db1 efbe 5f1a 883e 5470 b43e 082b 443f
00000290: fc53 f0be 6749 f3be 13bd 26bf c338 b83e
000002a0: 0e8f d0bd 9729 153f c01d 5c3e 44b7 42bf
000002b0: d9af 36bf e663 7d3f 8fcf 3ebf 88af 4fbf
000002c0: cca9 afbf 3118 b5be 8090 323f c682 813f
000002d0: f6d7 4bbf c1e4 4e3f 7ac0 903e cb84 c43e
000002e0: 7263 0dbd 2da3 473f c642 83bf f33f 89be
000002f0: c34e 9ebf 55c6 62be 9228 5fbf 48d4 a43e

struct.10.bias f4 [12]
-1.0749271 0.8431279 -0.41916934 -0.65939015 -0.015064901 0.5378796 -0.07142113 -0.19146603
-0.0030486754 -0.7948491 -0.4463398 0.63456863
00000000: 3697 89bf 3bd7 573f 5d9d d6be cbcd 28bf
00000010: c6d2 76bc 7ab2 093f 3e45 92bd ac0f 44be
00000020: 49cc 47bb 3b7b 4bbf a686 e4be 1773 223f
