models/multi/initial.model (torch, 99265 bytes, 12 tensors)

struct.0.weight f4 [128, 67]
-0.044242617 -0.18832934 0.21372433 -0.06337329 -0.020459553 0.12686017 -0.4752096 -0.5669272
-0.53281546 0.040058814 0.08953808 0.11832929 0.0005114413 0.054419648 -0.19433963 0.06799309
-0.11234977 -0.21822342 -0.21557592 -0.0038963917 -0.029055046 -0.2697278 -0.16950479 -0.12124171
-0.15003714 0.033365536 0.015882067 -0.0418103 -0.046864092 0.06039562 0.2249059 0.003227041
-0.053581297 -0.06660837 0.03635744 -0.40495896 -0.37617072 -0.52867544 -0.05591743 0.0076902458
0.006743872 0.16973315 0.012869952 0.0059915814 0.18197669 -0.024579266 -0.5186595 -0.47816694
0.05429664 -0.11630589 0.056141954 0.11317802 0.15948944 0.003445031 -0.0044327546 0.10821397
0.05076755 -0.08499854 -0.17083205 -0.077017255 0.034669973 0.080022536 -0.18881549 -0.08666362
-0.18553953 -0.12693864 -0.11965962 0.0116055915 0.1359358 0.0143930875 -0.0754706 0.1840084
-0.1801282 0.39601454 0.369547 0.39432034 0.10309144 -0.15610114 -0.3090808 -0.2956548
-0.21129993 0.15602505 0.042882774 0.08607045 0.18133612 -0.033322953 -0.09689486 0.1428974
0.0924532 0.04184202 0.084913224 -0.16598958 -0.058779426 -0.06873305 -0.2794226 -0.29763615
-0.17044108 -0.08303516 0.07155252 0.1695747 -0.14554387 -0.064846925 0.35982066 0.24396819
0.4348022 0.1774307 -0.24833687 -0.09155423 -0.26797792 -0.08730748 -0.20259313 -0.20420958
-0.13090837 0.30620942 0.4924403 -0.06328287 0.066363655 -0.040902473 0.2230561 -0.12176665
-0.2506429 -0.25289884 -0.28160667 0.11926909 -0.013345125 -0.27141857 -0.2535697 -0.09736518
-0.15195493 -0.16065444 0.051805653 0.0501173 -0.011641355 0.3221152 0.027055362 -0.07030141
-0.15447152 -0.010770161 0.16351108 -0.17887685 0.5505662 0.5648784 0.5835844 -0.0071840985
-0.06191816 -0.12215063 -0.21907702 -0.17012379 0.09785017 0.03547759 0.25797516 0.21900912
0.100651056 -0.13041207 0.12675236 0.13702944 0.15348843 0.10462837 -0.14564958 -0.21650042
-0.08119451 -0.24341387 -0.116183795 0.08120631 -0.20583043 0.15773055 0.0032077231 -0.09125134
-0.09696371 0.5531093 0.3280356 0.5816718 0.021575091 -0.18725872 -0.10246479 -0.23530345
-0.23807645 -0.079024956 -0.16480559 -0.124644354 0.24873334 0.6078623 -0.09630525 -0.034764413
0.07606805 0.16483018 -0.09002923 -0.1728499 -0.2244854 -0.10159572 -0.051502984 0.039173506
-0.16565326 -0.095647156 -0.15105373 -0.20151985 -0.069778375 -0.032287523 -0.022855785 0.016096847
-0.010620277 -0.043319985 0.10398936 0.0358123 0.097890824 -0.051160976 0.14136401 -0.27997485
-0.36727244 -0.4330201 -0.29589295 0.27653033 0.1271505 0.18554473 0.10409606 -0.22811997
-0.07147608 0.12184256 -0.025725206 0.08063106 0.2868767 0.14373404 -0.07781572 -0.064471476
0.15494782 0.20133929 0.06830278 0.3020516 0.22915182 0.22603911 0.2514641 0.11249721
-0.10316547 0.008921165 0.06951778 0.1506947 -0.3143444 -0.36287308 -0.4571106 -0.08413891
-0.00959101 0.07979016 0.053895283 0.30110893 0.0454043 0.26359513 0.14583214 -0.22895138
-0.34557366 0.31934682 -0.06355881 -0.027762398 -0.1809939 0.09257708 0.059559163 0.20994177
00000000: bf37 35bd 68d9 40be 8dda 5a3e dbc9 81bd
00000010: cb9a a7bc a2e7 013e ac4e f3be 2422 11bf
00000020: 9866 08bf b614 243d be5f b73d a056 f23d
00000030: 3f12 063a 23e7 5e3d f800 47be f63f 8b3d
00000040: a317 e6bd f675 5fbe efbf 5cbe 9b5a 7fbb
00000050: d904 eebc c319 8abe aa92 2dbe 934d f8bd
00000060: 56a3 19be 4daa 083d 1c1b 823c 4741 2bbd
00000070: 90f4 3fbd 6661 773d bb4d 663e c47c 533b
00000080: 1078 5bbd f869 88bd 8aeb 143d c856 cfbe
00000090: 7399 c0be 4657 07bf ad09 65bd 75fe fb3b
000000a0: b3fb dc3b 87ce 2d3e 7edc 523c 0755 c43b
000000b0: 1958 3a3e 755a c9bc dec6 04bf 4cd2 f4be
000000c0: 2766 5e3d c831 eebd 1bf5 653d e1c9 e73d
000000d0: 3351 233e 07c6 613b a440 91bb 499f dd3d
000000e0: a2f1 4f3d b713 aebd 99ee 2ebe 39bb 9dbd
000000f0: 1a02 0e3d dbe2 a33d d958 41be b27c b1bd
00000100: 13fe 3dbe 34fc 01be 1a10 f5bd 6125 3e3c
00000110: c132 0b3e fcd0 6b3c 5490 9abd b36c 3c3e
00000120: 8773 38be 6bc2 ca3e 4435 bd3e 5be4 c93e
00000130: 9b21 d33d fad8 1fbe d73f 9ebe 1160 97be
00000140: 025f 58be 08c5 1f3e d9a5 2f3d b445 b03d
00000150: 2db0 393e a67d 08bd d070 c6bd b253 123e
00000160: 1a58 bd3d 8a62 2b3d fce6 ad3d 2cf9 29be
00000170: b2c2 70bd eac3 8cbd 7b10 8fbe c463 98be
00000180: 1b88 2ebe 570e aabd 218a 923d fda4 2d3e
00000190: 7409 15be 77ce 84bd 6a3a b83e ccd2 793e
000001a0: 659e de3e 65b0 353e 054c 7ebe c980 bbbd
000001b0: 6734 89be 44ce b2bd 9374 4fbe 511c 51be
000001c0: d80c 06be 7bc7 9c3e 2321 fc3e 739a 81bd
000001d0: abe9 873d 5a89 27bd d168 643e cb60 f9bd
000001e0: 4454 80be f57b 81be c02e 90be 5a43 f43d
000001f0: 83a5 5abc 60f7 8abe e3d3 81be 6567 c7bd
00000200: 139a 1bbe 9982 24be 2a32 543d cc47 4d3d
00000210: 62bb 3ebc 49ec a43e 35a3 dd3c 30fa 8fbd
00000220: c82d 1ebe 5475 30bc 736f 273e 7e2b 37be
00000230: e8f1 0c3f df9b 103f ca65 153f 9668 ebbb
00000240: e69d 7dbd 1c2a fabd ba55 60be ee34 2ebe
00000250: ac65 c83d f350 113d 5215 843e ed43 603e
00000260: 2422 ce3d be8a 05be 5fcb 013e 7251 0c3e
00000270: 122c 1d3e 6647 d63d 2a25 15be 49b2 5dbe
00000280: 4f49 a6bd 7c41 79be c5f1 edbd 7e4f a63d
00000290: 36c5 52be 1e84 213e aa38 523b fce1 babd
000002a0: e994 c6bd 9298 0d3f 48f4 a73e 71e8 143f
000002b0: 3fbe b03c c0c0 3fbe 0fd9 d1bd 63f3 70be
000002c0: 50ca 73be d6d7 a1bd ccc2 28be 8a45 ffbd
000002d0: f4b3 7e3e dd9c 1b3f b03b c5bd 2165 0ebd
000002e0: 91c9 9b3d 3ec9 283e 3f61 b8bd 90ff 30be
000002f0: 80df 65be 6b11 d0bd cbf4 52bd 6674 203d
00000300: 02a1 29be a8e2 c3bd d4ad 1abe 385b 4ebe
00000310: f7e7 8ebd ec3f 04bd 0e3c bbbc 89dd 833c
00000320: ac00 2ebc 4c70 31bd 60f8 d43d ebaf 123d
00000330: fc7a c83d 2c8e 51bd bac1 103e dd58 8fbe
00000340: 220b bcbe d0b4 ddbe 487f 97be 6295 8d3e
00000350: be33 023e 70ff 3d3e 5130 d53d 4898 69be
00000360: 0d62 92bd 9888 f93d abbd d2bc e621 a53d
00000370: 81e1 923e 042f 133e d95d 9fbd 9f09 84bd
00000380: a4aa 1e3e e32b 4e3e 54e2 8b3d 82a6 9a3e
00000390: c6a6 6a3e cc76 673e e7bf 803e f064 e63d
000003a0: 6b48 d3bd 142a 123c 565f 8e3d b64f 1a3e
000003b0: c0f1 a0be 80ca b9be 670a eabe 0551 acbd
000003c0: 9d23 1dbc 0669 a33d 4dc1 5c3d f32a 9a3e
000003d0: dcf9 393d f1f5 863e 0555 153e 3b72 6abe
000003e0: 08ef b0be 6d81 a33e 1f2b 82bd f86d e3bc
000003f0: 7756 39be 0d99 bd3d 4ff4 733d fafa 563e

struct.0.bias f4 [128]
-0.16592336 0.12469489 0.14287683 -0.21961422 -0.22975264 0.22960612 -0.16103296 -0.11955337
-0.046538282 0.0018823309 -0.20752339 0.07766894 0.09410726 -0.15342386 -0.1168589 0.16695285
-0.06773229 -0.015185514 0.025062554 -0.22091272 0.17269783 0.017332954 -0.30657336 0.14092466
-0.20689297 0.23753366 -0.15540998 -0.17499106 0.2177155 0.034516938 0.17306344 0.16934165
-0.112513565 -0.038062673 -0.05056605 0.17872843 0.16082212 -0.27191925 0.12114686 -0.19574139
-0.0037674971 -0.10882728 0.07005525 -0.2799303 0.17279 -0.13066514 -0.051645007 0.120388955
-0.23002818 -0.041018102 0.14292483 0.076663725 0.009372086 0.029366326 0.1106131 -0.1799323
0.12401013 -0.15193854 -0.1695133 0.16814347 0.047197554 -0.123999946 -0.18817163 0.26284716
-0.09874014 0.012475985 0.0886563 -0.20609356 -0.3797378 0.2510984 -0.27307144 -0.15511727
-0.038962804 0.19073021 0.06055417 0.09522536 0.06803632 -0.13167039 0.18394129 0.11537066
-0.16251 0.004239228 -0.10691882 -0.17133397 -0.011065134 0.026164953 -0.074735425 -0.1649382
-0.21478441 0.043113492 -0.053835463 0.06758186 0.11693626 -0.12882768 0.13499679 -0.22071163
-0.22315405 0.2979509 0.15620351 0.19754574 0.18366233 -0.090890594 0.20126197 0.26528502
-0.039552614 -0.15642706 -0.24511103 0.07799977 -0.26911902 0.16749677 0.09731232 -0.19216526
0.2470157 -0.18459837 0.13772355 -0.19231606 -0.15213901 -0.10878689 -0.09737281 0.21821178
-0.21150817 -0.014378965 -0.103367634 0.1690469 -0.17463866 -0.16437382 -0.29191843 0.2246222
00000000: d0e7 29be 0960 ff3d 4e4e 123e 8de2 60be
00000010: 4744 6bbe de1d 6b3e d3e5 24be 66d8 f4bd
00000020: ed9e 3ebd 8bb8 f63a 0381 54be e510 9f3d
00000030: 4fbb c03d 251b 1dbe b853 efbd b0f5 2a3e
00000040: 3ab7 8abd aacc 78bc fc4f cd3c f236 62be
00000050: b3d7 303e d7fd 8d3c 2ff7 9cbe 8e4e 103e
00000060: c0db 53be 063c 733e cb23 1fbe db30 33be
00000070: d0f0 5e3e a261 0d3d 8b37 313e e667 2d3e
00000080: 836d e6bd 9be7 1bbd 591e 4fbd 9604 373e
00000090: 8eae 243e 0039 8bbe d81b f83d 6e70 48be
000000a0: 1de8 76bb d6e0 debd 2079 8f3d 0653 8fbe
000000b0: ddef 303e 15cd 05be b789 53bd 7c8e f63d
000000c0: 828c 6bbe 9902 28bd e35a 123e df01 9d3d
000000d0: 618d 193c a691 f03c 1f89 e23d 2c40 38be
000000e0: 06f9 fd3d c795 1bbe e594 2dbe cd2d 2c3e
000000f0: 3952 413d aff3 fdbd 10b0 40be e793 863e
00000100: 4538 cabd 1368 4c3c 6f91 b53d 310a 53be
00000110: fe6c c2be f88f 803e 05d0 8bbe 10d7 1ebe
00000120: 7697 1fbd c84e 433e a607 783d 8305 c33d
00000130: a056 8b3d 9ad4 06be 1b5b 3c3e 7447 ec3d
00000140: 0569 26be 39e9 8a3b 41f8 dabd 2c72 2fbe
00000150: 894a 35bc e257 d63c e30e 99bd 8fe5 28be
00000160: 72f0 5bbe c697 303d 9382 5cbd 5c68 8a3d
00000170: 477c ef3d 67eb 03be 993c 0a3e 3b02 62be
00000180: 7f82 64be 058d 983e d0f3 1f3e 6e49 4a3e
00000190: fa11 3c3e d924 babd 9e17 4e3e 70d3 873e
000001a0: ec01 22bd 6a2e 20be 63fe 7abe 58be 9f3d
000001b0: f8c9 89be 4684 2b3e ae4b c73d f8c6 44be
000001c0: aff1 7c3e 5b07 3dbe 6707 0d3e 80ee 44be
000001d0: 54ca 1bbe a9cb debd 656b c7bd e972 5f3e
000001e0: 9995 58be c095 6bbc 69b2 d3bd a11a 2d3e
000001f0: 7ad4 32be 9c51 28be 5576 95be 5d03 663e

struct.2.weight f4 [64, 128]
-0.012202944 -0.18510309 -0.07972411 0.8104476 0.27455094 -0.015220436 -0.14547235 0.06619732
0.15053743 -0.15161125 0.45996746 0.02647215 -0.3091178 0.02125353 0.056242887 -0.34241337
0.2875682 0.2078866 -0.21400279 0.4585121 0.10284348 -0.1550081 0.074291445 -0.3019896
0.34564018 -0.16641618 0.068996884 0.17401136 -0.63666177 0.044847276 -0.026153145 0.029002907
-0.16646636 0.10284581 0.09726941 -0.7449861 -0.53412694 0.15711465 -0.59885824 0.47408065
0.23961203 0.2704821 0.0637735 0.16053297 -0.23792084 0.80218697 0.2393787 0.11772366
0.07875684 0.25217927 -0.05510975 -0.16445106 -0.13302644 -0.12756695 -0.1657884 0.49663126
0.01674844 0.45911044 0.3342817 -0.031150773 0.12839001 -0.0072071156 0.13376404 -0.69984406
0.9519849 -0.055865053 0.07897206 0.26358518 0.11999772 -0.5621104 0.8064544 -0.1212539
0.1401984 -0.16552493 -0.32513687 -0.026494784 0.20222704 0.026248423 -0.18198583 -0.36434457
0.306239 0.040724494 0.35475048 0.4760078 0.2290004 0.12028389 0.2748701 -0.027898272
0.126507 0.073204145 -0.44115195 -0.2064997 -0.25756553 0.19899128 -0.21546581 -0.1676978
0.20648484 0.036748074 -0.20675147 -1.0938586 0.12938651 0.18833643 0.18784729 -0.14561792
0.03252262 0.21755496 0.75093985 -0.15129319 -0.08692157 0.15667301 0.24130248 0.021566566
-0.32416266 -0.11392646 -0.21018334 0.59542924 0.017941937 -0.17364737 0.2385711 -0.17943859
0.8952969 -0.065341085 0.32570422 -0.039876137 0.23607273 0.04699033 0.11546632 -0.6232612
0.31939137 -0.26588288 -0.45844662 0.22848924 0.29992905 -0.11349001 0.07992202 0.14121392
-0.16861908 -0.32487103 0.12194397 -0.06645677 -0.16133024 -0.011539082 -0.14837015 -0.114036955
0.2816134 0.037997372 0.17456295 0.10555358 -0.16597068 -1.0397073 -0.09241576 -0.49973163
0.08786708 -0.06281927 0.002177932 0.6076822 -0.29807082 0.21402654 -0.051991954 0.04565403
-0.2611853 0.16801502 0.11784725 -0.06015448 -0.07516746 -0.23128042 -0.20050688 0.15414973
-0.08131507 0.2097917 -0.13487208 0.03979527 0.1675206 0.17560846 -0.13059704 -0.18170564
0.1128455 -0.103123054 -0.6580934 0.032642107 0.04774739 -0.03401485 0.060020052 0.26657414
-0.30149412 0.28702113 0.20278756 -0.12899564 0.040787734 -0.08115955 -0.039653137 -0.25549883
0.22020128 0.06055185 -0.13640639 -0.0027370842 0.018654976 -0.031313207 0.086010575 0.00032497733
0.001741824 0.1554906 0.13120316 -0.17293882 0.020487465 0.25951254 0.17122681 -0.4217554
-0.10454643 0.03664869 0.40186223 0.116707526 0.53462493 0.038266163 -0.16303797 0.08364089
0.8987419 -0.22651716 0.07258865 0.22220583 0.1441607 -0.16793962 -0.1280466 0.07127672
0.06431455 -0.095189296 -0.2232047 -0.22341576 0.0058030062 -0.15784848 0.013174084 -0.19129229
0.9272608 0.31291503 0.13430515 -1.0165153 -0.30062708 0.27405137 -0.19655792 -0.067110285
0.15670465 0.31758204 0.11503757 0.39039692 0.105930984 0.018598331 0.10463033 -0.012531635
0.18734534 -0.7068774 0.2462522 -0.09837496 -0.029912474 -0.003324766 -0.11991071 -0.19265568
00000000: dbee 47bc aa8b 3dbe 6546 a3bd 7e79 4f3f
00000010: f191 8c3e 235f 79bc b4f6 14be 7692 873d
00000020: 7c26 1a3e fb3f 1bbe db80 eb3e 1fdc d83c
00000030: b044 9ebe e21b ae3c f15e 663d ce50 afbe
00000040: 243c 933e 3ae0 543e 8c23 5bbe 19c2 ea3e
00000050: 9a9f d23d 72ba 1ebe 1d26 983d 619e 9abe
00000060: c0f7 b03e 0169 2abe 3d4e 8d3d 0930 323e
00000070: 44fc 22bf c7b1 373d 1f3f d6bc 8197 ed3c
00000080: 2876 2abe d3a0 d23d 2f35 c73d 69b7 3ebf
00000090: 8bbc 08bf aae2 203e c64e 19bf b3ba f23e
000000a0: db5c 753e a17c 8a3e ae9b 823d c162 243e
000000b0: 85a1 73be 205c 4d3f b11f 753e 1a19 f13d
000000c0: 444b a13d a41d 813e c3ba 61bd dc65 28be
000000d0: 1538 08be e9a0 02be 6fc4 29be 7446 fe3e
000000e0: 0634 893c 8610 eb3e f926 ab3e e82f ffbc
000000f0: ac78 033e ab29 ecbb 71f9 083e fb28 33bf
00000100: 48b5 733f c1d2 64bd 1abc a13d a3f4 863e
00000110: 5dc1 f53d 78e6 0fbf cc73 4e3f f753 f8bd
00000120: 2b90 0f3e 5e7f 29be 5778 a6be 970b d9bc
00000130: 9b14 4f3e ef06 d73c 7e5a 3abe 5f8b babe
00000140: 5ccb 9c3e bace 263d dba1 b53e 4bb7 f33e
00000150: 157f 6a3e 6657 f63d c6bb 8c3e eb8a e4bc
00000160: 0d8b 013e 0eec 953d abde e1be a874 53be
00000170: a1df 83be 5fc4 4b3e 12a3 5cbe f9b8 2bbe
00000180: c370 533e 2685 163d a8b6 53be 8f03 8cbf
00000190: e67d 043e 44db 403e 0a5b 403e dd1c 15be
000001a0: 7036 053d bac6 5e3e 983d 403f 9aec 1abe
000001b0: f003 b2bd e46e 203e ff17 773e 5eac b03c
000001c0: a6f8 a5be 4752 e9bd 4d3a 57be 0d6e 183f
000001d0: f8fa 923c 9ed0 31be fc4b 743e c0be 37be
000001e0: 2d32 653f 8cd1 85bd b4c2 a63e 2955 23bd
000001f0: 0dbd 713e ef78 403d 9b79 ec3d 0c8e 1fbf
00000200: 4487 a33e cd21 88be 84b9 eabe 15f9 693e
00000210: 4d90 993e 736d e8bd 28ae a33d 629a 103e
00000220: 7baa 2cbe 7f55 a6be c3bd f93d 7d1a 88bd
00000230: c133 25be 6b0e 3dbc 58ee 17be 358c e9bd
00000240: a22f 903e 22a3 1b3d a1c0 323e 7a2c d83d
00000250: 38f4 29be 2115 85bf 7944 bdbd d3dc ffbe
00000260: a8f3 b33d 64a7 80bd a3bb 0e3b 1091 1b3f
00000270: bd9c 98be c629 5b3e 84f5 54bd b8ff 3a3d
00000280: 14ba 85be 210c 2c3e e659 f13d 8b64 76bd
00000290: 66f1 99bd c6d4 6cbe ad51 4dbe 6dd9 1d3e
000002a0: 8488 a6bd a3d3 563e e81b 0abe 5d00 233d
000002b0: 858a 2b3e b4d2 333e 3bbb 05be 0b11 3abe
000002c0: 8b1b e73d 2e32 d3bd cf78 28bf bbb3 053d
000002d0: c492 433d 2853 0bbd 96d7 753d 687c 883e
000002e0: 705d 9abe 6ff4 923e 8ba7 4f3e 6f17 04be
000002f0: 0a11 273d fa36 a6bd 546b 22bd bed0 82be
00000300: 727c 613e 3705 783d 1eae 0bbe a760 33bb
00000310: 52d2 983c 4742 00bd 5026 b03d b861 aa39
00000320: ea4d e43a ee38 1f3e 1f5a 063e e016 31be
00000330: 54d5 a73c d4de 843e 1556 2f3e 53f0 d7be
00000340: 701c d6bd f01c 163d e3c0 cd3e 5b04 ef3d
00000350: 2edd 083f fbbc 1c3d 6df3 26be ea4b ab3d
00000360: f313 663f 1df4 67be 5ca9 943d ed89 633e
00000370: dd9e 133e 5df8 2bbe a61e 03be 87f9 913d
00000380: 59b7 833d 9bf2 c2bd c68f 64be 1ac7 64be
00000390: 2527 be3b 08a3 21be 1dd8 573c 20e2 43be
000003a0: f760 6d3f 6636 a03e 4a87 093e 2c1d 82bf
000003b0: cbeb 99be 7650 8c3e 7b46 49be 1e71 89bd
000003c0: 2f77 203e 1d9a a23e d198 eb3d 1be2 c73e
000003d0: 58f2 d83d 875b 983c 6d48 d63d 7d51 4dbc
000003e0: 75d7 3f3e ebf5 34bf 8929 7c3e d078 c9bd
000003f0: 010b f5bc 51e4 59bb bf93 f5bd 8847 45be

struct.2.bias f4 [64]
-0.36106494 0.15894744 -0.02155093 -0.23048359 0.3955413 -0.0052996594 0.46452254 0.16308728
-0.063221626 -0.0045958227 -0.10019105 0.14968824 -0.107362516 -0.2479578 -0.12128015 0.27208728
-0.09940403 -0.014897516 0.28690758 0.29889897 -0.2767335 -0.115654305 0.057530094 -0.23561376
0.2381949 0.283313 -0.2328214 0.22551684 0.37043852 0.10968083 -0.25696543 0.21075226
-0.09850321 0.23982415 -0.2509511 0.11649408 0.056808274 -0.16169527 -0.024910722 0.18061242
0.3038113 -0.17818187 0.0690602 0.12973666 0.42545587 -0.007457376 0.04178422 -0.088072754
-0.3120601 0.2103436 -0.14679635 -0.055883452 -0.12223622 -0.1397396 -0.06314842 -0.050690077
0.27345145 -0.12175884 0.14127661 0.04451903 -0.15847188 -0.22555093 -0.25691786 0.13119696
00000000: 81dd b8be 1ec3 223e 938b b0bc e403 6cbe
00000010: 6484 ca3e c4a8 adbb e6d5 ed3e 5a00 273e
00000020: 577a 81bd 8e98 96bb f730 cdbd e047 193e
00000030: e1e0 dbbd a6e8 7dbe ba61 f8bd 064f 8b3e
00000040: 5794 cbbd b614 74bc 8de5 923e 4909 993e
00000050: 03b0 8dbe 2adc ecbd ada4 6b3d bc44 71be
00000060: 5de9 733e 670e 913e bc68 6ebe e3ed 663e
00000070: 1eaa bd3e 58a0 e03d f990 83be 71cf 573e
00000080: 0dbc c9bd 7694 753e aa7c 80be 7394 ee3d
00000090: cbaf 683d 7293 25be 9211 ccbc 76f2 383e
000000a0: 288d 9b3e 4f75 36be 6f6f 8d3d b0d9 043e
000000b0: 5ad5 d93e 015d f4bb ee25 2b3d 7d5f b4bd
000000c0: 57c6 9fbe 5064 573e c851 16be 0ce6 64bd
000000d0: fc56 fabd e617 0fbe f553 81bd 66a0 4fbd
000000e0: d401 8c3e b35c f9bd d1aa 103e 9659 363d
000000f0: 7446 22be d3f6 66be bd8a 83be 7f58 063e

struct.4.weight f4 [64, 64]
-0.074813046 0.11397985 0.22969991 -0.1852374 1.0544115 0.24505395 -0.16265179 0.0982524
-0.27008596 0.06685044 -0.11867818 0.05492899 0.1812835 -0.28060937 -0.23168395 0.032742996
-0.37095386 0.18207003 -0.09158986 0.44996467 0.014237202 0.31421372 0.095234655 -0.23233563
0.6981018 0.12901334 0.0050796554 0.12762462 0.23272654 -0.20988744 -0.7387822 -0.78580254
-0.057279307 -0.1925748 -0.21516782 -0.15697756 0.68330663 -0.033379085 0.2510028 0.031096056
0.41497213 -0.31929064 -0.17811786 0.0075449934 -0.15716133 -0.22192463 -0.015603234 -0.029328192
-0.0694034 0.14353837 0.06402844 -0.06317345 0.15690543 -0.20334883 0.41611817 0.1747978
-0.20124252 -0.029255973 -0.0026541804 -0.06089736 0.28116363 -0.37603694 -0.104135595 -0.029618748
0.15526143 -0.16740349 0.45625135 0.18564662 0.093437694 0.005484425 -0.12536968 -0.010499112
-0.13144083 -0.012570334 0.066560954 -0.0066150823 0.2871089 -0.012171908 -0.042921495 -1.0133233
-0.036391385 -0.06713708 -0.23456758 0.04227076 0.2286656 0.14980492 0.10149779 0.07482957
0.19121087 -0.23024698 2.2064419 -0.22335097 -0.120437354 -0.54136664 0.08356591 -0.32928553
0.1964464 -0.1309863 -0.035130788 -0.57464033 0.13471675 -0.033080313 0.33959842 -0.075603664
0.113355875 0.13827352 -0.30646193 0.083671 -0.10055152 0.031694602 -0.13983782 0.07771035
0.02192292 -0.10497388 -0.026082458 -0.01435453 -0.049617793 -0.50337595 0.25126913 0.15305936
-0.23754813 0.17778707 -0.20305678 1.2181609 0.33100158 -0.11283689 -0.026679223 -0.13828132
-0.54800683 -0.06477282 -0.18335606 -0.042517368 -0.06544244 0.15821068 0.047630392 -0.14269066
0.06635 -0.14315571 -0.26863548 0.36925906 0.013176513 0.099471375 -0.12321717 0.16712946
-0.05430843 0.022835867 0.10988124 0.1763629 -0.8866693 0.02659866 -0.008101608 -0.39071694
-0.0033611557 0.37686014 -0.13311295 0.35368508 0.024670223 0.19102079 0.13614823 0.05616393
-0.05785516 0.18510386 -0.6594003 0.0980594 0.11939014 0.054978095 -0.15068616 0.45215204
0.57837194 -0.35513657 0.16077247 0.072264776 0.25277618 -0.07891742 -0.0026826183 -0.16952866
-0.008580874 0.13909897 0.08807325 -0.18279694 -0.023412524 0.13316418 0.057257805 0.022972887
0.224384 -0.47205612 0.20415364 -0.041066356 -0.034407273 -0.10227113 -0.5090207 0.07369729
-0.069990955 -0.3432005 -0.30418816 -0.35696658 0.052708734 1.0936093 0.1298547 -0.01728654
-0.18098317 0.041029662 -0.2639188 0.58311987 0.08887016 0.5073943 -0.50719917 0.097222485
-0.183471 0.40718785 -0.093810864 0.7495294 -0.081666335 -0.004627724 0.8097959 -0.29662976
0.20602475 0.13807048 -0.114004165 0.3878671 0.10386491 -0.034007225 -0.18655258 -0.118865274
0.65342635 -0.1309083 -0.22579667 0.007822883 0.068580575 -0.15698892 -0.09372226 0.34791452
-0.07145951 -0.27633283 -0.14444219 0.17564209 0.11930439 0.10134075 0.63928866 -2.1418614
0.12536244 -0.5116642 0.5884912 0.18179561 0.5476844 -0.1438101 0.02060269 0.6157135
-0.034991343 -0.043738294 -0.022525162 -0.020532396 -0.070838936 -0.37815037 -0.27342162 -0.62985003
00000000: 9537 99bd 456e e93d 7436 6b3e dfae 3dbe
00000010: f5f6 863f 6cef 7a3e 318e 26be 8e38 c93d
00000020: b548 8abe e2e8 883d 8c0d f3bd 38fd 603d
00000030: 62a2 393e 08ac 8fbe 8f3e 6dbe 851d 063d
00000040: aaed bdbe 9170 3a3e 7793 bbbd c561 e63e
00000050: 2743 693c 9fe0 a03e 630a c33d 64e9 6dbe
00000060: cdb6 323f 131c 043e 3d73 a63b 07b0 023e
00000070: de4f 6e3e bcec 56be d520 3dbf 5b2a 49bf
00000080: b59d 6abd 5432 45be f454 5cbe babe 20be
00000090: 2fed 2e3f 82b8 08bd 7083 803e 28bd fe3c
000000a0: 3a77 d43e 107a a3be 8764 36be fe3b f73b
000000b0: e6ee 20be 3640 63be b5a4 7fbc ad41 f0bc
000000c0: 5f23 8ebd b9fb 123e 5821 833d 1561 81bd
000000d0: d1ab 203e ad3a 50be 710d d53e 32fe 323e
000000e0: 8512 4ebe 39aa efbc c2f1 2dbb 836f 79bd
000000f0: aef4 8f3e ea87 c0be 0b45 d5bd 04a3 f2bc
00000100: dafc 1e3e d26b 2bbe c799 e93e 261a 3e3e
00000110: 435c bf3d b1b6 b33b e960 00be 7804 2cbc
00000120: 6d98 06be cdf3 4dbc 1c51 883d 55c3 d8bb
00000130: f0ff 923e af6c 47bc 73ce 2fbd 94b4 81bf
00000140: 220f 15bd 2a7f 89bd 7c32 70be 1b24 2d3d
00000150: 5127 6a3e 7666 193e 13de cf3d 3f40 993d
00000160: c8cc 433e ddc5 6bbe 5836 0d40 1eb6 64be
00000170: dca7 f6bd 0197 0abf 9b24 ab3d 1d98 a8be
00000180: 3f29 493e 4621 06be 4de5 0fbd a11b 13bf
00000190: 30f3 093e 397f 07bd d8df ad3e 18d6 9abd
000001a0: 2027 e83d 9397 0d3e 94e8 9cbe b45b ab3d
000001b0: f5ed cdbd 33d2 013d a531 0fbe 9b26 9f3d
000001c0: b297 b33c 8cfc d6bd e1aa d5bc 432f 6bbc
000001d0: 073c 4bbd 3fdd 00bf 59a6 803e 98bb 1c3e
000001e0: d13f 73be d00d 363e 1eee 4fbe b2ec 9b3f
000001f0: 0a79 a93e 0717 e7bd 638e dabc 9e99 0dbe
00000200: 2d4a 0cbf 9da7 84bd b1c1 3bbe b126 2ebd
00000210: b006 86bd fb01 223e 1618 433d 801d 12be
00000220: 82e2 873d 6997 12be 978a 89be 860f bd3e
00000230: 4de2 573c a6b7 cb3d 4959 fcbd fc23 2b3e
00000240: 8472 5ebd 4912 bb3c 6a09 e13d 7a98 343e
00000250: c2fc 62bf 6fe5 d93c 9bbc 04bc 0d0c c8be
00000260: d646 5cbb d0f3 c03e c34e 08be 3616 b53e
00000270: 3519 ca3c f49a 433e 716a 0b3e 260c 663d
00000280: 88f9 6cbd de8b 3d3e 75ce 28bf 5ed3 c83d
00000290: d182 f43d b630 613d 794d 1abe 7980 e73e
000002a0: 2f10 143f 76d4 b5be 8aa1 243e 8eff 933d
000002b0: e16b 813e 759f a1bd dece 2fbb ec98 2dbe
000002c0: cb96 0cbc f66f 0e3e c05f b43d 1f2f 3bbe
000002d0: 9fcb bfbc 315c 083e 2987 6a3d a331 bc3c
000002e0: ebc4 653e 57b1 f1be a70d 513e 3235 28bd
000002f0: a4ee 0cbd 8773 d1bd 2e4f 02bf 9bee 963d
00000300: 6b57 8fbd fab7 afbe 8dbe 9bbe 53c4 b6be
00000310: 1de5 573d 64fb 8b3f a1f8 043e 809c 8dbc
00000320: a753 39be b80e 283d 5d20 87be 5847 153f
00000330: 8f01 b63d 98e4 013f ced7 01bf 951c c73d
00000340: d2df 3bbe ed7a d03e e91f c0bd 29e1 3f3f
00000350: ae40 a7bd 2aa4 97bb c94e 4f3f dbdf 97be
00000360: 27f8 523e 5962 0d3e 047b e9bd 8496 c63e
00000370: 20b7 d43d 294b 0bbd a407 3fbe a36f f3bd
00000380: f346 273f d30c 06be 3e37 67be 8d2b 003c
00000390: f973 8c3d b4c1 20be 75f1 bfbd da21 b23e
000003a0: 5d59 92bd 7f7b 8dbe a7e8 13be 85db 333e
000003b0: dc55 f43d bd8b cf3d 6ca8 233f 4214 09c0
000003c0: 035f 003e 6dfc 02bf 5ca7 163f a128 3a3e
000003d0: 0b35 0c3f f442 13be f9c6 a83c 669f 1d3f
000003e0: 1553 0fbd ed26 33bd b086 b8bc 8e33 a8bc
000003f0: 0114 91bd ed9c c1be ebfd 8bbe da3d 21bf

struct.4.bias f4 [64]
0.44288927 -0.2958722 0.04994083 -0.016232854 -0.50708467 0.024924608 -0.65592426 0.17366154
0.016059501 -0.29795268 0.04252062 0.33791575 0.08277766 -0.109438084 0.03802708 0.06699263
-0.14068483 -0.14943881 0.06756598 0.31543845 -0.14757997 -0.07231432 -0.16181585 -0.23661199
0.5454505 0.16221221 -0.26381055 -0.20506255 0.23208186 -0.01627551 0.47333217 0.18976943
-0.007956086 -0.13243672 -0.20877439 0.21305908 0.015045628 -0.17798619 -0.3411792 0.042597763
0.31625956 0.30671185 -0.3223191 0.23005126 0.07672878 -0.717698 0.022915782 0.0022280705
-0.24615043 0.06907739 -0.120796666 -0.19788325 0.013052031 -0.17758477 -0.09140835 0.19296522
-0.13346258 -0.101028964 -0.6424497 -0.025602253 0.19814569 -0.01868799 -0.33382612 0.38227594
00000000: 62c2 e23e 907c 97be c18e 4c3d c3fa 84bc
00000010: 4dd0 01bf b12e cc3c a7ea 27bf 55d4 313e
00000020: 378f 833c 418d 98be 1a2a 2e3d 4b03 ad3e
00000030: 5587 a93d 1321 e0bd 49c2 1b3d 6f33 893d
00000040: af0f 10be 7d06 19be 0860 8a3d 2681 a13e
00000050: 341f 17be 8819 94bd 0eb3 25be 6a4a 72be
00000060: a5a2 0b3f f51a 263e 2d12 87be ebfb 51be
00000070: dea6 6d3e 3854 85bc 9858 f23e eb52 423e
00000080: 3e5a 02bc 7e9d 07be f4c8 55be 292c 5a3e
00000090: f081 763c 0342 36be 0aaf aebe fe7a 2e3d
000000a0: c6ec a13e 5609 9d3e 0207 a5be 8f92 6b3e
000000b0: fb23 9d3d 0ebb 37bf e1b9 bb3c d204 123b
000000c0: dc0e 7cbe 7278 8d3d 3e64 f7bd e8a1 4abe
000000d0: 30d8 553c c8d8 35be 4d34 bbbd ad98 453e
000000e0: 6aaa 08be 46e8 cebd 9577 24bf d1bb d1bc
000000f0: b4e6 4a3e 8e17 99bc 42eb aabe acb9 c33e

struct.6.weight f4 [32, 64]
-0.35852742 0.35605294 0.0048672515 -0.21436152 0.03401673 0.20324728 -0.03015867 -0.0048278444
-0.08987685 0.18963051 -0.13426715 1.0956606 0.48656788 -0.31110457 -0.24467511 0.46804076
-0.19979611 -0.18547377 0.18201315 -0.35771212 -0.22779416 0.55428034 -0.39010033 -0.0027043368
-0.47210142 -0.22805788 -0.40613356 -0.37760228 -0.035808407 0.49484974 -0.18325227 -0.31298846
0.2834775 0.00615521 -0.23470797 -0.2314014 0.6142508 0.15608858 0.31942084 -0.02699432
-0.07232101 0.91461056 -0.1257768 0.14832048 -0.08827704 -0.32762533 -0.08648448 -0.13481097
0.51784736 0.20595424 0.11555823 -0.027617091 0.016907612 -0.06563724 0.21946177 -0.10443327
-0.21207279 0.006914766 -0.07600508 -0.2658436 -0.22991727 0.09883004 0.21836534 0.2785824
0.026072452 -0.23803402 -0.09527488 0.22126804 0.1739556 0.5037493 0.18533967 0.5033313
0.29306084 -0.21966602 0.09117387 -0.15575935 -0.21351492 0.096354306 -0.047068767 -0.24762116
0.2049578 -0.46397033 -0.07833746 -0.07616644 -0.66367036 -0.37194252 0.10595262 0.33868733
-0.14310257 -0.11001493 0.05497261 -0.2791381 -0.21472374 -0.0741204 -0.03926311 0.076487735
-0.49706945 -0.19542299 0.18812716 -0.042717513 0.71626437 0.11679484 -0.37504932 0.029331112
0.19620809 -0.35445198 -0.8947344 -0.039430916 0.19785495 -0.10836555 -0.17358732 -0.36860976
-0.3795768 -0.1742178 0.11250808 -0.23012167 0.035787858 0.08503529 0.62987685 0.044044223
-0.33205643 -0.013633031 0.12376718 0.12880479 -0.14048688 0.5157251 0.034706466 -0.057252
0.038871817 -0.2445267 -0.1756536 -0.5934457 0.02196238 0.25926304 0.023716748 0.5363689
0.5182577 -0.3577434 0.53166664 -0.2614153 0.2707123 0.2219076 0.190713 0.52359164
0.3668986 -0.12015954 0.3874758 -0.48494583 -0.14962293 0.28722277 0.056916557 0.07893674
0.21522298 -0.5802953 -0.062659256 -0.21504006 -0.2774811 -0.0063876314 -0.33124524 0.38471207
-0.5461469 0.37399572 0.2384985 -0.41078055 0.17120491 0.21394967 -0.36748213 -0.1949998
-0.14249814 -0.0008998026 -0.02406362 -0.09129698 -0.022559768 0.41435885 -0.0915694 -0.05849819
-0.5626982 0.22215718 0.105324306 -0.07696678 -0.30098793 -0.6850248 0.0025495717 0.34287184
-0.11908798 0.10147217 0.40562862 0.34647548 0.45362732 0.041119136 -0.08530238 -0.111971356
-0.21848062 -0.5027124 -0.06714509 -0.11519331 -0.6159992 0.3530741 0.22389418 0.54026324
0.19056574 -0.57565546 0.25077665 0.15289183 0.23131013 -0.13055535 -0.24474517 0.05248079
0.29225376 -0.2053248 -0.02277066 -0.9215227 -0.06338499 0.50913274 -0.37636945 0.12872325
-0.2786873 -0.07723544 -0.059847366 -0.08465147 -0.20151319 -0.05067854 -0.34494108 0.29826248
0.06725609 0.3631333 -0.41235384 -0.41708356 0.54365116 0.33148053 -0.6752089 -0.15421695
-0.3511786 0.034381274 -0.37421045 -0.2077086 0.11122419 -0.14358325 -0.33501434 0.11149619
0.0044821627 0.0815935 0.32461616 -0.19025151 0.052164588 -0.31235754 0.44466245 0.21392493
-0.6076773 0.14036131 -0.26945138 0.25555256 -0.10374499 0.19525483 -0.27847633 0.18619612
00000000: e890 b7be 924c b63e 777d 9f3b 9681 5bbe
00000010: 2055 0b3d 0e20 503e 510f f7bc e532 9ebb
00000020: 5b11 b8bd 802e 423e 547d 09be 9b3e 8c3f
00000030: 6d1f f93e 1949 9fbe 1d8c 7abe 0aa3 ef3e
00000040: 5a97 4cbe d6ec 3dbe a861 3a3e 0b26 b7be
00000050: df42 69be 51e5 0d3f 3bbb c7be 3e3b 31bb
00000060: 47b7 f1be 0188 69be bdf0 cfbe 1655 c1be
00000070: d6ab 12bd f25c fd3e 7ca6 3bbe 0640 a0be
00000080: f623 913e a5b1 c93b 4957 70be 7df4 6cbe
00000090: 8a3f 1d3f afd5 1f3e 218b a33e 3123 ddbc
000000a0: 0a1d 94bd eb23 6a3f a2cb 00be 53e1 173e
000000b0: 98ca b4bd 82be a7be c61e b1bd e30b 0abe
000000c0: a591 043f abe5 523e cba9 ec3d 3d3d e2bc
000000d0: d581 8a3c d16c 86bd 96ba 603e 1ce1 d5bd
000000e0: 9c29 59be 4395 e23b 8da8 9bbd a71c 88be
000000f0: 6f6f 6bbe 6767 ca3d 2a9b 5f3e 5aa2 8e3e
00000100: e595 d53c 31bf 73be 7a1f c3bd 1794 623e
00000110: 6b21 323e b7f5 003f afc9 3d3e 52da 003f
00000120: 120c 963e 21f0 60be 5eb9 ba3d 617f 1fbe
00000130: a8a3 5abe 6855 c53d 2ecb 40bd 6790 7dbe
00000140: 75e0 513e 858d edbe 646f a0bd 27fd 9bbd
00000150: 4de6 29bf 406f bebe b0fd d83d 6d68 ad3e
00000160: 7b89 12be 824f e1bd f62a 613d 30eb 8ebe
00000170: 8ae0 5bbe 70cc 97bd 5bd2 20bd 9aa5 9c3d
00000180: e37f febe f71c 48be 68a4 403e 8ff8 2ebd
00000190: 1a5d 373f 2232 ef3d 7706 c0be cd47 f03c
000001a0: c6ea 483e bb7a b5be 500d 65bf 5082 21bd
000001b0: 7d9a 4a3e c2ee ddbd e0c0 31be 6bba bcbe
000001c0: e457 c2be 2766 32be a36a e63d 04a5 6bbe
000001d0: 4a96 123d fb26 ae3d 9c3f 213f b767 343d
000001e0: 4d03 aabe 145d 5fbc a679 fd3d 67e5 033e
000001f0: cbdb 0fbe 8f06 043f 5e28 0e3d 1381 6abd
00000200: 0e38 1f3d 3565 7abe 8ade 33be 0fec 17bf
00000210: 73ea b33c 20be 843e a049 c23c 794f 093f
00000220: 89ac 043f 252a b7be 4e1b 083f 3ad8 85be
00000230: cd9a 8a3e bf3b 633e 454a 433e 1a0a 063f
00000240: 22da bb3e 3416 f6bd 3a63 c63e d24a f8be
00000250: c136 19be dd0e 933e 5621 693d 96a9 a13d
00000260: 6a63 5c3e 3c8e 14bf 7f53 80bd 7633 5cbe
00000270: 0112 8ebe 564f d1bb fa98 a9be fbf8 c43e
00000280: 49d0 0bbf 5e7c bf3e f338 743e d451 d2be
00000290: 5750 2f3e 9f15 5b3e 9e26 bcbe 07ae 47be
000002a0: 08eb 11be bbe0 6bba 1221 c5bc e9f9 babd
000002b0: 43cf b8bc d826 d43e bd88 bbbd cc9b 6fbd
000002c0: fd0c 10bf 2c7d 633e 45b4 d73d c2a0 9dbd
000002d0: 171b 9abe c95d 2fbf b716 273b e68c af3e
000002e0: 66e4 f3bd a4d0 cf3d 8eae cf3e 3c65 b13e
000002f0: d741 e83e 8a6c 283d 04b3 aebd 3d51 e5bd
00000300: 62b9 5fbe c3b1 00bf 5d83 89bd 78ea ebbd
00000310: 20b2 1dbf 21c6 b43e 8444 653e b14e 0a3f
00000320: aa23 433e 285e 13bf cc65 803e ad8f 1c3e
00000330: 90dc 6c3e 4db0 05be 7a9e 7abe 19f6 563d
00000340: 49a2 953e aa40 52be 8989 babc e9e8 6bbf
00000350: fdcf 81bd 8656 023f 7fb3 c0be 07d0 033e
00000360: 1ab0 8ebe 9d2d 9ebd 8322 75bd c05d adbd
00000370: 7959 4ebe 4d94 4fbd 1e9c b0be dcb5 983e
00000380: 90bd 893d 9cec b93e 0b20 d3be fa8b d5be
00000390: b92c 0b3f d1b7 a93e 7eda 2cbf 0ceb 1dbe
000003a0: aecd b3be 61d3 0c3d 8398 bfbe 90b1 54be
000003b0: 82c9 e33d 7d07 13be 0087 abbe 1d58 e43d
000003c0: 1bdf 923b 7e1a a73d 1734 a63e 4bd1 42be
000003d0: 89aa 553d 54ed 9fbe ccaa e33e 230f 5b3e
000003e0: bd90 1bbf e0ba 0f3e 88f5 89be c9d7 823e
000003f0: 4178 d4bd e2f0 473e 7394 8ebe 32aa 3e3e

struct.6.bias f4 [32]
0.5231589 0.13996205 0.21128932 -0.0037343611 0.025561485 -0.59927166 0.734121 0.09022668
0.071157575 0.21750052 0.07213583 -0.20304748 0.5857953 -0.40524343 0.0027380048 0.048322972
-0.24003129 -0.09125606 -0.114894986 0.28542942 -0.032348786 0.0756739 -0.16216494 -0.09298286
0.52186316 0.1674936 -0.15277132 0.34617096 -0.004629418 -0.069390066 -0.14516051 -0.04154659
00000000: beed 053f 3652 0f3e 3a5c 583e 2fbc 74bb
00000010: 5266 d13c de69 19bf 5bef 3b3f c4c8 b83d
00000020: 10bb 913d 75b8 5e3e f3bb 933d aeeb 4fbe
00000030: aef6 153f 117c cfbe 1970 333b 4fee 453d
00000040: c3ca 75be 75e4 babd 104e ebbd ce23 923e
00000050: 2980 04bd ebfa 9a3d 910e 26be cc6d bebd
00000060: d398 053f 7183 2b3e 1670 1cbe 523d b13e
00000070: 5fb2 97bb 611c 8ebd f5a4 14be c22c 2abd

struct.8.weight f4 [16, 32]
-0.32988793 -0.039953575 -0.0899198 -0.0906124 0.29971164 0.3409355 0.002314632 0.16906846
-0.51290315 -1.1558512 0.061016504 0.49991864 -0.4139532 0.8706935 0.9194515 0.06797279
-0.020105988 0.018119475 0.49443 -0.088127755 1.0479323 -0.6006119 -0.08209804 0.29375154
-0.3995739 0.2904831 0.06844208 0.10674632 -0.31435174 0.58867675 -0.19594339 -0.37020877
-0.49742883 -0.04752753 0.044124037 -0.5381492 -0.04927886 0.1872525 -0.39893037 -0.0031840918
-0.3081501 -0.024321374 0.03583694 0.2032022 0.2248275 -0.014604859 -0.18619655 -0.34914294
0.09237291 0.06779561 -0.16206163 -0.093700945 0.67837894 0.047619496 -0.08654741 -0.8589003
0.17643234 -0.36316946 0.14724983 -0.25709146 0.5314553 -0.04952676 -0.78848547 -0.06313942
-0.14341375 -0.065595604 -0.47580332 -0.18198529 0.23163839 0.10063334 0.6216632 0.22937846
-0.6531505 -0.30113193 -0.22661957 -0.53589904 -0.90628135 0.23958506 1.0193747 0.4123774
0.75699216 0.67545867 0.18959612 -0.49137807 0.46641606 -0.502482 -0.29541114 -0.4802827
-0.15424864 -0.45831174 0.4357072 0.32426912 0.023922164 0.21599934 -0.36925614 0.7453905
0.06208451 0.75616664 -0.62393105 0.26505038 0.25846025 -0.30125737 0.17394057 0.2688055
-0.076817885 0.035914313 -0.6642051 -0.9717396 -0.23931494 -0.012954734 0.2593655 0.43043652
0.59968054 -0.4537168 0.47833723 0.36418384 -0.51471126 -0.088008545 -0.24777845 0.18789028
-0.32418227 -0.20281243 -0.056619424 0.1749064 -0.49147803 -0.29245776 -0.401097 0.64121056
-0.6363964 0.3271104 0.7366839 0.23618251 0.50836736 -0.30407524 -0.3728444 -0.021480443
0.16653383 0.377595 -0.3955738 -0.1832746 -0.15813167 -0.48474443 0.5372106 -0.49229077
0.19762152 0.28235605 -0.013200629 0.35865673 0.6226048 0.48495203 -0.33542314 -0.12756172
-0.3564711 -0.2811266 -0.58455896 -0.2924863 0.14809452 0.030132577 -0.35988545 0.1485825
0.40159988 -0.10419544 0.26258865 0.30657732 -0.043061454 -0.13147564 -0.103005126 0.08707546
0.13207865 0.12653986 0.3382518 0.036088023 0.4675785 0.13378085 -0.17700343 -0.27084026
0.8825741 0.07932814 0.11353659 -0.087558545 -0.10899225 -0.21692526 0.1331481 -0.27041343
0.225177 -0.6989923 -0.18680172 -0.14986041 0.41210967 -0.05278784 -0.18418318 0.7173313
-0.21476066 0.30552325 0.3913137 0.26793548 -0.26465276 0.021816954 0.13193898 -0.48972735
0.048147924 -0.15581791 -0.30955562 -0.75191313 -0.83511406 -0.019807521 -0.7832232 0.402869
-0.21977627 -0.39569378 -0.85910696 0.2456394 -1.1798096 -0.04929063 0.15424404 0.15304384
-1.2014455 0.3331234 0.0051626423 0.088240854 -0.12055491 0.3727943 0.84813404 -0.43734398
0.39751366 -0.049086206 -0.95235395 0.25495 -0.13999015 -0.3437564 -0.07331749 -0.049963567
0.42822435 0.3391069 0.16076222 0.003454947 0.33221453 -0.6901621 0.021709645 -0.0320739
0.16005665 -0.032903437 0.13104726 0.20181979 0.5302515 0.026140457 -0.077212 -0.08353417
0.823675 -0.0918004 -0.20906739 -0.04632601 0.18175787 -1.3106667 -0.114005655 0.068582505
00000000: 12e7 a8be 5ca6 23bd df27 b8bd fe92 b9bd
00000010: ce73 993e 198f ae3e 15b1 173b 4820 2d3e
00000020: 9f4d 03bf eff2 93bf 71ec 793d 56f5 ff3e
00000030: adf1 d3be c5e5 5e3f 2c61 6b3f 5135 8b3d
00000040: 50b5 a4bc 4b6f 943c ee25 fd3e 537c b4bd
00000050: a522 863f b4c1 19bf 0423 a8bd 9a66 963e
00000060: f394 ccbe 33ba 943e 5c2b 8c3d d19d da3d
00000070: b6f2 a0be 85b3 163f 62a5 48be 018c bdbe
00000080: feae febe 3aac 42bd 68bb 343d 25c4 09bf
00000090: a1d8 49bd 1fbf 3f3e 9a40 ccbe 32ac 50bb
000000a0: dac5 9dbe 9e3d c7bc c1c9 123d 3d14 503e
000000b0: 2e39 663e 3849 6fbc 4faa 3ebe ddc2 b2be
000000c0: 022e bd3d 6dd8 8a3d 7cf3 25be 48e6 bfbd
000000d0: 3eaa 2d3f a90c 433d c53f b1bd e4e0 5bbf
000000e0: aeaa 343e 59f1 b9be a9c8 163e 7ea1 83be
000000f0: 740d 083f 92dc 4abd 2fda 49bf 3d4f 81bd
00000100: 0edb 12be fd56 86bd 7e9c f3be 5a5a 3abe
00000110: 9d32 6d3e da18 ce3d 5225 1f3f 30e2 6a3e
00000120: df34 27bf f72d 9abe f60e 68be ae30 09bf
00000130: 0e02 68bf c955 753e df7a 823f 2123 d33e
00000140: 3dca 413f dcea 2c3f 7c25 423e e895 fbbe
00000150: 16ce ee3e a9a2 00bf 2140 97be 9de7 f5be
00000160: 5bf3 1dbe d6a7 eabe 0415 df3e 9a06 a63e
00000170: 6af8 c33c ee2e 5d3e 240f bdbe e9d1 3e3f
00000180: 544c 7e3d 2394 413f f2b9 1fbf afb4 873e
00000190: e754 843e 683e 9abe 7a1d 323e e0a0 893e
000001a0: b252 9dbd e31a 133d 5809 2abf edc3 78bf
000001b0: fa0e 75be 1840 54bc 8ecb 843e 2d62 dc3e
000001c0: aa84 193f 924d e8be 9ee8 f43e 4e76 ba3e
000001d0: 1ec4 03bf d33d b4bd a2b9 7dbe 4f66 403e
000001e0: 38fb a5be 10ae 4fbe c5e9 67bd aa1a 333e
000001f0: 02a3 fbbe 06bd 95be 965c cdbe 6026 243f
00000200: e0ea 22bf 047b a73e 5197 3c3f d4d9 713e
00000210: 5d24 023f c0af 9bbe 76e5 bebe c1f7 afbc
00000220: d887 2a3e 2254 c13e a688 cabe 56ac 3bbe
00000230: 45ed 21be 6c30 f8be a286 093f 890d fcbe
00000240: 4c5d 4a3e f990 903e 7347 58bc dba1 b73e
00000250: 0763 1f3f a24b f83e 95bc abbe 8a9f 02be
00000260: 6183 b6be d3ef 8fbe a8a5 15bf c4c0 95be
00000270: 17a6 173e 98d8 f63c e842 b8be 0326 183e
00000280: 809e cd3e 6b64 d5bd 0572 863e b4f7 9c3e
00000290: 3561 30bd 8da1 06be 5af4 d2bd 9e54 b23d
000002a0: a03f 073e aa93 013e 572f ad3e 09d1 133d
000002b0: 7366 ef3e d9fd 083e 6340 35be 93ab 8abe
000002c0: 60f0 613f cb76 a23d df85 e83d e551 b3bd
000002d0: 5437 dfbd a821 5ebe fa57 083e a173 8abe
000002e0: cd94 663e 29f1 32bf f348 3fbe 0275 19be
000002f0: 0a00 d33e 1038 58bd 849a 3cbe 06a3 373f
00000300: 38ea 5bbe 8b6d 9c3e 455a c83e d72e 893e
00000310: 9180 87be 78b9 b23c 031b 073e 8bbd fabe
00000320: c236 453d bb8e 1fbe 137e 9ebe 617d 40bf
00000330: 09ca 55bf 6243 a2bc 5181 48bf d844 ce3e
00000340: 080d 61be 6098 cabe 6fee 5bbf e588 7b3e
00000350: 0004 97bf f9e4 49bd 26f2 1d3e 86b7 1c3e
00000360: f7c8 99bf 268f aa3e 622b a93b 9fb7 b43d
00000370: 7ee5 f6bd e5de be3e 501f 593f 8deb dfbe
00000380: e986 cb3e 9e0e 49bd 78cd 73bf ce88 823e
00000390: 9459 0fbe d700 b0be 7b27 96bd 99a6 4cbd
000003a0: 3940 db3e 6b9f ad3e da9e 243e 646c 623b
000003b0: 0618 aa3e 77ae 30bf 6dd8 b13c ec5f 03bd
000003c0: e4e5 233e c1c5 06bd 4131 063e d9a9 4e3e
000003d0: 90be 073f 8324 d63c 5321 9ebd f713 abbd
000003e0: 5ddc 523f d901 bcbd c315 56be 58c0 3dbd
000003f0: bc1e 3a3e edc3 a7bf cc7b e9bd fc74 8c3d

struct.8.bias f4 [16]
-0.50520575 0.21916741 0.2579816 -0.11942735 0.06690308 -0.16890632 -0.50686175 0.49136177
-0.1354403 0.52868706 0.30938092 0.30481467 0.015343037 -0.26647988 0.14149222 0.7163376
00000000: 2a55 01bf 6c6d 603e 2a16 843e 5496 f4bd
00000010: 7b04 893d c7f5 2cbe b1c1 01bf c593 fb3e
00000020: ddb0 0abe 0958 073f 2d67 9e3e ab10 9c3e
00000030: 5d61 7b3c 0d70 88be 56e3 103e e761 373f

struct.10.weight f4 [12, 16]
-1.4424268 0.53024495 1.349516 -0.6224294 -0.19926706 0.73848945 1.0607153 0.7101189
3.1018746 -2.2720764 -0.4633352 2.8364725 1.2049266 -0.974114 -1.1799883 -0.2541538
-0.5958709 -0.11135373 -0.67275065 -0.29365999 -0.07420914 -0.43695128 -1.0143205 0.79594254
-0.8976127 -0.22513713 0.9998724 1.15764 0.061886 0.6370064 0.25488597 -1.3909706
-0.3989582 -0.34015954 -0.73547536 0.20743355 -0.3224931 -0.29335514 -0.090022884 0.7025077
-0.2487616 -0.86744034 0.1533385 0.79817253 -0.5151322 -0.7058504 0.121187024 -0.25694716
0.9123766 -1.2174966 -0.53626347 0.26945835 -0.8095644 -0.6313733 -0.25365114 -0.02522778
-0.3709693 0.27730373 0.34748343 -0.7778988 -1.1826125 1.2484925 -0.076526046 -0.48999983
0.050701823 0.08935262 -0.557243 -1.0706985 -1.5152055 0.3128668 1.2801502 -0.31350234
-1.6210972 -0.48481575 -1.2512584 0.44192988 -0.28262267 1.0985463 -0.6231973 -0.96548665
-0.58129907 1.5077094 -0.34911224 -2.2805502 0.640395 -0.9803301 0.695012 0.06685732
0.78595775 -0.036018375 1.6124917 -0.5168544 1.1478077 -1.2167078 -1.4758945 -0.87953204
-1.177677 -0.24649502 -0.8797227 -0.24702604 -0.84419024 -0.14569695 1.0025618 -0.33279017
-1.0457381 -0.12401417 -0.7043684 0.9714063 -0.22922021 -0.67278373 -0.5192517 0.70469576
0.50936806 0.28560922 0.6835635 0.6508337 0.74764085 0.51198614 0.57554984 -0.20556654
-1.1136994 0.32613358 0.8423528 -0.6589467 0.6562312 -0.16981447 0.5314712 0.17489852
0.52779406 0.28983745 1.2289925 -0.65746915 -1.1041405 0.2671426 -0.8887086 0.45188192
1.474411 0.89545345 -0.9219992 -1.3507696 -0.5978822 1.6617886 -0.28477344 2.2345064
0.7049757 -0.35952932 2.6549482 0.016301397 -1.4981545 -0.0053807567 -0.066882156 -1.5144037
2.530757 -1.7161648 -0.589673 -0.67014086 -0.5022798 -0.92793185 0.06455353 0.33751413
0.41054317 0.32442975 0.63778394 0.4958891 0.93983775 0.66451025 0.34352934 -0.1582316
-0.85748726 0.0038388488 0.58419544 -0.9017346 0.52969027 0.39191264 0.532876 -0.51163787
0.33106643 0.46353883 0.49579492 0.9068129 2.2231162 0.5731643 -0.96069217 -0.66609734
0.57801306 1.2950397 -0.743558 0.17663679 0.21632284 -0.18421859 0.39435923 0.5722745
00000000: 71a1 b8bf 22be 073f f1bc ac3f 8857 1fbf
00000010: aa0c 4cbe a50d 3d3f 85c5 873f 5aca 353f
00000020: 1d85 4640 b369 11c0 453a edbe c488 3540
00000030: 093b 9a3f 895f 79bf db09 97bf 7220 82be
00000040: ff8a 18bf 6d0d e4bd 6339 2cbf 9a5a 96be
00000050: f6fa 97bd 14b8 dfbe 41d5 81bf e4c2 4b3f
00000060: f2c9 65bf 598a 66be a3f7 7f3f 8c2d 943f
00000070: 2d7c 7d3d da12 233f 6a80 823e 530b b2bf
00000080: 4044 ccbe 6429 aebe 1d48 3cbf 7669 543e
00000090: d11d a5be a532 96be eb5d b8bd 8bd7 333f
000000a0: 5cbb 7ebe 9210 5ebf c504 1d3e 0955 4c3f
000000b0: b4df 03bf 9db2 34bf e730 f83d 948e 83be
000000c0: 8391 693f eed6 9bbf 9048 09bf 72f6 893e
000000d0: 9d3f 4fbf aea1 21bf 90de 81be 7daa cebc
000000e0: b0ef bdbe c1fa 8d3e 59e9 b13e 6024 47bf
000000f0: d95f 97bf 9ace 9f3f b0b9 9cbd 42e1 fabe
00000100: b7ac 4f3d 82fe b63d 7aa7 0ebf a60c 89bf
00000110: 41f2 c1bf 1430 a03e f6db a33f 6183 a0be
00000120: 1d80 cfbf c539 f8be 3c29 a0bf a244 e23e
00000130: ebb3 90be 2a9d 8c3f dc89 1fbf 222a 77bf
00000140: 04d0 14bf 9ffc c03f d7be b2be 89f4 11c0
00000150: edf0 233f eaf6 7abf 4eec 313f 7eec 883d
00000160: 8734 493f 0188 13bd 2166 ce3f 9250 04bf
00000170: 5deb 923f 15bd 9bbf 1cea bcbf 0329 61bf
00000180: 1fbe 96bf 3169 7cbe 8235 61bf 65f4 7cbe
00000190: da1c 58bf 9531 15be f253 803f 7963 aabe
000001a0: bfda 85bf 24fb fdbd 7d51 34bf 15ae 783f
000001b0: b4b8 6abe 8e3b 2cbf aeed 04bf f166 343f
000001c0: f265 023f 5f3b 923e 04fe 2e3f 0a9d 263f
000001d0: 6465 3f3f 8611 033f 3c57 133f 0980 52be
000001e0: b48d 8ebf fbfa a63e 6fa4 573f bbb0 28bf
000001f0: c5fe 273f d8e3 2dbe 7f0e 083f 9918 333e
00000200: 831d 073f 9365 943e a04f 9d3f e64f 28bf
00000210: 7a54 8dbf eac6 883e 6882 63bf 115d e73e
00000220: 80b9 bc3f 703c 653f 2408 6cbf 05e6 acbf
00000230: cf0e 19bf 7db5 d43f d3cd 91be 2702 0f40
00000240: 4a79 343f 3a14 b8be acea 2940 828a 853c
00000250: 87c3 bfbf 0f51 b0bb 83f9 88bd fbd7 c1bf
00000260: ecf7 2140 4aab dbbf cff4 16bf 5a8e 2bbf
00000270: 6995 00bf f18c 6dbf a434 843d a7ce ac3e
00000280: b732 d23e a81b a63e cf45 233f 2de5 fd3e
00000290: 3599 703f 581d 2a3f 14e3 af3e 7707 22be
000002a0: 4984 5bbf 3295 7b3b d58d 153f 14d8 66bf
000002b0: c899 073f c6a8 c83e 906a 083f b3fa 02bf
000002c0: 8a81 a93e f654 ed3e d5d8 fd3e e424 683f
000002d0: 8947 0e40 e5ba 123f ecef 75bf 5b85 2abf
000002e0: aaf8 133f dcc3 a53f d159 3ebf 46e0 343e
000002f0: bc83 5d3e cca3 3cbe 74e9 c93e 9580 123f

struct.10.bias f4 [12]
-1.8503233 1.3324927 0.06988136 -0.16797486 -0.9214735 -1.068905 0.16847475 -0.114823736
-0.10375365 0.3877009 -0.53787416 0.8021368
00000000: 65d7 ecbf 1f8f aa3f f51d 8f3d 9a01 2cbe
00000010: b0e5 6bbf e1d1 88bf a584 2c3e b528 ebbd
00000020: cb7c d4bd bb80 c63e 1fb2 09bf d658 4d3f
