models/02-05-2023_20-49-03__mi_binary_opt_sched.model (torch, 737427 bytes, 10 tensors)

model.0.weight f4 [512, 20]
00000000: 7121 273e 6d49 d23e 1378 18bd c75d 633c
00000010: c72b d6be facd 87be 0fae f23e d698 a8be
00000020: ddd7 813b 249d 3abd 1e5e b33e 9b19 f13d
00000030: 0d97 953e 893c cb3e bc91 f03d 87b8 76be
00000040: 9287 b33e 1b7e 0f3e 3d9e 243e ed0b a13e
00000050: 3aec 8f3d ed90 b73e 7e31 693e ba15 9cbe
00000060: 98ee c0bd 0ba7 713c f050 113f 7267 4c3e
00000070: d39d c43d ad25 10be cd50 013d 1529 953c
00000080: 8fc7 9abe dd00 2b3e b1f8 1abe 37a0 51bd
00000090: 6a99 ea3e 6f17 8d3e c28d 533e ec33 763e
000000a0: f620 013d bdef 343e ce81 483c fe3f 823e
000000b0: f237 4b3e 4239 0d3c 7118 22bd 0a01 333f
000000c0: ccab 563d 2a5b 8dbe 6c6c 8ebe 512e 11be
000000d0: 7f03 b1be 1719 4cbe 676c 8f3e ced3 033e
000000e0: b341 293e 6c81 9e3d cd1b b43d 269c 1cbb
000000f0: 7528 db3e cd20 133e 5144 e23d 81c0 543e
00000100: 3138 34bc 8bc8 8d3c 5ecd 053e b23f 1cbf
00000110: 070b d9bb 9a0f a63c 59c6 31be 1a61 1bbc
00000120: 1e59 283e 7d13 c4bd d189 6e3d cdf5 553c
00000130: 9903 293e 5bee 7e3e 7311 283f 4dea 7b3e
00000140: c4e9 a03e cd56 693e 638a 693d 1337 443e
00000150: 4b5d 983d dd16 9cbd 35c0 993e afdc 183e
00000160: e053 4b3d 29e1 10be e777 79bc 1348 62be
00000170: ff7d 143d 6213 3cbe fffd 90bc 2309 2dbc
00000180: 6520 b63e 5147 273e fcc2 223e 3c29 0d3f
00000190: 8c49 ae3e ae9a 913d 50e6 f43d 598f 3b3e
000001a0: 98a4 8dbc 7e50 babd 6cd6 4c3e f512 e5bc
000001b0: 548e 13be 4dd7 203c fa52 b4bb 6fa4 41bd
000001c0: 87cd e13d 8bcf 873d b5b2 8f3d 167f 9b37
000001d0: 191a 1a3e 5f84 2d3e ef59 213f 7b56 5e3e
000001e0: 98dc 0bbd c4f0 273f 4fce 09be 00fb acbd
000001f0: 5fa9 be39 c9ec 71bd 6d15 4e3f 872c e13d
00000200: cb45 77be 88ad 563c daec adbd e0c2 68bc
00000210: f3fa d3bb 8b0c 54ba 558c e13a 7b92 f33c
00000220: 802d 133f 2367 79bc c36f a93c 9c7d 043e
00000230: 7f03 693d dcfc 8c3d 9896 803d f3c9 70bd
00000240: f493 f7bd da98 6d3e 7cfd 3ebe 5fb2 2fc0
00000250: eed2 1b3d 8217 10be acb2 453d ae38 41be
00000260: 370a 3ebd d03d 213d 6cb5 863e 4178 b53d
00000270: 0a38 b03a 6330 553d e29e 93be 4ad1 b43d
00000280: 71cc 693e a42d 1f3e ab39 bdbd d80c a63e
00000290: 2354 bc3e 831d 353e 7d03 843d 0842 c63e
000002a0: 0ed4 40be 4b59 873e 1bb9 6e3d 8cd5 08be
000002b0: bea6 fcbd 4430 18be 24b0 c43c 8955 b33d
000002c0: 40e9 883e f813 35be 78c8 953d 5495 a93e
000002d0: 9b7f c43e cd57 b13e 69b6 803e ec60 3b3e
000002e0: c12c 4abd 86b9 8c3c e1c3 9e3e 0f15 e0be
000002f0: 367a f93c 63ae 08bd 097f c5bc 59ee d6bd
00000300: 446c 813d 3005 193b ecce 863e aa42 4c3d
00000310: ba61 d73e 2354 023e ed4c 9e3e 360e 1c3f
00000320: 9d34 c63d 1dc8 c63d 6555 15be 92b6 993e
00000330: 60c4 803e 680b c93d 4e44 28bd 8058 193e
00000340: d546 a3bd 86b2 9e3e 7276 4e3d 5438 03bd
00000350: 9ee9 ecbe 5e74 f6bd ed58 38bf f1ce 003d
00000360: 2c8d fa3d eb3e 99bd 8366 c13c ef7a c03d
00000370: 06aa 10bf 8be6 9a3e 44ec 9ebd 232e d23d
00000380: eca8 cbbd 597e 75bd 5285 a93e 810d d53e
00000390: 6fae 033e aac7 153e 86e4 52be 1241 8e3e
000003a0: 6c09 bd3e db97 87be f2ec a0bc 8526 5ebe
000003b0: cfed 903e 16a7 67bd 9c36 c8bd ff02 943e
000003c0: 7f21 adbe 59fa 183f fe08 15bd b058 33be
000003d0: 8508 33bd 8b86 9dbc e322 0f3f a81b c83e
000003e0: 7a93 c23d bdda b2bb 1bca 30be 4cc1 8a3e
000003f0: 637d 033f 5fc6 3bbe 94b8 25bd 090c 84bd
0.1632135 0.41071644 -0.037223887 0.013877339 -0.41830274 -0.26524335 0.4739842 -0.32929105
0.0039625005 -0.045560017 0.35032743 0.11772462 0.29216805 0.39694622 0.117465466 -0.24093829
0.3506437 0.14012949 0.16075988 0.3145441 0.070274785 0.35852757 0.22772786 -0.30485326
-0.09420508 0.014749299 0.56764126 0.19961336 0.09600415 -0.14076872 0.0315712 0.018208066
-0.30230376 0.16699548 -0.1513393 -0.051178183 0.4582017 0.2755694 0.20659545 0.24043244
0.031525575 0.17669578 0.012237979 0.25439447 0.1984556 0.008619608 -0.03957409 0.6992346
0.052409932 -0.27608615 -0.27817094 -0.14177825 -0.3457298 -0.19931446 0.28012392 0.12873766
0.16528969 0.07739529 0.08794365 -0.0023896783 0.42804304 0.14367981 0.110481866 0.2077656
-0.010999725 0.01730754 0.13066623 -0.6103469 -0.006623629 0.020271111 -0.1736082 -0.0094836
0.16440246 -0.095740296 0.0582369 0.013059092 0.16505279 0.24895613 0.65651625 0.24601097
0.3142835 0.22787018 0.05701674 0.19161634 0.07439669 -0.07621548 0.30029455 0.14927934
0.049640536 -0.14148392 -0.015226341 -0.22097807 0.03625297 -0.18366769 -0.01769924 -0.01056126
0.3557159 0.16335799 0.15894693 0.55141044 0.34040487 0.07109581 0.11957991 0.18316402
-0.017290398 -0.09097384 0.2000367 -0.027963141 -0.14409763 0.009816957 -0.0055030556 -0.047275957
0.11025529 0.066313826 0.070165075 1.8536619e-05 0.15049018 0.16945027 0.6302785 0.21712677
-0.03414592 0.65601754 -0.13457607 -0.08446312 0.00036365815 -0.059063707 0.80501443 0.10994821
-0.24147718 0.0131028965 -0.084924415 -0.014206618 -0.0064691245 -0.0008089027 0.001720796 0.029732933
0.574913 -0.015222344 0.020683175 0.12938541 0.0568881 0.068841666 0.062787235 -0.058786344
-0.12088767 0.2320284 -0.18651384 -2.745262 0.038042955 -0.14071468 0.048266098 -0.18869278
-0.04639646 0.03936559 0.2631029 0.08860827 0.0013444435 0.0520481 -0.28832155 0.08828981
0.22831894 0.15544754 -0.09239515 0.32431674 0.3678294 0.17687039 0.06445978 0.38722253
-0.18830892 0.26435313 0.058282 -0.13362712 -0.12336491 -0.14862162 0.024009772 0.08756549
0.26740456 -0.17683399 0.07313627 0.3312174 0.38378605 0.346373 0.25139168 0.18298692
-0.049359087 0.017178308 0.3100882 -0.43766066 0.030453783 -0.033369433 -0.024108427 -0.1049468
0.06319478 0.002334904 0.26329744 0.049868263 0.42066747 0.12727408 0.30918065 0.60959184
0.09678004 0.09706137 -0.14583357 0.30022103 0.25149822 0.09816629 -0.041080765 0.14975166
-0.079724945 0.30995578 0.050405927 -0.03203614 -0.46271986 -0.12033914 -0.7201069 0.031447355
0.12233958 -0.07482704 0.023608452 0.09398448 -0.56509435 0.30254015 -0.07759908 0.10262706
-0.09944329 -0.059934948 0.33109528 0.41611865 0.1285951 0.14626947 -0.20594987 0.2778402
0.3692125 -0.26483044 -0.019644234 -0.21694382 0.28306434 -0.05655583 -0.09776041 0.28908536
-0.33814618 0.59757 -0.03638553 -0.175143 -0.043709297 -0.019229194 0.5591261 0.390836
0.09500785 -0.0054582045 -0.17264597 0.271006 0.513632 -0.18337391 -0.04045923 -0.06447608

model.0.bias f4 [512]
00000000: 33e1 d4be ac96 fdbe e2b6 ccbd bd76 4cbe
00000010: 24ad ecbe 6f3f e3bd e749 1bbe 6050 50bd
00000020: fea7 99bd 7efd a7be 518e 21be 72cb bcbe
00000030: 1d3d 02bf 3f7a 6fbe a7d0 99be fad3 16be
00000040: e0f5 e3be ccfa 22be 1c70 81be 0c43 33be
00000050: 7230 d4be 2c89 cbbe 5dc4 3dbd cc7c 93be
00000060: cdaf 0fbf 5ca2 c1be f12c bc3c 9f4d 99bd
00000070: d6b5 fbbe 9930 bfbe c465 50be 58bb e2be
00000080: 9a05 28be 0f75 b1be 9950 e2be 1199 53be
00000090: 1615 87be 143b 6bbe 5ca9 adbe 0322 68be
000000a0: 30c8 89be 0897 dfbc d36a c4be 19ac f5be
000000b0: d56a 20bd baca eebe 5fb1 8bbe aaa7 883d
000000c0: e459 01be d342 81be a550 0bbe fc3a ccbe
000000d0: 135d 35bf ae01 49be fd21 aebe 51f9 b9bd
000000e0: 6fd8 20be 628a 6fbe 0f3e 18be 97cb e3be
000000f0: 1fca d5be 8732 e3be 5dea acbe 9b10 5abe
00000100: b57f 97bd 7122 93bd 7a60 a6be 4cb5 ccbe
00000110: 026e f5bd 23a9 2dbe abe9 3bbd 0dbb f4be
00000120: 80ba d7be 1856 dcbd fc17 ebbe 5029 39be
00000130: 813c febe 0fdc 43bd d0f4 c4bd 763d d5be
00000140: ae47 98be 8913 99bc bcc8 94be fbb7 6e3c
00000150: e0a1 c0be 0fa7 a5be 3621 35ba aa32 b9be
00000160: 56c8 93be f03b 22be 9086 b6be aa78 d2bd
00000170: 18f8 21bf b4b9 cfbe cd05 9cbe 5ec3 f8be
00000180: 2274 b1be f3ae 3dbe d1f3 42bd be59 bcbd
00000190: e810 70be cd1d f2bd c0a4 42be df28 7dbe
000001a0: 4b2a c2be d160 05bf e168 5abe 92bf ccbe
000001b0: ea4f 1ebe c459 f8be ee50 e2be 4bcd d2be
000001c0: cdff bfbe 2e8f 06be f173 0ebf a7f6 1fbe
000001d0: 30a1 9cbe 6989 2cbf 2ef9 d1be e211 a2be
000001e0: 03ef b3be b2fc c4be 99a4 04bf 9dea c83d
000001f0: 0926 c5be 6c90 f1be 0af3 03bf 8349 f1bd
00000200: 1df8 b4be fe8a c13c 7d9e 88bd 2fd0 863c
00000210: 0838 eabe 1451 18be ec51 0fbe db28 eabc
00000220: 0c8c f9bd a5d6 7abe 2f23 aabe 2075 3abe
00000230: b26d b8be 2383 05bf 960c 513d a027 46bd
00000240: c951 973d 6b19 c9be 884c 40be 1533 bdbe
00000250: d8ee f5bd f0ac 98bd 3930 2bbe 4606 9ebe
00000260: 20dd 89be cdbf 8dbe 560c 12bd 0d2f a4be
00000270: 5445 fcbe fe35 b1be 6ac0 0fbe 6ece c5be
00000280: a131 0cbe 1cf9 f0be 68d6 8dbe 56ce cebe
00000290: feae ae3c 435a 6dbe 9781 67be a036 98be
000002a0: 0468 a4be 3cbe 02be a110 8b3c b7b3 a0bd
000002b0: 6ea8 b9be 621f 34bf 0e25 86be bc45 3abf
000002c0: 93a8 75be 5e35 4bbe 8a28 d6be cef7 053d
000002d0: b069 9ebe dedb 08bf e374 f8bc 7da1 3ebe
000002e0: 453f 03be 5e40 03be 5a6b f4be 4cf3 b2be
000002f0: 633b fabd f768 d4be 870e d3be b37e 0abf
00000300: 752a 5cbe 8326 f5be 3eac efbe 948a 5fbe
00000310: 2a99 7bbe b754 88be d961 10bf da1b 11be
00000320: a0b7 6dbe 7416 f1be 1ee0 42be 7e24 e7be
00000330: 55bf efbd 2842 c4bd c65e d7be b6a7 57bd
00000340: 5725 2ebe adb0 8fbe 60ba bdbe cb6d 01bd
00000350: 97dc 47bf ff8d aabe 1106 b1be b407 b5be
00000360: 064a 73bd 1198 63be 2270 b9bd b820 89be
00000370: ac8d 143e 7bd5 a8be 5dcc 63be f275 0cbe
00000380: 0260 63be d570 b8be 7483 08bf 4c7b 96be
00000390: cacb 2bbd 7750 e1be 280f b6bd ba70 cebe
000003a0: 75dc 85be d194 cabe 521b 65be 3bd5 dcbe
000003b0: 68c2 e4be d2af b0bd 8111 33bd ea4d bebe
000003c0: f2c1 5ebc 2b40 9ebd 8488 22be 045e a9be
000003d0: 1564 ea3c ea20 3cbe ac50 173d ae46 df3c
000003e0: ef7f 4ebe bcfb 06bf c0ec 11be f17a 25bf
000003f0: 7137 2cbe 61d9 3cbe 1203 863d eac3 93be
-0.41578063 -0.49529016 -0.0999582 -0.1996717 -0.46225846 -0.110960834 -0.1516491 -0.0508579
-0.07502745 -0.32810587 -0.15776946 -0.36873966 -0.508745 -0.23386477 -0.30042002 -0.147293
-0.44523525 -0.15915984 -0.25280845 -0.17506045 -0.4144321 -0.3975309 -0.046329845 -0.2880615
-0.56127626 -0.37819183 0.022970648 -0.07485508 -0.49162167 -0.37341765 -0.2035132 -0.44283557
-0.16408387 -0.3465962 -0.44202116 -0.20663859 -0.26383275 -0.22971755 -0.33918273 -0.22669224
-0.26910543 -0.027293697 -0.3836275 -0.47982863 -0.039164383 -0.46639043 -0.2728376 0.066726044
-0.12631947 -0.25246295 -0.13604982 -0.39888752 -0.70845145 -0.19629547 -0.34010306 -0.090807565
-0.15707563 -0.23392633 -0.14867423 -0.44491264 -0.4175577 -0.44374487 -0.33772555 -0.21295397
-0.07397405 -0.071843036 -0.3249548 -0.3998207 -0.11983873 -0.16959052 -0.04587714 -0.47798958
-0.42134476 -0.107586086 -0.45916736 -0.18082166 -0.49655536 -0.047817286 -0.09617007 -0.41648453
-0.29742187 -0.018686073 -0.29059398 0.014570232 -0.376235 -0.32354018 -0.0006909551 -0.36171466
-0.28863782 -0.15843177 -0.35649538 -0.10276921 -0.63269186 -0.40571368 -0.30473176 -0.48586553
-0.34658915 -0.18523769 -0.047595803 -0.091968045 -0.23443949 -0.1182209 -0.1900816 -0.24722622
-0.37922892 -0.52100855 -0.2132907 -0.39989907 -0.15460172 -0.48505986 -0.4420237 -0.4117225
-0.37499848 -0.13140556 -0.5564566 -0.15621434 -0.30591726 -0.6739717 -0.41010422 -0.31654269
-0.3514329 -0.3847404 -0.51813656 0.09810374 -0.3850558 -0.47180498 -0.51542723 -0.117815994
-0.35345545 0.023625847 -0.06670854 0.016456692 -0.45745873 -0.14874679 -0.13996094 -0.028583935
-0.12184915 -0.24495943 -0.33229968 -0.18208742 -0.3602119 -0.52153224 0.051037394 -0.048377633
0.07388646 -0.39277205 -0.18779194 -0.36953035 -0.120084465 -0.0745486 -0.16717614 -0.3086416
-0.26926517 -0.27685395 -0.035656296 -0.32067147 -0.49271643 -0.34611505 -0.14038244 -0.38634056
-0.13690807 -0.47065055 -0.2770264 -0.40391797 0.021323677 -0.23178963 -0.22608028 -0.29729176
-0.32110608 -0.12767881 0.016975703 -0.07846778 -0.36261314 -0.70360386 -0.26200145 -0.72762656
-0.23990087 -0.19844577 -0.41827804 0.032707028 -0.30940008 -0.5346049 -0.030329173 -0.1861629
-0.12817104 -0.12817523 -0.47738153 -0.34951246 -0.12218358 -0.41486332 -0.4122202 -0.5409958
-0.21500571 -0.47880945 -0.46811098 -0.21830207 -0.24570146 -0.26627132 -0.56399304 -0.14170781
-0.23214579 -0.47087443 -0.19030806 -0.4514503 -0.117064156 -0.09582931 -0.42064494 -0.052650176
-0.17006432 -0.2806448 -0.37056255 -0.031598847 -0.7807097 -0.3331146 -0.3457494 -0.3535744
-0.059396766 -0.22225977 -0.09054591 -0.26782775 0.14507169 -0.32975373 -0.22245927 -0.13716868
-0.22204593 -0.36023584 -0.5332558 -0.29390943 -0.041942395 -0.44006702 -0.088896096 -0.4032038
-0.26144758 -0.39566663 -0.22373703 -0.43131432 -0.4467957 -0.08627285 -0.043717865 -0.3716882
-0.013596045 -0.07727083 -0.15872389 -0.3307954 0.028612176 -0.1837193 0.03694217 0.027255382
-0.2016599 -0.52727866 -0.14250469 -0.6464072 -0.16818024 -0.18442298 0.06543554 -0.28860408

model.2.weight f4 [256, 512]
00000000: 7ea8 803b 7674 cf3d e59c 9f3d 0f22 8bbd
00000010: 8db1 553d 06fc c6bc 33fd d0bc 2efd cabd
00000020: 463f 82be b2a9 81be def1 86bd ba21 c5be
00000030: 072d 0b3e 7b6a 0e3d edb3 fbbd e27d 68be
00000040: 69e7 98be e9fb 00be 7bfa c43d e9e6 cabb
00000050: 4fe3 7cbd 6343 1abe 08d8 cfbe 764b eabc
00000060: b932 efbd 2540 123e 766c 303e d739 d73d
00000070: c291 783e 12b8 5bbc 3296 0ebd 4917 c23c
00000080: 21fb 80be 8355 d03d b1dd adbd a6a6 b5be
00000090: b982 333e acb3 c23d 5d79 60be 2bb7 703d
000000a0: d895 77be ff61 1e3d effa 34bd 2aa5 c3bc
000000b0: aaac 153e 9989 64be 2fc3 17be e875 593e
000000c0: 48fb 9c3d 0da7 4c3e 7971 bebe b0cf da3d
000000d0: deb4 23bc d822 363d b7f8 7c3d 2333 453e
000000e0: 1a29 393e c271 dd3d 4668 6dbd bc20 e83d
000000f0: e941 bd3b 0dfc 453d 7817 4b3e 093e 6c3d
00000100: 1ebd bdbe b767 50be e0f0 e43a eb57 e23c
00000110: a814 2a3e 953a 1cbe 3f79 3c3d 60a4 c0bd
00000120: 6341 133e 2697 e4bd 4f6b 81bd 7c92 c53c
00000130: 96f5 febc 5a53 3a3e fce3 89be 07d4 463e
00000140: 104a 40bd cd4b bcbd d3f3 833e 9a9b 203e
00000150: f5f9 293e fa20 0b3d 6e2a 3fbc 8c37 6ebd
00000160: d28e 5fbe f453 abbe cbac 58be bd17 afbe
00000170: 2b39 e0bc 2032 d1bd 3a7e 57be 2ef0 41be
00000180: 354c 52bb c4a9 12be 31f8 183d 8470 b33c
00000190: 04fc 77bd 2273 413e b229 873e 1804 36be
000001a0: c442 2dbe 3b35 783c d444 8fbd d3be 9abe
000001b0: 0270 dabd be26 46be 5dff 28be 8fed 84be
000001c0: 762d 30be 6851 613d bdc4 febd 6e89 073e
000001d0: 6e0c 1a3e e414 da3c b03c b3be 6762 123e
000001e0: 02fe aabc ab21 9aba 7e41 97be 7429 11be
000001f0: 8b2e 8c3e 34dd dbbd 86c5 a43c ec0c 9abd
00000200: 6e46 27be 9788 87be 50b1 c5be e29c febd
00000210: c025 5dbe fac3 263e bd0e 5f3e f166 6a3e
00000220: fda3 dfbc cc5c 6ebc ffcc e13c 17a5 2cbf
00000230: 1d4d 11be eb29 a2bd a164 15bd 3a68 2e3e
00000240: 2a8c 583c b43a dfbd f751 0b3e 0fd6 443e
00000250: 8eac 6b3e 06b4 243e 52e1 8a3d 954d 803e
00000260: 59eb b9bd b8c4 bcbd 867f 293e 64ce babd
00000270: 013f 32be 7900 213e aaaf 5ebe fc88 b43e
00000280: c5a6 dcbc 33dc 35ba ff8c fdbd 6274 8dbe
00000290: e374 6ebe 926f e4bc 021f c03d 31e0 47be
000002a0: 361b d0bd 4a1e b43d f7c1 3c3e 2353 cc3d
000002b0: 1a7f 423e f77b a2be 9a31 3f3e ebf0 01be
000002c0: 4330 46be 7b15 163e 5bb7 87bd f84b b43e
000002d0: 898a 75be e92f d43c 67ec 38be 166b 81be
000002e0: 1348 bfbe f744 903e 29a1 a03d 3c06 52be
000002f0: 9f71 c1bd df1e 28bd b69c 173e d4d0 2bbe
00000300: 53e6 49bd 6ac6 10be 8895 f6bd c9db 153e
00000310: 8450 0bbe b958 2bbe e072 dbbd 3f31 a8bd
00000320: ec4e 313e 427f 95bd d672 963d d8ce 183d
00000330: 5734 4c3d 68d4 3e3e 649d 0e3e e007 9dbe
00000340: d88d 9f3d 3915 1dbd 11c0 22bc 1b69 173e
00000350: cf3a 93bc ec53 a4be fe69 39bd f0aa 24be
00000360: be5d fa3d 16d1 acbe 05ad 213e c197 5c3b
00000370: 92b7 aa3c 7f18 bbbe 7c3d 34be f075 11bc
00000380: b967 eb3d 2607 78be d17c 78bd 7e6b 51bd
00000390: 1d2e 25be 645c e53d 1cf3 4c3e 1bba ad3c
000003a0: 034f c3bd 85b7 4fbe 901c 1bbe 7498 8d3d
000003b0: 5390 ab3d ab2b e5bd 9ef8 a0bb c7a4 cebe
000003c0: 2221 bc3d 409a 86be 580d f63d e8f9 243c
000003d0: 1506 333d 740c 833e 5131 cabd 6922 9a3c
000003e0: bfd3 d03d bdfd 1abe a431 b2bd 0d14 a4bd
000003f0: 7b16 af3d 6748 62bd d6a1 6cbd 01c6 55be
0.003926336 0.10129635 0.07793597 -0.067936055 0.05217128 -0.024290096 -0.02551136 -0.099115714
-0.254389 -0.2532478 -0.06589101 -0.38502294 0.13591395 0.034769516 -0.122901775 -0.2270427
-0.29864052 -0.12596096 0.09618088 -0.0061920774 -0.061740216 -0.15064768 -0.40594506 -0.028600436
-0.116795965 0.14282282 0.17228875 0.10509079 0.24274352 -0.013410585 -0.034811206 0.023692744
-0.25191596 0.1017256 -0.0848955 -0.35478705 0.17530335 0.09506926 -0.21921296 0.058768433
-0.24178255 0.038667675 -0.04418462 -0.023882467 0.14616647 -0.22318114 -0.1482055 0.21236384
0.076651156 0.199856 -0.37195948 0.106841445 -0.009991853 0.044466823 0.06176063 0.19257788
0.18082085 0.10812713 -0.05796077 0.113343686 0.0057756794 0.048336077 0.19833171 0.05767635
-0.37058347 -0.20352064 0.0017466806 0.027629813 0.16609442 -0.15256722 0.046014067 -0.09406352
0.14380412 -0.11161642 -0.063192956 0.0241177 -0.031122964 0.18195859 -0.2693175 0.1941682
-0.04694563 -0.09194145 0.2577196 0.15684357 0.16599257 0.033966996 -0.011667831 -0.058158442
-0.21831825 -0.3346249 -0.21159665 -0.34197798 -0.02737101 -0.10214639 -0.21044245 -0.18939278
-0.003208888 -0.14322573 0.03734607 0.021904238 -0.060543075 0.18891576 0.26398998 -0.17774999
-0.1692 0.01514941 -0.0699555 -0.30223712 -0.10665895 -0.19350716 -0.16503663 -0.25962493
-0.17204842 0.055009276 -0.124398686 0.13236019 0.15043804 0.02662129 -0.35007238 0.1429535
-0.020873073 -0.0011759301 -0.29542154 -0.1417597 0.2737926 -0.107355505 0.020113718 -0.07521996
-0.1633546 -0.26471397 -0.3861184 -0.12432267 -0.21596432 0.16285697 0.21782966 0.22890832
-0.027299875 -0.014548492 0.02756357 -0.6743941 -0.14189573 -0.079181515 -0.03647292 0.17031947
0.0132170115 -0.108998686 0.13605486 0.19222282 0.23015043 0.16084298 0.06781258 0.2505919
-0.09078092 -0.092172086 0.16552553 -0.09121397 -0.17406847 0.15722837 -0.21746698 0.3526076
-0.02693499 -0.00069374143 -0.123804085 -0.27627856 -0.23286776 -0.027885232 0.09380914 -0.19519116
-0.1016144 0.0879484 0.18433367 0.099767946 0.18993798 -0.31735203 0.18671265 -0.12689559
-0.19354348 0.14656632 -0.06626769 0.3521421 -0.23978628 0.025901752 -0.1805893 -0.25277013
-0.37359676 0.28177616 0.07843239 -0.2051019 -0.094455 -0.041045066 0.14805874 -0.1677888
-0.04929192 -0.14138189 -0.120402396 0.14634623 -0.13604933 -0.16733064 -0.1071527 -0.08212518
0.17315263 -0.07299663 0.07346122 0.037306637 0.049854603 0.18635714 0.13927227 -0.3067007
0.077907264 -0.038350318 -0.0099334875 0.14786188 -0.017972378 -0.32095277 -0.045267098 -0.16080832
0.12224911 -0.3375327 0.15788658 0.0033659788 0.020839486 -0.36542127 -0.1760158 -0.008878216
0.11494393 -0.24221477 -0.06066591 -0.051127903 -0.16130872 0.11199263 0.20014614 0.021206906
-0.09536555 -0.20284851 -0.15147614 0.06913844 0.08377137 -0.1118997 -0.00491245 -0.4036009
0.09186007 -0.26289558 0.12014264 0.010069348 0.043706972 0.25595438 -0.098726876 0.018815236
0.10196637 -0.15135856 -0.087008744 -0.08011637 0.0854921 -0.05524483 -0.057771526 -0.20876314

model.2.bias f4 [256]
00000000: 4b19 b43d c4e8 5b3d 5ccb 4fbe ca77 b4bd
00000010: e367 03bd 4ecd a43d 244c 84bd 5545 7cbe
00000020: c0e4 15bd b703 b3bc 58f3 59be c1db 16be
00000030: 5db0 8fbe 5ea3 e43d 1643 9cbe 53f3 f9bc
00000040: 3ec7 47be 7fc6 1bbd a8f5 83be 0c65 423e
00000050: 4f28 e53d f244 20be 621c 8b3d 288b 12bd
00000060: 235e 83be 8136 f7be 425f a2bd 0b35 903c
00000070: 1328 8ebd ac68 61be 3a62 c1bd 42e1 d4be
00000080: 277d 5abc edee 953c 9b40 8ebd 668e d8bc
00000090: 220e bcbd 01d6 72be 1398 b5bd c313 3cbe
000000a0: b735 88bd 8bd1 07be 05cd d1be 5c5d 2ebe
000000b0: 646f 12be c052 93be 0e9d 863d 830a ed3d
000000c0: b0f4 8abd 89f2 a9be a595 7c3e 0444 ae3d
000000d0: 053c bebd 6f2d 29be 62d1 ffbe aff8 69bd
000000e0: 2dc7 e0bc c790 463d ea43 adbd a56c 1bbe
000000f0: e6d0 3cbd ba6f 6a3c 2ded 3abd c781 72bd
00000100: e38a 983e b07c 403d 3ab8 46bf 92a4 d0bc
00000110: cbc9 8fbd 69a5 46be cac2 57bc 66eb f5bc
00000120: fe43 8ebd 79a1 85be fdf7 17be 86d3 9abe
00000130: d8d1 1cbe 5ea9 d73d 4c68 a5bd 133c d93d
00000140: ea6d 2ebe 4c0a dabc cc4d 6fbe e4d5 27be
00000150: 08b2 0dbe 048f 5ebd a26c 123e 8a91 48bf
00000160: cd74 10bf 0714 bc3d a4cc 73bd 4d08 f5bd
00000170: 45ca 5dbd 5ab8 6abe 51ba f9bd 2cff 76bc
00000180: 3db1 603e c05c dabd 729c cbbc 8704 6abe
00000190: 8583 33bd f2af 533d b1f2 ebbd 800c 90bd
000001a0: 931e 1ebd 8cd9 7d3c ebc3 4bbe d09d bc3c
000001b0: 20f5 59be 3f40 13be bbd9 2dbd 09f5 b73d
000001c0: a269 59bd 583f 34be 2eb1 873d 1ee8 453d
000001d0: 367c 1cbe 0e30 01bc a597 e1be 90f6 c93c
000001e0: ea62 b53d c55a 50bd 7696 8f3c 238e 25be
000001f0: 5b30 eabc 2e62 a3b9 d70c 5cbe bad2 0cbe
00000200: 089e 75be bd00 0dbe 87ec 143e bebb 9cbe
00000210: 3ba5 b3be 985d 053d bfd7 ae3d e86e 06be
00000220: 5b50 dabc 9a38 153d 4206 1dbe 4cf2 44be
00000230: 798f a8be 7834 2ebe 4956 12be b94b 11be
00000240: 2698 f2bd 60b8 76bd 3159 b4be b65d cbbe
00000250: e743 823c cb6e e3bd 78b7 8b3d 3671 d4bc
00000260: db30 303e c260 57be e75e 17be bcb7 bbbd
00000270: e954 47be aecf 47be 4871 1abd dd3c 8bbd
00000280: 7b97 2c3e c19c 55bd b010 e0bd 980f 3fbd
00000290: caa3 c8bd e830 06bd f0e1 05bf 157a 463d
000002a0: 030c 683e 2560 d2be 0c4e b0bd d9ea 81bd
000002b0: 4429 c93d 77cd 02bf e1b0 98be 125a 94bd
000002c0: edd3 4abe d30f 19bd 111a 25be e1bb d8bd
000002d0: e790 483d d107 6bbe 1854 34be 1c10 11be
000002e0: db7b ccbb 7080 5ebd 70ca aabe 7287 b43c
000002f0: 23d7 06be 8641 8a3c 3cf0 773d d3d6 19bc
00000300: 6a77 c3bd 4bed 87bd 883c 663d 6340 b8bd
00000310: a375 b8bd 279b a9bc fbc5 6cbe 3131 36bc
00000320: b318 1cbe 8706 d03d 4e7c 84be b9ff 20be
00000330: df1f ff3d f52a 7fbd 494f 4abd 11f8 a5bc
00000340: 4070 04bc 7932 23bf 4142 95bd 1389 c0bd
00000350: 6805 88be 231f 19be 3e7e 0d3c d085 e3bd
00000360: 18a8 2cbf bae4 3c3e 4717 05bd 4b0f cabc
00000370: 8756 d0bd c4dd b9bd 545a 23be ccb7 e1bd
00000380: 474e 863e 1ebf 3fbe da44 ecbd 5670 24bd
00000390: 6668 74be f010 4a3d 0eb8 22be 33e5 96bc
000003a0: e2e5 0b3d a912 b43c eb11 1ebd ee8d d4be
000003b0: a158 8abe 93d1 9d3d afa7 e3bd cae7 493d
000003c0: 4552 61bd 23b7 95bd 144b ffbd cc79 bebd
000003d0: 7250 39bd c987 833d 33d4 56bd a855 e7bc
000003e0: a50f f93d 3f1c 883e 5e39 d0be 0496 8bbd
000003f0: 947b 973d 1adb 33be 3fef a8bd 452f 87be
0.08793887 0.05368878 -0.20292419 -0.088119105 -0.032081496 0.08046971 -0.06459835 -0.24635823
-0.036595106 -0.021852357 -0.21284235 -0.14732267 -0.28064242 0.11163972 -0.30519933 -0.030511534
-0.19509599 -0.038031098 -0.25773358 0.18983859 0.11189329 -0.156513 0.06792523 -0.03577724
-0.25657758 -0.4828377 -0.07928325 0.017603418 -0.06941237 -0.22012585 -0.09442563 -0.41578108
-0.013335503 0.018302405 -0.06945916 -0.026435088 -0.09182383 -0.23714449 -0.088668965 -0.18366913
-0.0665087 -0.13263528 -0.4097673 -0.17027801 -0.14300305 -0.2877407 0.065729246 0.115742706
-0.06784952 -0.33192852 0.2466646 0.08509067 -0.092887916 -0.16521238 -0.49964434 -0.05712193
-0.027438724 0.048477914 -0.08460219 -0.15178163 -0.04609766 0.014308864 -0.045636345 -0.059205797
0.29793462 0.04699391 -0.7762486 -0.025469098 -0.07020911 -0.19399036 -0.013169 -0.030019473
-0.06946562 -0.26099756 -0.14840694 -0.30239505 -0.15314424 0.10530351 -0.08076534 0.106071614
-0.17034116 -0.026616238 -0.23369521 -0.16390187 -0.13837445 -0.05433561 0.14299253 -0.78347075
-0.56428224 0.091835074 -0.059521332 -0.11964474 -0.054147977 -0.22921887 -0.1219374 -0.015075486
0.21942611 -0.10662222 -0.024854872 -0.2285329 -0.0438266 0.051681466 -0.11520899 -0.07033634
-0.038603377 0.015493762 -0.19898956 0.02302447 -0.21284914 -0.14379977 -0.042443972 0.089822836
-0.053079255 -0.17602289 0.06625591 0.048317067 -0.15281758 -0.007884992 -0.44061008 0.024653703
0.08856757 -0.050867815 0.0175278 -0.16167502 -0.02858751 -0.00031162932 -0.21489273 -0.13752261
-0.23986065 -0.13769813 0.14543353 -0.30611986 -0.35086998 0.03255996 0.08537244 -0.13128245
-0.026649645 0.036430933 -0.15334418 -0.19233054 -0.3292196 -0.17012203 -0.14290728 -0.14189042
-0.11845426 -0.060234427 -0.35224298 -0.39719933 0.015901519 -0.111051165 0.06822103 -0.02593289
0.17206137 -0.21033004 -0.14782296 -0.09165904 -0.19465984 -0.19512817 -0.03770569 -0.06798718
0.1685466 -0.052151445 -0.10940683 -0.04664573 -0.09796865 -0.032761484 -0.5229788 0.04845627
0.22660832 -0.41088977 -0.08608636 -0.06343622 0.09822324 -0.51094764 -0.29822448 -0.07243742
-0.19807406 -0.037368607 -0.16123225 -0.1058271 0.048966315 -0.229522 -0.17610204 -0.14166301
-0.0062403507 -0.054321706 -0.33357573 0.022037242 -0.13168006 0.016876947 0.06053184 -0.009389597
-0.09544261 -0.06637057 0.05621007 -0.08996656 -0.090068124 -0.020703865 -0.23122399 -0.011120127
-0.15243797 0.10157495 -0.25876087 -0.1572255 0.12457251 -0.062296826 -0.04939202 -0.020259889
-0.008083403 -0.6374889 -0.072880276 -0.09401145 -0.26566625 -0.14953284 0.0086360555 -0.11109507
-0.6744399 0.18446627 -0.032492902 -0.024665495 -0.10172754 -0.090755016 -0.15952426 -0.110213846
0.26231596 -0.18725249 -0.1153657 -0.040146194 -0.2386795 0.04933256 -0.15890524 -0.018419838
0.03415478 0.021981554 -0.038591307 -0.41514534 -0.27020743 0.07705989 -0.111159675 0.049293317
-0.0550101 -0.07310321 -0.12465492 -0.09300575 -0.045242734 0.06422383 -0.052448463 -0.028239086
0.12161187 0.2658405 -0.40668768 -0.068157226 0.073966175 -0.1756405 -0.082487576 -0.2640325

model.4.weight f4 [128, 256]
00000000: 186c 47be c995 063e 5f0b de3d 0c9d 9fbd
00000010: 54b4 b13d 3841 aa3d faa4 1d3d 3e08 b0bc
00000020: 0924 95bc fe25 0ebe f75c e1be 0b2d 0fbe
00000030: 64b0 a13d e613 bb3d aa11 0d3f 5b45 d1bb
00000040: 0675 85bc d48c 373e df72 ecbe 0c3c dd3e
00000050: 95f6 3a3e bd45 8bbe f973 9a3e 608c 60bb
00000060: 3109 163d 77be ae3e fccb 163e 2d6a 0c3e
00000070: 6cce da3d 337b 753c b964 9abd f235 883e
00000080: 7e02 413d 6328 203e ee3d 333d b7bc c3bc
00000090: 5a47 4e3d 6244 e6bd 70a9 58bd f9b6 223e
000000a0: f880 91bd 1528 4abd 0998 52be 8efc e4be
000000b0: ef24 9e3d 7d03 403e 32a0 d03d 502b e13e
000000c0: a30e 893e 5a50 a7be 86fe 9fbe 5342 be3c
000000d0: 6f06 a33d 3c18 b5bd dcc1 c13d 7c00 3d3d
000000e0: 387b a3bd fec4 2f3e 5122 953d 4ebb b8be
000000f0: 11af 7cbe fd90 023e 9463 fe3e 6005 dabc
00000100: db6e 9cbe df2a b43e a780 b13e a1ab 26be
00000110: 0fae 88be 6fb5 8f3d 0560 a73d 7e4f 93bc
00000120: d812 933d f4f8 3fbd 93e2 d63d 19d4 6bbe
00000130: 6c1f 65be 9ce5 03bf 8688 d4bd 09e8 f2be
00000140: 5cb4 f33e 1d0e 003c dc2b 3fbd 7053 e83c
00000150: eea5 8b3d 9414 3dbd 987d 7e3c 5c13 20be
00000160: df33 9f3e b785 f7bd d4fd 89bc de77 82bd
00000170: 473e 8a3e 940a b8bd b258 38bd cb5a 46be
00000180: f422 aa3d 9dfd 0c3f d695 e1bd d481 5dbe
00000190: 4dd5 ba3d e759 6dbe 3c37 00be 72d4 7bbe
000001a0: d6ac 97bd 9825 49bd 9966 e53b 70fa f7bd
000001b0: a056 7d3e 800c 83be 5bb6 f63c ef09 393e
000001c0: 4350 923e 0934 e33d d42c 9c3e e2b1 753a
000001d0: a5ad 8abe a668 433e 4995 9f3e 1b72 e13d
000001e0: e357 21be 6ef3 233e 5a77 e1bd 8a6d b83b
000001f0: 1319 73be a1d5 663d 0e95 93bd f369 333e
00000200: c507 14be 0cdf a63d 38e9 3c3e f6b4 43be
00000210: 586b 07be 3b47 733d c0c5 7d3d c944 18bd
00000220: 774c 30bd ef14 64bd b6f5 e1bd d73f 82be
00000230: 7f57 9dbd 9a8c 61be b477 7abd f3bd 14be
00000240: 5641 083e 2863 a8bd aa40 3bbe ce37 cd3d
00000250: dfac 75bd c2d2 50bd d12e a03e cc98 71bd
00000260: db8d 5d3d 5427 8fbc 3520 f33d 6430 71bc
00000270: 76fc c03d 71c8 543e b694 123e 72c9 bc3e
00000280: 90a0 5cbe a26e 9cbd 6f46 71be 1e0f 703e
00000290: 66d1 253e 6611 fabc d530 933d 2cd7 603e
000002a0: 2465 8fbe a347 aabd 5123 36bf 7ddd 7a3d
000002b0: 51c9 9dbe a3cf d43d 0081 91bd a402 a93c
000002c0: d729 0abe 3d22 4ebe e792 9dbe a5f5 b3bd
000002d0: 5d15 1dbe 4773 8d3d 7bd1 80be d851 6e3e
000002e0: 19a3 8e3d 1f67 013e 7c73 1abd 3d66 123e
000002f0: 02c7 a43e 2b82 1ebd c131 4a3c 8913 a5be
00000300: 5b2d a83d 118e dc3d d2ae 7c3e f190 8ebd
00000310: 51c9 2abe ac3e bcbd ca21 62bc 46d2 873e
00000320: e3e3 653e 9329 a63d d0cc 693d b869 31bf
00000330: 51a9 76be 70e2 1cbe ddfe 923e 2235 0d3e
00000340: e013 133f 714b 1bbf cdcb 91bd 6ab3 403d
00000350: e674 a03e c51c dcbd 2067 703d 1b0c c83e
00000360: 6aa8 d23e ece5 833d 8171 873d 11d8 803e
00000370: 63d9 373d 7da6 d2bc 299f fcbd b07d 02be
00000380: a1ff cfbe 6d3a 5ebe 80dc d83d 2a84 6e3d
00000390: c711 6dbe 2364 d9be 7108 03bd 8295 ecbe
000003a0: dd64 33bf e247 9d3e 1e2e 3cbe 42f6 533d
000003b0: 080e 9b3d 97be 7f3d f790 963e e55a 6cbe
000003c0: cd80 fd3b eb70 04bf 87c5 583d 7cc3 1bbe
000003d0: e6c0 bcbe 4be1 6e3e bc9d 603d 59e9 6f3e
000003e0: 5a9c 1e3d 299d d0be ba3c 0abe 7991 6c3d
000003f0: dace c53e 748f 053e 2a3d 2ebe e7ec 233e
-0.19474828 0.13143076 0.108420126 -0.07793626 0.08676973 0.08313221 0.038487412 -0.021488305
-0.01820566 -0.1388168 -0.4401624 -0.13982026 0.07894972 0.09134655 0.5510508 -0.0063864416
-0.016291153 0.17924815 -0.4618139 0.43209875 0.18258126 -0.27201644 0.30166605 -0.0034263358
0.03662986 0.34129688 0.14726251 0.13712378 0.10683903 0.014982986 -0.075387426 0.26603657
0.047121517 0.15640406 0.043760233 -0.023893697 0.050361015 -0.11243512 -0.052895963 0.15890111
-0.07104677 -0.04935463 -0.2056581 -0.44723934 0.07721888 0.1875133 0.10186805 0.43978357
0.2676898 -0.3267849 -0.31248873 0.023224985 0.079602115 -0.08842513 0.09460804 0.04614304
-0.079824865 0.1716499 0.07281936 -0.36080402 -0.24676158 0.12750621 0.49685347 -0.026613891
-0.30553326 0.35188958 0.34668466 -0.16276409 -0.26695296 0.070170276 0.08172611 -0.01798224
0.071813285 -0.04686828 0.10492434 -0.23030128 -0.22375268 -0.5152223 -0.10377602 -0.47442654
0.4759854 0.007815865 -0.046672687 0.028360099 0.06818758 -0.046162203 0.015532874 -0.15632385
0.31094262 -0.12086051 -0.016844667 -0.06370519 0.2700064 -0.089863926 -0.04500646 -0.19370572
0.08307448 0.55074483 -0.11014907 -0.21631557 0.09122715 -0.23178826 -0.1252107 -0.2459276
-0.07406013 -0.049108118 0.007000756 -0.12108314 0.24740076 -0.25595474 0.03011625 0.18070196
0.2857686 0.11093909 0.3050295 0.0009372515 -0.27085605 0.19082889 0.31168583 0.11008092
-0.15756182 0.1601083 -0.11009093 0.0056282924 -0.23740034 0.056356076 -0.07206164 0.17520885
-0.14456089 0.081480116 0.18448341 -0.19112 -0.13224542 0.059394103 0.061956167 -0.037174974
-0.043041673 -0.055684026 -0.11033194 -0.2543933 -0.07682704 -0.22026291 -0.061149314 -0.14525585
0.13306174 -0.082220376 -0.18286386 0.100204095 -0.059979316 -0.050982244 0.31285718 -0.05898361
0.054090362 -0.017474808 0.118713774 -0.01472101 0.09423153 0.20779587 0.14314541 0.3687244
-0.21545625 -0.07638289 -0.23562025 0.23443267 0.1619316 -0.030525874 0.07187048 0.21957082
-0.28006852 -0.08314445 -0.7114764 0.061246384 -0.30817655 0.10391166 -0.07104683 0.020631142
-0.13492523 -0.20130248 -0.3077614 -0.08787087 -0.1534018 0.06906753 -0.2515982 0.23273408
0.06964702 0.12636994 -0.03770779 0.14296813 0.3218308 -0.038698357 0.012340964 -0.32241467
0.08211776 0.107692845 0.24676064 -0.06961239 -0.16678359 -0.09191641 -0.013802001 0.26527613
0.22450213 0.081133984 0.05708009 -0.6930194 -0.24088027 -0.15320754 0.2871007 0.137898
0.574522 -0.6066199 -0.0711895 0.047046103 0.31339186 -0.10747675 0.058692098 0.39071736
0.41144115 0.064403385 0.06613446 0.25164846 0.04488505 -0.025714153 -0.12335045 -0.12743258
-0.40624717 -0.21701975 0.10588932 0.05823151 -0.23151313 -0.4245921 -0.031990472 -0.46207815
-0.7007578 0.30718905 -0.18376967 0.05174852 0.075710356 0.06243762 0.29407474 -0.23081549
0.0077363015 -0.517348 0.05292275 -0.1521129 -0.3686592 0.2332813 0.054837927 0.23428859
0.038723327 -0.40744904 -0.13499728 0.05775592 0.38634378 0.13043004 -0.1701552 0.1600834

model.4.bias f4 [128]
00000000: f707 49be b6de 273e 1db7 6d3e 5cf1 3a3e
00000010: 8732 863e 1f5a 173d e05c 58be 67eb 0dbe
00000020: d9b5 4b3e 5697 413e a134 a63e 1ba0 9cbe
00000030: 44e8 02be 1e77 173e 5dc3 623e 2c18 e23d
00000040: d46d b03e 86d4 7fbe 0c93 c5bd 8558 aebe
00000050: f3c8 523e d037 1bbe f2cf fdbd 5773 70bd
00000060: 8fcf 0b3c fbc9 823d d41e a53e ad2c 7b3d
00000070: 9718 b7bd 7dbb 0ebc 0e10 49be bf95 1dbc
00000080: aa4f 23be fae0 fbbd 901c b8bc 9019 44be
00000090: c10d 13be 668b 15be 68b1 dcbb 1b2d 3b3d
000000a0: 2b41 003e 1505 bd3d c28e b73e 431c 593d
000000b0: d08d 36bd 9c15 1c3e f1e3 263e 984a 693e
000000c0: b1e7 aebc a42b 743e bd51 cc3c 858d 58be
000000d0: c416 bc3d 440d 6d3e 6038 16bd 75be da3b
000000e0: 3e2b 8ebe 9b80 31be 6f49 a43c 6f0c efbc
000000f0: e89c 80be 6cc7 c2be e837 acbe 9c5c c53d
00000100: 08a0 cd3b 6783 ae3d a715 cb3e 0e35 10be
00000110: 4cc5 bdbe 450e 5a3e 8b48 673d 69cd a9bd
00000120: 430b 49bd bd89 b33e e054 49bc 8e7b a83e
00000130: a7e1 7fbe 3746 45bc 642d 7ebd b449 a43d
00000140: 188c 92be b5f5 25be d391 a73d 2599 9c3d
00000150: 8ab9 343e d2d0 d03d 5a5f d83d b56a 893d
00000160: 2598 d7be 7f19 283e 5a6c aabd 66cf 26be
00000170: f0cc f03e 547a f9bd 7f89 d0bd 9b86 003e
00000180: 1772 02be 7ceb b63d a767 903d dda8 103e
00000190: b7f1 52bd 5244 f2bd be94 30be 6ccd 5c3e
000001a0: dc61 053e 3192 aa3e 12f9 eabd e939 1dbe
000001b0: 099a e0bb 8692 503e a169 c53e 0fb4 a2be
000001c0: b905 2ebe 5b38 a1bc f298 6bbc 56db 193e
000001d0: 7b9d e33d ff06 8dbe 8aea e23d 1814 61be
000001e0: 8298 e2bd c817 32bd 08a4 db3d cc14 20bd
000001f0: 779c 8cbe 6510 8c3b aa21 363e da4f 6bbd
-0.19631945 0.16393551 0.23214383 0.18256134 0.26210424 0.03695118 -0.21129179 -0.1385933
0.19893588 0.18905386 0.32462028 -0.305909 -0.12783915 0.14791533 0.22144838 0.11039767
0.34458792 -0.24983415 -0.096471876 -0.3405191 0.20584469 -0.1515801 -0.12393178 -0.058703747
0.008533373 0.06386181 0.32250082 0.061321903 -0.08940237 -0.008711693 -0.1963503 -0.009618222
-0.15948358 -0.1229877 -0.022474557 -0.19150376 -0.14360715 -0.14603958 -0.0067350157 0.045697313
0.1252486 0.09229485 0.35851103 0.053005468 -0.044568837 0.15242618 0.1629789 0.22782362
-0.021350713 0.23844773 0.02494132 -0.21147735 0.0918403 0.23149592 -0.036674857 0.0066755363
-0.27767366 -0.17334215 0.020054547 -0.029180733 -0.2511971 -0.38042772 -0.33636403 0.096368045
0.0062751807 0.08521157 0.39664957 -0.14082739 -0.37064588 0.21294506 0.056465667 -0.08291132
-0.049083006 0.35066023 -0.012288302 0.32906765 -0.24988423 -0.012040666 -0.062055007 0.0802187
-0.28622508 -0.16207011 0.08182111 0.076463975 0.17648903 0.10196079 0.10565062 0.06709806
-0.42108265 0.16415976 -0.08321448 -0.16290054 0.47031355 -0.12181535 -0.10182475 0.12551348
-0.12738834 0.08931634 0.0705102 0.14126916 -0.05150005 -0.11829437 -0.1724424 0.21562737
0.13025612 0.3331466 -0.11473288 -0.15354122 -0.0068543 0.20368394 0.3855715 -0.31778
-0.1699437 -0.019680193 -0.014379727 0.15025076 0.111140214 -0.275444 0.11079891 -0.21980321
-0.11064245 -0.04347971 0.10724646 -0.039082333 -0.27463123 0.0042744153 0.1778628 -0.0574492

model.6.weight f4 [64, 128]
00000000: a313 7cbe 540a 4a3d 515e 883e 3081 063e
00000010: 94aa 8c3d bb87 b2bd 758d 2bbc 5749 4fbe
00000020: 6c84 153e 5659 4cbe 549b 363d ce8a 3e3e
00000030: dc4e e4bd cd57 6b3d 176e 3c3e 4730 e5bd
00000040: 83ce 753e 4ee9 8fbe 6fae ce3e fa31 fbbe
00000050: 8fa1 9e3e e4a8 18be 47f4 d4be 6a58 893e
00000060: 756e f03e ac01 30be 7243 90bd 8968 dd3d
00000070: 46bb 783e 2ee2 11bf 5155 0cbf bef1 113e
00000080: ddab 12bf 413a dbbc 284f 9fbd 0591 e3be
00000090: 1d7a efbe 83fd c7be 9def 7fbd 44cc 403e
000000a0: 2fba 3e3b 8cb8 043f 0646 38be e040 cf3e
000000b0: f588 9b3d fc5e ef3d 7346 dc3e 142b f13e
000000c0: 6b6e da3e 95d1 70be e99b b13e c6b5 503e
000000d0: 6341 b1be b380 aebd 88d7 343d f22f 423d
000000e0: 3105 3b3e 91ab 0f3e bfb1 b2be 6172 9bbd
000000f0: 330d acbe 63b8 cb3d 06e2 ab3e f3c5 27be
00000100: dbb8 b3bd 8b8d 8dbe f97e a53e 7a9e 44be
00000110: 713b ecbe 3219 953c fb6f 843e 9c39 47bd
00000120: 9429 eabc 7caa 24bd 38fc 87bb 34b3 f23e
00000130: e9ae cabe 7910 a33e 3b75 a3be 173c aebe
00000140: 843a 133f 3a65 313d dfe2 80be bea7 b23d
00000150: 040b b93e 86de 28be 57ec 6dbe 0fb7 803c
00000160: e6a7 90be 7b7b 48bd a904 bbbe c205 943c
00000170: 4ff0 883e 9c3c e9be 0740 87bd 293d 2cbd
00000180: 6b9a ff3d a8dc 483d 1e7f 89be 7bb9 873e
00000190: 25d3 eabd 2dca 203d ec16 55be 62bf b43d
000001a0: e559 3c3e fc8f c43d 1012 42be 70d6 9abe
000001b0: 8c86 6a3e a1b6 84bd 64f7 4e3e 97a5 b3be
000001c0: 42eb 823e 38d7 3bbe 58d1 843e 8578 b73e
000001d0: c007 ed3d 032e 6a3d 67d0 6d3e 1e21 83be
000001e0: ae49 643e afc7 903e 7e86 2c3e aced 6cbe
000001f0: 4720 9ebe 8142 81bc 633f 6f3e 2b38 11bd
00000200: 9825 8dbe ffb9 2dbe 7c49 2b3e 44bf 4fbd
00000210: f7e2 8bbe 65a0 723d 9837 39be 5a3a 11be
00000220: de6f cb3c 3b5e e0bd 5bbf 40bd 3bbc adbe
00000230: 661a 91be 7fca f6bd 89bd 7f3e 5fd0 e5be
00000240: ecdc be3d 0262 903e 4a91 123e 7d1a be3d
00000250: d0d9 823d e27f 86be b1f1 3cbe 4cfb abbe
00000260: 9109 333f 7d32 2c3d 0f9a 303e 06eb 03be
00000270: 9030 493e 02ce 433e d2c7 5dbd 0275 cf3e
00000280: 4e59 bb3b ac3f a13c 3ec0 24be 7774 903d
00000290: 5f53 34bd 1440 abbe 17f1 17be 6128 f53d
000002a0: 4cf3 bbbd 57d7 18bc 2054 45be dece 06bd
000002b0: 3f20 353e 43f3 02be 56d3 803e 88d5 39bd
000002c0: 728a a6bd 6565 843c 09b9 993e 5618 e13e
000002d0: 12b7 b93d 0840 5b3e a370 163e 67f1 31be
000002e0: 7328 8f3e ca75 b43e 5118 253e 3106 6bbe
000002f0: fb80 373e be5d 8cbc e026 663e 8043 a2bd
00000300: 493e a03e 407a 813e 452b 2f3e eccb 1abd
00000310: 3d2b c63d 1cb2 bdbe 6b24 a23c 39c2 0cbe
00000320: e040 413e 4910 b13d d914 36be 3177 243e
00000330: 0737 d5be d470 db3e f577 9b3d ac28 fc3d
00000340: a334 73be bbaf c1be dde2 abbe 9aa8 05be
00000350: 955a b13d a2a8 4cbb b926 0bbe 67fb 7e3d
00000360: cb0f dcbc 4810 093e 5227 783e 9800 10bf
00000370: 17dd ce3d d9da b1bd 498c bebe ea3c 8cbe
00000380: 7504 973d f9c3 8abd 5351 bebe b17a 393f
00000390: 43fe 123e 6a87 8c3e 4953 90be f4d9 dcbe
000003a0: e8eb 1abf 8895 24be c42d 623d f91a d23e
000003b0: 6e6b 903e dc68 8fbe 35cf bfbd 358d b7be
000003c0: cab4 7abe cbd2 d33e 59fc 02be 377c f63e
000003d0: 8de4 18be ee13 33be 70c5 0d3e 9aa2 3cbe
000003e0: 5ae9 423e 1c42 a13e 7c20 903e 2ef5 8d3d
000003f0: 0f10 443e eb7e ecbe 8260 20be 30eb b13a
-0.24616866 0.049326256 0.26634458 0.13135219 0.06868473 -0.08717295 -0.010470738 -0.2024282
0.14601296 -0.19955954 0.044581726 0.18607637 -0.11147854 0.05745678 0.18401371 -0.11190849
0.24004559 -0.28107685 0.40367457 -0.49061567 0.30982634 -0.14908177 -0.4159262 0.26825267
0.46959272 -0.17188138 -0.07044114 0.10810954 0.24290189 -0.5698575 -0.5481768 0.14252374
-0.5729349 -0.026761176 -0.0777877 -0.4444658 -0.46772853 -0.39060602 -0.062484372 0.18827921
0.0029102673 0.51844096 -0.17995462 0.40479183 0.07594482 0.11688039 0.43022498 0.47103179
0.42662367 -0.23517449 0.34689263 0.20381841 -0.346202 -0.08520641 0.04415086 0.047409005
0.18263699 0.14030291 -0.34901235 -0.075901754 -0.3360382 0.09947278 0.3357088 -0.16384105
-0.08775493 -0.2764705 0.32323435 -0.19201079 -0.461391 0.01820049 0.25866684 -0.048638925
-0.02858428 -0.04020165 -0.00414994 0.47402346 -0.3958657 0.31848505 -0.31925377 -0.3403022
0.5751116 0.043309428 -0.2517309 0.087234005 0.36141217 -0.16491136 -0.23234688 0.01571229
-0.28253096 -0.048945885 -0.36526993 0.018069152 0.2674584 -0.45554054 -0.06604009 -0.042050514
0.12480625 0.04903856 -0.26854795 0.26508698 -0.11466054 0.03925531 -0.20809525 0.08825566
0.18393667 0.09597775 -0.18952203 -0.30241728 0.22902888 -0.06480146 0.2021156 -0.35087273
0.25570112 -0.18343818 0.25940967 0.35834137 0.11573744 0.057172786 0.2322403 -0.25611204
0.22293732 0.28277346 0.1684818 -0.2313754 -0.30884 -0.015778782 0.23364024 -0.035453957
-0.27567744 -0.16965483 0.16727251 -0.050719514 -0.27321598 0.059234995 -0.18087614 -0.14182416
0.024833616 -0.10955473 -0.04705749 -0.3393267 -0.28340453 -0.12050342 0.24974646 -0.44885537
0.09319481 0.28199774 0.14313236 0.09282396 0.06389201 -0.26269442 -0.18451573 -0.33590162
0.6993647 0.042040337 0.17246269 -0.12882623 0.19647431 0.19121554 -0.05414564 0.40518957
0.005717433 0.019683681 -0.1608896 0.07053464 -0.04402482 -0.33447325 -0.14838062 0.11970592
-0.091772646 -0.009328685 -0.19270372 -0.032912128 0.17688082 -0.1278811 0.25161237 -0.045369655
-0.08131875 0.01616163 0.30023983 0.4396388 0.09068121 0.21411145 0.14691405 -0.17377244
0.27960548 0.35246116 0.16122557 -0.2295158 0.17920296 -0.017134544 0.22475767 -0.07923031
0.3129752 0.25288582 0.1710635 -0.03779213 0.09676216 -0.3704995 0.019792756 -0.13745965
0.18872404 0.08645684 -0.1778139 0.16061093 -0.41643545 0.4285952 0.07591239 0.12312445
-0.23750548 -0.37829384 -0.3357152 -0.13052598 0.08659855 -0.0031228443 -0.1358899 0.062251475
-0.026863 0.13385117 0.2423375 -0.56250906 0.10100763 -0.0868432 -0.37216404 -0.27390224
0.07373897 -0.0677566 -0.3717142 0.7245284 0.14354806 0.27447063 -0.28188542 -0.43135035
-0.60516214 -0.16072667 0.055219427 0.41036204 0.28206962 -0.2800969 -0.093656935 -0.3584992
-0.24483028 0.4137176 -0.12791575 0.48141643 -0.14930935 -0.17488071 0.13844848 -0.18421403
0.19034329 0.3149575 0.28149784 0.0693153 0.19146751 -0.4619058 -0.15661815 0.001357412

model.6.bias f4 [64]
00000000: c82a 2dbe 31ce 64be 8911 b6be 6920 9fbc
00000010: c2a2 dbbe 7af1 a03e d013 533d 90e8 343e
00000020: a719 36be 86bc 96be ecbf 58be 55bd 803e
00000030: 4ffe 3b3d 285b 20bd 9c67 7e3d 9598 88be
00000040: d2f3 43bd 6a31 f1bd 9e73 52be aa96 133e
00000050: 2e94 6e3e a340 473e c575 8bbb fe4a 343c
00000060: 8643 d53d 0b3c b4be 7a2c 7fbd 159e 993e
00000070: 07b2 cf3c 7fd3 373e 07af a6bd 872c 40be
00000080: b8ca ec3e e370 31bc acf6 523e 2bc2 07bd
00000090: b198 87be 99df 0b3e 2fbc 6f3e 3df4 b13d
000000a0: 920f d03d 8e34 543e 5c66 0a3e 5a0f 303e
000000b0: fa5c 84be 7fde 903e e361 cf3d d67b 42bc
000000c0: 4d23 c63d d306 7bbe 1bbb 09bd e6f1 d6be
000000d0: 75eb 8a3d b727 303d 4ac6 693e ffac 2ebe
000000e0: 89d1 edbd 51d5 29bd 29f4 42be 60e4 593e
000000f0: 60c2 b7be 7339 183e 43d6 16bd 3f0a 6f3e
-0.16910851 -0.22344281 -0.35560253 -0.019424634 -0.42897612 0.31434232 0.051532567 0.1766684
-0.17783223 -0.29440707 -0.21166962 0.2514445 0.045896824 -0.039149433 0.06211053 -0.2667891
-0.047839947 -0.11777003 -0.20551917 0.14412943 0.23298714 0.1945825 -0.0042559826 0.011004208
0.1041327 -0.3520206 -0.062298276 0.3000342 0.025353445 0.17951773 -0.081388526 -0.18766986
0.46248412 -0.010830137 0.2060191 -0.033144157 -0.26483682 0.13659514 0.2341163 0.08689163
0.1015922 0.20723173 0.1351561 0.17193356 -0.25852185 0.2829475 0.10126092 -0.011870345
0.09674702 -0.24514322 -0.033625703 -0.4198143 0.06783191 0.043006625 0.22829548 -0.1705818
-0.11612231 -0.0414632 -0.19038452 0.21278524 -0.35890484 0.14865665 -0.03682543 0.23343752

model.8.weight f4 [2, 64]
00000000: da85 2a3f 2f9e f4be 2857 d13c 4109 753d
00000010: e9d1 aabe dbb6 363d 8eeb a83e 69ef 8abd
00000020: f113 99be 9ed8 4e3e c7aa ae3e 7202 52be
00000030: fbe5 b13d 9a5b 8d3e 79b2 a03d 2bc6 f13e
00000040: e218 2abf a580 383e 18f8 62bd 6128 833e
00000050: 81fa aebd 6c9a ca3e bfe3 d83d 1b8e a03d
00000060: e50a 693d e3ba 883e 242d 0fbf 3f0d 4dbf
00000070: d831 babe 0191 f0bd 86fc 56be 33df 133e
00000080: 5429 953d 9990 babd acab 093d dd72 28bd
00000090: 9454 483d f734 eabe 86f7 543e 187e 7b3f
000000a0: 6f7f a33e 06d6 e33d f101 0f3d acf3 5bbe
000000b0: 04b8 123e e998 4a3e 4c67 95be a6ee 8d3e
000000c0: be26 c43e 5f3f 303e f00f a63e 9602 86be
000000d0: 180d 593f f7f0 37be 6878 0bbe 9aac 503d
000000e0: 3b79 243f fb1e 63bd e5bb c6be 1369 9f3e
000000f0: 209a 733b 4468 f5be 234d 97be 1f38 e1be
00000100: b641 00be 42c5 ef3e d119 edbc e7d1 3e3e
00000110: de66 fa3e c49c 09bf fd16 a1be 21ad e73e
00000120: 4797 34be e9c3 e83c 7929 8ebe f21b ab3e
00000130: e1dd 7bbe cce9 89be aa97 cebe 3fee b4be
00000140: a4d2 4c3f 1860 9cbe 7fbc 99bc a3f3 13be
00000150: 0328 1bbd e9d6 36bd 0c13 1b3d d4a8 6cbe
00000160: ef92 5abb fb86 cebd 3787 0d3f 2865 e23e
00000170: faba ed3e 20e9 da3d f2eb 55bd ed7d 9c3d
00000180: a540 3d3e c67b 1f3e 636f fa3e 82dc 033e
00000190: a430 74be dfa5 1a3f 5764 6bbe 066c abbf
000001a0: 85b0 2cbc c85c 453c 25c6 12bf 9dde 873e
000001b0: 2831 dbbe 2057 77be db5c 613d 0c3e 8fbe
000001c0: fc9b abbe 558c 3a3d 1774 98be e985 3cbd
000001d0: c16f 06bf 0148 f13d a048 b33d 8928 4bbe
000001e0: 768f 84be 9974 113f b078 b2bc 21ef e4be
000001f0: aeca 963d 8c09 df3e 3580 ea3c 0be5 273d
0.6661049 -0.47776935 0.025554255 0.05982328 -0.33363274 0.04460798 0.32992214 -0.06783945
-0.29898027 0.2019982 0.34114668 -0.20508745 0.086864434 0.2760895 0.07846541 0.47221503
-0.6644422 0.18017824 -0.055412382 0.25616744 -0.085438736 0.3957094 0.10590314 0.078396045
0.056895155 0.26705083 -0.55928254 -0.80098337 -0.36366153 -0.11746407 -0.20994768 0.14440612
0.07283273 -0.09109611 0.033610985 -0.041125167 0.048908785 -0.45743534 0.20797548 0.9823928
0.31933162 0.11124806 0.03491396 -0.21479672 0.14328009 0.19784893 -0.29180372 0.27721137
0.38310808 0.17211674 0.32434034 -0.26173848 0.84785604 -0.17963015 -0.1362015 0.050945856
0.64247483 -0.055449467 -0.38815227 0.31134853 0.0037170723 -0.4793111 -0.29551038 -0.4398813
-0.12525067 0.46830183 -0.028942974 0.18634759 0.48906606 -0.5375483 -0.3146285 0.45249274
-0.17635833 0.02841373 -0.27766016 0.33419758 -0.24596359 -0.26936185 -0.40350085 -0.35338017
0.8000891 -0.30542064 -0.01876664 -0.14448409 -0.037879955 -0.044638548 0.03785996 -0.23111278
-0.003335174 -0.10084339 0.55284446 0.442178 0.46431714 0.10688996 -0.052226968 0.07641206
0.18481691 0.1557456 0.48913106 0.12877086 -0.2384668 0.6040935 -0.22987495 -1.3392341
-0.010540132 0.012046047 -0.57333595 0.26537028 -0.4281094 -0.2415433 0.055020195 -0.27977026
-0.33517444 0.045543987 -0.2977607 -0.046026144 -0.5251427 0.11781312 0.087540865 -0.19839682
-0.25890702 0.5681854 -0.021786064 -0.4471369 0.07362877 0.4356197 0.028625587 0.040989917

model.8.bias f4 [2]
00000000: c9c6 28bf e6d3 283f
-0.6592832 0.6594833
