models/02-10-2023_18-26-29__anova_binary_opt_sched_on_fair2M.model (torch, 737583 bytes, 10 tensors)

model.0.weight f4 [512, 20]
000000 7f 27 34 3e 21 37 8a 3e 8a 11 b4 3d 02 0f 23 3f
       0.17593192 0.26995185 0.08792408 0.63694775
000010 5e f0 17 3e 2f c9 c8 bd b1 be b8 3e 58 3e 75 3e
       0.14837787 -0.09803998 0.36082986 0.23949564
000020 2b a7 35 be 21 d4 cd be 45 92 d1 3e c5 db 1c be
       -0.17739551 -0.40200904 0.40931907 -0.1531821
000030 c4 f1 5f 3e 8d 9b 1f 3e 3c d4 c7 be 79 0f 71 be
       0.2186957 0.15586682 -0.3902911 -0.23541059
000040 bf 29 8a 3e a0 8c 9e be 66 0f 9b bf 9d c0 82 bf
       0.26984975 -0.30966663 -1.2114074 -1.0215031
000050 f8 09 a4 3e e8 d3 48 3f 66 75 a9 bd 17 70 6a 3e
       0.32038856 0.78448343 -0.08274345 0.22894321
000060 a4 02 29 3f 12 13 05 bf 44 96 ea 3d 3f 41 67 3f
       0.66019654 -0.51982224 0.11454442 0.9033393
000070 bc 80 bd bd ea 19 b1 be 51 bd b2 3c 86 44 22 bd
       -0.0925307 -0.34590083 0.021818789 -0.03961613
000080 02 71 2f bc 30 3f 84 bd d5 84 3d 3f 2c 5a 7c 3d
       -0.0107080955 -0.064573646 0.7403081 0.061609432
000090 5b 6e ff 3d 45 cc 76 be db 0c d2 bd 2c b4 20 bf
       0.124722205 -0.2410136 -0.10256358 -0.6277492
0000a0 59 89 29 3f 26 34 70 3e 90 36 52 3f b3 e9 6f bd
       0.662252 0.23457393 0.82114506 -0.058572482
0000b0 51 cd fa 3e ce e6 13 3e 8e 53 0e 3f 5f 1e db 3e
       0.4898477 0.14443514 0.55596244 0.4279661
0000c0 60 b0 03 3f 10 69 a1 3e 4a d8 1b 3c 51 ea 8f 3f
       0.51441 0.3152547 0.009512017 1.1243383
0000d0 dc 72 2c 3e cc 58 0c 3d ed 48 cf 3e 1c 01 25 3f
       0.1684069 0.03426437 0.40485325 0.6445482
0000e0 78 33 14 3f 5b b8 9e 3e 60 d3 08 3f a8 68 a2 3f
       0.57891035 0.31000027 0.5344753 1.2688189
0000f0 bb f9 17 be 12 83 f4 3e 9a 40 4c 3e 84 da 88 3e
       -0.14841358 0.4775625 0.19946519 0.26729214
000100 34 fe 28 3f 2a 88 93 3e 62 21 40 3e 4b 3d b3 3e
       0.66012883 0.28814822 0.18762735 0.350077
000110 57 df e0 3e 4e 1b 0e bf 29 e6 7c 3e 1a a1 d2 3d
       0.43920395 -0.55510414 0.24697174 0.10284634
000120 80 bb cd 3e 41 cf 43 3e f1 0a 7d bd d2 a8 6a 3f
       0.40182114 0.1912203 -0.061778013 0.9166385
000130 de e5 0c 3e 1b 9e d1 be 09 d7 22 3f 22 38 96 be
       0.13759562 -0.40940937 0.6360937 -0.293397
000140 4d 15 11 3e 81 75 e8 3c 9f b4 f8 bd 3c 18 38 3e
       0.14168282 0.028376343 -0.12143826 0.17977995
000150 f7 2e 01 40 86 cf 28 3e a7 69 ba be 24 63 2a 3f
       2.0184915 0.16485414 -0.3640873 0.66557527
000160 70 79 8f 3e 00 b6 7a 3d 94 5f 1d 3e 0b f2 c8 3d
       0.28022337 0.061208725 0.15368491 0.09811791
000170 97 c1 82 3e 7c 6c a4 3d 2e 6c f7 bd e7 e1 be 3d
       0.25538322 0.08028504 -0.120811805 0.09320431
000180 c5 78 b8 be 98 66 57 3d 6f b9 50 3e cb 8e bf 3d
       -0.3602964 0.052588075 0.20383237 0.093534075
000190 e6 6c 66 bf 08 3c 88 3e 59 d5 69 bf 4a 73 4d 3d
       -0.90009916 0.266083 -0.9134117 0.050158776
0001a0 3f 9e fa 3f f3 24 5a 3d 34 3a 89 be 96 32 f1 3e
       1.9579543 0.053257894 -0.26802218 0.47108907
0001b0 1a a6 aa bc 0c ca 1e 3c a4 00 1a 3e f1 9a 8b 3d
       -0.020831157 0.009691726 0.15039307 0.06816662
0001c0 1b 1c c3 3d da 56 4c 3f e1 96 a4 be 2a 7b 54 3e
       0.09526845 0.79820025 -0.3214636 0.20750108
0001d0 39 45 b3 be 02 6e ba 3d 78 aa af 3d eb 69 02 3d
       -0.3501375 0.091030136 0.08577436 0.031839292
0001e0 5e de 6c be 28 ce c2 bd f0 8d 0b 3f e6 c1 51 be
       -0.23131701 -0.095119774 0.54513454 -0.20484123
0001f0 5f 46 d8 3d a2 47 ca bd 44 1a c0 3e a5 95 c4 3e
       0.10560297 -0.09876944 0.3752004 0.3839542
000200 fe f5 24 be e8 fa 6b bf 61 33 77 3b eb a1 d8 3e
       -0.16109464 -0.9217973 0.0037719833 0.42311034
000210 2f b1 17 3f ff aa ec 3e 0d a7 ed be b3 d9 9c 3e
       0.59254736 0.4622421 -0.46416512 0.3063484
000220 19 5b be 3e 16 bd 7e bf e2 00 a3 3e a3 bd 85 3e
       0.37178877 -0.9950727 0.3183661 0.26121244
000230 1c 64 ae be b2 83 80 3e 8e 7b e2 3e 64 f1 4a 3e
       -0.34060752 0.25100476 0.4423489 0.19818646
000240 51 18 0c be 70 e8 82 be a7 ae af bd 61 d1 2e 3f
       -0.13681151 -0.2556796 -0.08578234 0.68288237
000250 01 f2 ef 3e e3 49 8a 3e 37 c1 c4 be ce 45 76 3e
       0.46864322 0.27009496 -0.3842866 0.24050066
000260 2f 31 f5 3d a1 4e 0a be 8f 97 97 3e 41 f5 40 3f
       0.11972272 -0.13506557 0.29607818 0.7537423
000270 52 88 a8 bd 47 4b 33 3e 8d ff c5 3e 55 e8 89 3d
       -0.08229126 0.17509185 0.38671532 0.06733767
000280 1b 75 82 bf 35 77 90 bd 3c cc a3 3e 08 01 a4 3e
       -1.0191988 -0.07053987 0.31991756 0.32032037
000290 3b 3b 4c bd 87 57 77 3f 26 13 c0 bc 73 1f 98 be
       -0.049861174 0.9661793 -0.02344663 -0.29711494
0002a0 60 9a b2 3e 9b a6 2c 3d b5 7b 13 bf 0c 20 b8 3e
       0.34883404 0.042151075 -0.57610637 0.3596195
0002b0 83 bf f1 3b be 50 69 bc e8 2c 02 3d 15 2f 04 3e
       0.0073775663 -0.014240442 0.031781107 0.12908585
0002c0 f9 2e 2a 3d 3e f5 44 bc 77 ad 6c 3d 43 a7 87 3f
       0.041548703 -0.012021361 0.057782616 1.0597919
0002d0 83 57 09 bf c4 43 b6 3e 30 eb 2a 3f 8e d8 74 3e
       -0.5364916 0.35598576 0.6676512 0.23910734
0002e0 c9 3e 99 3e d6 b9 aa 3e 7c 9d bf 3b e2 11 96 3e
       0.29930714 0.33344907 0.005847631 0.29310519
0002f0 7e 42 81 3e ac 23 78 3e 67 39 95 be 35 08 23 3f
       0.25246042 0.24232358 -0.29145357 0.636844
000300 22 a2 e3 3e a1 62 dc 3e 53 ff aa 3e 24 da fd 3e
       0.44459635 0.43043998 0.33397922 0.4958049
000310 20 a1 dc 3d c0 b2 c2 3e f3 fa 1a 3f 47 da 0d 3f
       0.1077292 0.38027 0.6053917 0.5541119
000320 42 f8 8a bf 2e 84 a7 bd 00 7f 1f 3f 16 d1 a6 be
       -1.0857012 -0.08179508 0.6230316 -0.32581395
000330 25 5d bf 3f 41 9e ae 3e b8 15 8a 3e 43 aa 86 3d
       1.49503 0.34105113 0.26969695 0.065754436
000340 22 fd b3 be ad ea 8e 3d 90 a6 96 3e a6 3f bf 3e
       -0.35154063 0.069783546 0.29423952 0.37353247
000350 14 9e c1 bd 93 18 cc 3e e3 31 77 be 08 50 90 bd
       -0.09453979 0.398625 -0.24140124 -0.07046515
000360 cf 3b 22 3e c0 12 32 3d 49 d5 92 be ab 7d 6f 3e
       0.15843128 0.043474913 -0.2867835 0.23387782
000370 b5 9d c2 bd 4b 98 13 3e 69 4b b2 3d c5 6e 40 3c
       -0.095027365 0.14413564 0.087057896 0.0117451595
000380 93 bf 88 bd 47 78 04 be d9 08 ab bc f0 e8 c6 3e
       -0.06677165 -0.12936507 -0.020878242 0.38849592
000390 dd 23 80 3d aa d6 d0 3e b6 74 7c 3e 11 10 d1 3d
       0.062568404 0.40788776 0.24653897 0.102081425
0003a0 3b f4 3c 3f 70 14 19 3f 48 5a c8 be 74 39 3e 3f
       0.73810166 0.5979681 -0.3913138 0.74306417
0003b0 02 0c aa bc 23 13 95 3e cb f1 b3 3f e7 fe e8 3e
       -0.020757679 0.29116163 1.4058164 0.45506975
0003c0 7f fc 82 bf 54 89 71 3e 2e b7 5e 3f e0 d3 0c bd
       -1.0233306 0.23587543 0.8699826 -0.034381747
0003d0 56 dc b7 3c 8a 88 42 3e 0c e8 08 bc 0a d1 15 bd
       0.022443932 0.18997398 -0.008356106 -0.03657631
0003e0 5f 1f 03 bf 5d 7f 9d be ca 37 9a 3d f6 00 cb 3e
       -0.51219743 -0.30761233 0.07530172 0.3964917
0003f0 84 1f 98 3d 50 8b 45 3e 71 92 d5 be 83 48 e6 3e
       0.07427886 0.19291425 -0.41713288 0.44977197

model.0.bias f4 [512]
000000 fd 7b 1e 3e 1f d4 84 bd db e9 3c bf fd cb 60 bf
       0.15476985 -0.064857714 -0.73794335 -0.8781126
000010 cc 74 3b be b2 89 0c be a5 19 e2 be 3f fe 29 bf
       -0.18306273 -0.13724402 -0.4416019 -0.66403574
000020 9c 8f 86 be 85 f0 3a bf 51 76 a9 3d 73 bb c3 be
       -0.2628144 -0.73023254 0.0827452 -0.3822895
000030 15 89 f5 be 00 a6 41 be 1e 3c ec bd d7 23 59 bf
       -0.47956148 -0.1891098 -0.11534904 -0.8482031
000040 2d 52 1c be 97 15 38 bf fa e2 f6 be dd e9 20 bf
       -0.15265723 -0.71907943 -0.48220044 -0.6285685
000050 06 16 1f bf 3b da 75 bd 3a fa af 3d 51 49 90 be
       -0.6214298 -0.060022574 0.08592649 -0.28180936
000060 a4 34 a6 3e b8 d4 1d bf da ef a1 be 6b f0 db be
       0.32462037 -0.6165271 -0.31628305 -0.42956862
000070 64 3b 2e bf 3b 9a 43 bf 2b d8 bd be 8c ff 38 bf
       -0.6805937 -0.7640721 -0.37078986 -0.72264934
000080 d0 d0 64 bd 6a 73 10 bf 6a 60 23 be 81 a7 03 bf
       -0.0558632 -0.5642611 -0.15954748 -0.51427466
000090 5f bb 1b bf 72 1d 29 bf 89 42 1f bf 29 42 f4 3c
       -0.6083278 -0.66060555 -0.622109 0.029816704
0000a0 b0 df 78 bf a5 65 84 bf 22 6b 2c bf 70 89 37 bf
       -0.9721632 -1.034352 -0.6735097 -0.7169409
0000b0 31 cd 46 3a 7a 2e b3 bd 91 fa a1 be c1 69 2f bf
       0.00075836765 -0.08749099 -0.3163648 -0.6852074
0000c0 1f d2 3d bf e8 82 26 bf 09 b3 b2 be d2 23 3c bf
       -0.74148744 -0.650435 -0.34902218 -0.7349216
0000d0 71 c1 10 be c9 02 a2 be 00 91 93 be 40 27 19 bf
       -0.14136292 -0.3164275 -0.28821564 -0.59825516
0000e0 c6 d3 a9 be f6 3c 3d bf 4e b7 92 be 8d b5 11 bf
       -0.33169383 -0.73921144 -0.28655475 -0.5691765
0000f0 36 ca 89 be 1e c2 e0 bd 01 ea fb bd 53 bc 89 be
       -0.26912087 -0.10974525 -0.12300492 -0.26901492
000100 65 d5 b3 be 18 bc 4b bf cf 4f 45 be 1d 69 2e bf
       -0.35123745 -0.79583883 -0.19268726 -0.6812914
000110 2e d8 e8 be 45 6f 45 be 97 f8 b0 be 18 7d 84 bd
       -0.45477432 -0.19280727 -0.3456466 -0.06469172
000120 33 e6 07 bf 9f 9b a3 be 6b b1 4e bf 01 ae ae be
       -0.5308563 -0.31954667 -0.8073947 -0.3411713
000130 94 35 e4 be 38 0a 98 be 95 e3 ac bc 10 55 c8 be
       -0.44572127 -0.29695296 -0.021104613 -0.39127398
000140 7d cb 34 bf 84 22 0f bf dc 56 a7 be e7 17 e7 be
       -0.70623 -0.5591204 -0.32683456 -0.45135424
000150 f4 f2 73 bf 5f a4 fe bd 58 c1 cb be e3 f8 39 bf
       -0.9529259 -0.12433695 -0.39795947 -0.72645396
000160 d0 45 58 bd 8d 2e 94 be e7 50 00 bf 52 e3 cf be
       -0.052800953 -0.28941765 -0.5012345 -0.4060312
000170 50 3c 20 bf 66 53 fc be db 25 69 be 6d 0a 6e be
       -0.6259203 -0.49282378 -0.22768347 -0.23246165
000180 77 af b6 be 2b 4a 1f be 2b d3 6f be 87 09 e4 be
       -0.35680744 -0.15555637 -0.23420398 -0.4453852
000190 39 e0 54 be 7e 49 18 bf b0 49 71 bf 4b 6d 6c be
       -0.20788659 -0.5948714 -0.94253063 -0.23088567
0001a0 8b 46 5f bd 3a 33 49 bf 45 ba 43 be 5e 16 35 bf
       -0.054510634 -0.7859379 -0.19114025 -0.70737255
0001b0 2c f3 c8 be 37 7a f6 be 1d 9c 76 3d 67 76 d0 3d
       -0.39248025 -0.48140118 0.060207475 0.101788335
0001c0 56 2c 72 3e c9 74 31 bf d3 a7 d7 be 7a aa 27 bf
       0.23649725 -0.69318825 -0.42120227 -0.654945
0001d0 0f b6 f6 be a6 4d 3d bf 16 1c 97 3c 9a 3f 02 bf
       -0.48185775 -0.7394661 0.01844601 -0.508783
0001e0 32 03 dd be 5e 78 1e bf ac 84 79 bf 8a 60 44 bf
       -0.431665 -0.61902416 -0.97468066 -0.76709807
0001f0 31 57 c8 be fd 21 63 bf df 2f 74 bf d5 21 86 be
       -0.39129022 -0.88723737 -0.95385545 -0.26197687
000200 8f 9d e2 be bc eb 33 be fd 0c 78 be be 92 3d bf
       -0.44260833 -0.17570394 -0.24223705 -0.74052036
000210 22 a6 db be ad 28 fc bd d3 ca 5e bd 33 f0 76 be
       -0.42900187 -0.12312446 -0.054392647 -0.24115066
000220 5a b6 02 bf f9 bb ae be d9 95 e7 be 4b ae 27 bf
       -0.51059496 -0.34127787 -0.45231512 -0.65500325
000230 91 6a d1 be b6 71 2c bf bb 69 b3 be 13 f3 1b bc
       -0.40901616 -0.6736101 -0.35041603 -0.009518403
000240 2f 06 34 be 90 37 bc be ec bc 7e be 63 ee c6 be
       -0.17580484 -0.3676114 -0.24876755 -0.3885375
000250 bd ea 7b be a3 2c 9e be 96 be 6b be 79 d7 47 bf
       -0.24601264 -0.3089343 -0.23021922 -0.7806316
000260 4d 27 8c be 1f c4 41 bf 32 01 3c bf 24 94 38 bf
       -0.27373734 -0.7568988 -0.73439324 -0.72101045
000270 65 39 2d bf f5 f3 98 be c1 6a 42 be 32 18 b4 bd
       -0.676657 -0.29873624 -0.18986036 -0.087936774
000280 98 ea 7b bf 9d 11 b3 be 7b ca 16 bf 0b 2b 62 bf
       -0.98404837 -0.34974375 -0.5890271 -0.8834693
000290 50 c7 54 be ef cf 17 bf 0f 85 ac 3e 4d 0f 2e bf
       -0.20779157 -0.59301656 0.33695266 -0.679921
0002a0 e5 bd 4d be 9c a4 ff be 4b 69 93 be f3 63 76 be
       -0.2009197 -0.49930274 -0.2879127 -0.24061565
0002b0 f9 1a d5 be e6 1e 31 be c6 e6 a3 be 18 f8 54 bf
       -0.4162214 -0.17296943 -0.32012004 -0.8319106
0002c0 bd 35 d1 bd 8b e7 04 bf 33 1d 90 be 62 6e f4 bc
       -0.10215328 -0.51915807 -0.28147277 -0.02983779
0002d0 ac 82 5e bf 92 c8 44 be 43 0a 3d be 19 e2 37 bf
       -0.8691814 -0.19217137 -0.18460946 -0.7182937
0002e0 4d 58 e8 be 2a c1 10 be df 97 8a bf 8f 4a 22 bf
       -0.45379868 -0.14136186 -1.0827597 -0.6339502
0002f0 e3 6d fb be be d5 d5 be b1 4d 00 bf dd e4 53 bf
       -0.49107274 -0.41764635 -0.5011855 -0.8277109
000300 8a 88 c6 be 75 35 ef be e5 bd 2a 3c e7 ab 1b bf
       -0.38776046 -0.46720472 0.010421251 -0.6080918
000310 f5 f0 fc be 05 82 7e be 50 97 e7 be a8 52 5b be
       -0.49402586 -0.24854286 -0.4523263 -0.2141825
000320 16 bc d5 bd 9a ff 3c bf cc 5b b6 be 09 f5 97 be
       -0.10436265 -0.7382752 -0.3561691 -0.29679134
000330 4c 3e 52 be 4a 84 0c bf cf 72 05 bf 7a 5b 06 bf
       -0.20531577 -0.5488936 -0.5212831 -0.5248333
000340 ce f7 7b be af 16 1e bf 90 83 81 be 2e 1f c9 be
       -0.24606249 -0.6175336 -0.25295687 -0.392816
000350 80 e4 15 be e7 f5 96 be 9c af b0 be c3 c4 8d be
       -0.14637947 -0.29484484 -0.3450898 -0.2768918
000360 59 33 a8 be 49 79 39 bd 2c 8a 32 be 9a 11 44 bf
       -0.32851675 -0.045281682 -0.17435521 -0.7658936
000370 6d cf 18 bf 1d f5 f4 be 4a 00 9f be fa fa c7 bd
       -0.59691507 -0.47843257 -0.31054908 -0.09764667
000380 01 18 71 bf 19 e2 f6 be 34 7c bb be 7e d3 c6 be
       -0.9417725 -0.48219374 -0.36618197 -0.3883323
000390 56 61 81 bc aa b6 7a be a2 73 3e bf 1f 8d ea bd
       -0.015793484 -0.24483743 -0.7439519 -0.11452698
0003a0 22 76 d0 be 8a b8 29 be 2d d4 e6 bc d9 91 0e bf
       -0.40715128 -0.16574302 -0.028177345 -0.55691296
0003b0 fa 16 41 be 50 82 23 bf 2f 5b cf be 81 a3 a8 be
       -0.18856421 -0.63870716 -0.40499255 -0.32937244
0003c0 6a 41 15 bf 2a 69 14 bf 97 30 99 be 1f 3a 37 bf
       -0.5830294 -0.5797297 -0.29919884 -0.7157306
0003d0 44 52 33 be 50 8b e1 be bc 24 10 be 65 a8 8b be
       -0.1751185 -0.440516 -0.14076513 -0.27276912
0003e0 37 e7 b4 be 60 c5 7c 3d 45 25 f7 be 33 6c 3d bf
       -0.35332653 0.06171167 -0.48270622 -0.73993224
0003f0 44 00 0e bf 04 a6 ef be 14 8c 34 bf e6 a3 67 be
       -0.55469155 -0.46806347 -0.7052624 -0.22621116

model.2.weight f4 [256, 512]
000000 2d 26 fb be a3 47 b6 be 14 28 a6 3e 9a f6 64 be
       -0.49052563 -0.3560153 0.32452452 -0.22359696
000010 b7 4b bc be 65 29 1a 3f 92 27 b9 3e 8f ac 3b 3e
       -0.36776516 0.60219413 0.36163002 0.18327545
000020 7d 59 88 3e d5 a2 64 3e 93 28 00 3f 09 9a 07 bd
       0.26630774 0.2232774 0.5006191 -0.033105884
000030 00 70 96 3e aa 93 fb be 85 0d b6 3e 8d 31 9e be
       0.29382324 -0.49136096 0.3555719 -0.3089718
000040 58 35 d9 be a9 eb 2a 3f 70 9f f4 be 3e 82 c4 3c
       -0.4242351 0.6676584 -0.4777789 0.023987886
000050 9a f2 a5 3d bd aa 38 3f c6 dd f3 3e e5 16 18 3d
       0.08102913 0.72135526 0.47630137 0.03713121
000060 da 01 44 bf 08 a3 ed 3e 1c 6d ea be 9f 0f 3f 3e
       -0.76565325 0.46413445 -0.4578637 0.18658303
000070 88 18 91 3f 3a 02 3b 3c 61 4f 65 be e0 30 df 3d
       1.1335611 0.011414105 -0.22393562 0.10897994
000080 3d 75 08 3f cc 40 89 3e 10 2a 61 be 24 9a 0f bd
       0.5330389 0.2680725 -0.21988702 -0.03505911
000090 e3 e6 b8 be 45 28 b7 be 98 dd 3a be 51 3d 05 3f
       -0.36113653 -0.3577291 -0.18248594 0.52046686
0000a0 3a d5 c2 bd 43 60 ef be 38 4b b9 3d e7 21 97 bc
       -0.09513326 -0.4675313 0.0904755 -0.018448783
0000b0 0e 41 90 be 36 58 a9 3e 74 23 8a bd 3b 12 9e be
       -0.28174633 0.33075112 -0.067450434 -0.30873284
0000c0 f1 bf f1 bd 38 ba ac be 0a 26 37 bf 91 35 58 bd
       -0.11804188 -0.33735824 -0.7154242 -0.05278546
0000d0 f3 eb 37 3f f8 fe 96 3e 57 a6 77 bf a9 13 03 3e
       0.71844405 0.294914 -0.9673819 0.12800469
0000e0 73 47 68 3e 3c 90 f3 bd 94 ef 8e 3e 0d 0e 80 be
       0.22683506 -0.11892745 0.2791716 -0.2501072
0000f0 7a d1 0e 3f 03 0b 1f 3f 17 0e 2a 3f bc e4 32 3e
       0.55788386 0.6212618 0.6642775 0.17470068
000100 48 99 48 3e f2 3b a3 3c 3b f6 9c be 96 e3 57 3e
       0.19589722 0.019926045 -0.3065661 0.21082911
000110 70 13 c5 3e 88 67 7e 3e 11 8d a7 bc 00 c6 1e 3f
       0.38491392 0.24844182 -0.020453008 0.62020874
000120 3f a0 11 bd c5 6c d8 3e 5e 19 33 bf b7 e6 3b 3e
       -0.035553213 0.42270485 -0.6996058 0.1834973
000130 e5 06 cc bd 08 b9 12 3e cd de 12 3e 8e 14 80 3e
       -0.099622525 0.14328396 0.14342804 0.25015682
000140 be 03 9c bc 5e ad 49 bd 21 88 28 3e 08 3d 54 bf
       -0.019044753 -0.0492376 0.16458179 -0.82905626
000150 22 6b b4 3d fa 04 93 bd 2a 98 18 bd 5a 92 e7 3e
       0.088094965 -0.071786836 -0.03725449 0.45228845
000160 28 ed 1d 3e d7 97 c9 3e fc 15 20 3f e7 0d f9 3e
       0.15422499 0.39373657 0.62533545 0.4864342
000170 75 79 01 3e bd 9f 8d 3e db 58 0b 3e 80 cf 07 3f
       0.12643988 0.27660933 0.13608114 0.53050995
000180 64 1d 94 be e6 5a 9e 3e 37 43 00 bf f2 d2 c5 bb
       -0.28928673 0.30928725 -0.5010256 -0.0060371095
000190 fa e0 08 bb dd ca dc 3d 79 7a a5 be 4b d6 b4 be
       -0.002088605 0.107808806 -0.32320002 -0.35319743
0001a0 51 b7 ca 3f 90 78 42 bd 0f 40 66 be bb 14 d1 be
       1.5837194 -0.04747826 -0.22485374 -0.4083613
0001b0 3d 1f f9 be 19 39 0c 3f c9 ba 1a bf d2 e7 fb 3d
       -0.48656645 0.54774624 -0.6044126 0.123000756
0001c0 b5 11 84 be 9b 3c 83 be 28 2f ef 3e f2 71 c3 3d
       -0.2579476 -0.25632176 0.46715665 0.09543218
0001d0 ff 3e 49 3d f3 f2 bd be 6f d0 01 3f 20 b7 84 3d
       0.049132343 -0.37099418 0.5070867 0.06480241
0001e0 f9 bd c2 3e 4e f8 a9 be 1e 5c 89 3e 6e 02 c3 be
       0.38035563 -0.33197254 0.26828092 -0.3808779
0001f0 35 db 15 3e 78 fb dc be 27 9d d8 be 9e 24 f8 3e
       0.14634402 -0.43160605 -0.42307398 0.48465437
000200 8b 42 20 bf 4a a5 32 be 77 e6 b1 be 64 c9 9f 3d
       -0.62601537 -0.17445865 -0.34746143 0.07802084
000210 e6 ae c8 3d 7a 60 4e 3e 2c 7d bd be 33 6f 31 3f
       0.09798984 0.2015399 -0.3700956 0.693103
000220 15 e7 fd be fe 61 9e bc 39 b8 0c 3f db c4 20 be
       -0.49590364 -0.019333836 0.549686 -0.15700094
000230 61 49 88 bc 29 4e 81 bd d9 8a 12 bf 37 37 a9 3b
       -0.016636552 -0.06313736 -0.57243115 0.005164053
000240 c4 52 0a 3f c0 77 98 3e 26 85 b5 3d 51 c4 8e bf
       0.5403254 0.29778862 0.08863287 -1.1153661
000250 9f 04 d9 bc b1 fb 5b 3e 7a 2e ff bd 49 83 f5 3d
       -0.026491461 0.21482731 -0.124600366 0.11987931
000260 40 ce 06 3d 5a f7 a1 be 85 cf 36 3e 59 1b 11 3f
       0.03291154 -0.31634027 0.178526 0.56682354
000270 b7 aa 87 3e 0c cb c0 3d e1 63 00 3d 6c 6c 14 3f
       0.26497433 0.09413728 0.031345252 0.5797794
000280 81 40 40 be ce 5f 46 3e 34 e7 38 3f c8 75 fa be
       -0.18774606 0.19372484 0.7222779 -0.48917985
000290 b5 ff 7e be 25 09 21 3f 55 37 55 be 15 65 35 be
       -0.24902232 0.6290458 -0.20821889 -0.17714341
0002a0 58 da 29 bf a2 6d 32 be 97 d5 71 be 2c fa 8b 3b
       -0.6634879 -0.17424634 -0.23616634 0.004271766
0002b0 dd 1a 31 3f 40 9d 74 bf 66 3e a6 3e ea 37 26 bf
       0.69181615 -0.95552444 0.3246948 -0.6492907
0002c0 0f 10 36 bd 82 76 15 3e a7 1d ea 3e 75 5c 82 3e
       -0.04444891 0.14595988 0.45725748 0.25461164
0002d0 56 f6 9c 3e 0c 89 e6 bd 4c 77 9e 3e 44 30 ee 3e
       0.3065669 -0.11256608 0.3095039 0.465212
0002e0 30 ae b4 3e 76 2d eb 3d 34 47 a1 be d8 3f 96 be
       0.35289145 0.1148328 -0.31499636 -0.29345584
0002f0 54 bc 78 be 3a ba 8a 3e b0 bf 07 bd 08 da 7a 3f
       -0.24290591 0.27095205 -0.03314179 0.9798894
000300 41 d7 9e 3e 4e 9a a8 be f2 03 62 bd f6 8b 9d 3e
       0.310236 -0.32930225 -0.055179544 0.30770844
000310 f5 9f b0 3e f4 c1 e2 be e3 c1 1c 3e 3e 4a f0 3e
       0.34497038 -0.442886 0.15308337 0.46931642
000320 8c 72 45 be c8 c8 8c be e3 d1 0a 3d 06 00 b2 be
       -0.19281977 -0.27496934 0.03389157 -0.34765643
000330 3f 46 b1 bd d2 bc a7 3d 55 fd a3 3e 0a 70 a2 3e
       -0.086559765 0.081903115 0.32029215 0.31726104
000340 0f 97 77 3e 20 74 98 3e 82 23 a9 3d 2e 9f a7 3e
       0.24178718 0.29776096 0.08258726 0.32738632
000350 52 ce b6 3d 33 b0 01 be f8 be a7 bc 0d 7c 25 3e
       0.08926071 -0.12664871 -0.020476803 0.16160603
000360 e5 be e0 3e 16 7a 81 3b 85 2a 91 3e e2 34 a1 be
       0.4389564 0.0039513214 0.28352752 -0.3148566
000370 31 12 b0 3e ca f1 1f 3e c4 dd 16 bc da 86 39 3f
       0.3438888 0.15619579 -0.0092081465 0.7247139
000380 06 5a 13 bf 8c 84 e2 3e 4b 87 ed 3d 48 42 43 bf
       -0.5755924 0.4424175 0.11598071 -0.7627301
000390 ca 5c dd 3e 5f 37 cf be a8 1c 84 3e 03 5b 05 3f
       0.43234855 -0.40471932 0.25803113 0.52092
0003a0 24 07 0e bf 4c 04 bc be 9b 61 80 3f d6 31 d0 be
       -0.55479646 -0.36722028 1.0029787 -0.40663022
0003b0 77 b3 b3 3d 14 f7 98 bd b6 d9 11 bf 45 b4 9b 3d
       0.087744646 -0.074690014 -0.56972826 0.07602743
0003c0 a0 a5 61 bf 79 d4 4c bd fb 47 41 3f e2 97 0d be
       -0.8814335 -0.050007317 0.7550046 -0.1382747
0003d0 85 a0 05 bd 2f 51 02 3d 36 a2 06 3e 65 4b 8a bd
       -0.032623786 0.031815704 0.13147816 -0.067526616
0003e0 77 87 83 bc 5a 52 1f bf 75 d4 d1 be 9e 8e a9 3e
       -0.016055806 -0.62235034 -0.40982404 0.3311662
0003f0 4e 0d 74 3e 1f 8e 17 3d 0c 2e 06 be b9 49 cb bd
       0.238332 0.03700077 -0.13103503 -0.09926171

model.2.bias f4 [256]
000000 31 89 3f be e3 fe d0 be 18 fa 04 be 77 7a 83 bc
       -0.18704678 -0.40819463 -0.12986028 -0.016049607
000010 ad 11 a4 be 71 1c b3 bd 52 89 4d bf 41 a8 44 be
       -0.32044736 -0.08745659 -0.8028766 -0.19204809
000020 47 01 0d bf 38 20 b8 3e 63 4e 09 bf d0 36 1a be
       -0.55080074 0.3596208 -0.53635234 -0.15059972
000030 22 c1 0c be d3 a2 91 be 78 3c 01 bf ef aa 17 be
       -0.1374555 -0.28444538 -0.50482893 -0.148113
000040 cc 7a 81 3f 2b ed ae bd 9e 57 26 bd c5 84 0f 3f
       1.01156 -0.0854133 -0.040610902 0.56061965
000050 fd 37 ed be 6a 0c c5 be ea d5 28 be 3f 6b 40 bf
       -0.46331778 -0.38486034 -0.16487852 -0.75163645
000060 a4 80 4e bd 3b d5 8a bd 05 15 e3 bd 63 72 00 bf
       -0.05041565 -0.06778952 -0.110879935 -0.5017454
000070 a6 c3 bb be 23 23 aa be 4a 8f f2 be 27 18 94 be
       -0.36672705 -0.33229932 -0.47374946 -0.28924677
000080 1d 61 07 bf f9 60 2e 3f 4c f1 0e be c1 64 0d bd
       -0.5288256 0.6811672 -0.13959235 -0.034519915
000090 8b 62 7f 3e 63 56 24 3e 8d e6 02 be 71 87 8d 3d
       0.24939935 0.16048579 -0.1278326 0.06910599
0000a0 7c 13 3f bf ff 06 97 be 74 bf 97 3e 78 4a ff be
       -0.74639106 -0.29497525 0.29638255 -0.49861503
0000b0 74 b1 05 bf c2 bf f2 be 50 d9 4e be 4a 90 32 bf
       -0.52223897 -0.47411925 -0.20200086 -0.6975142
0000c0 6c 49 5b 3f ac 7c ac bd d6 e4 9d bd 44 6d f5 be
       0.8565891 -0.08422217 -0.077096626 -0.47934926
0000d0 88 61 2a bf 6d c9 c4 bd dc fe a8 3e d0 bf 37 3f
       -0.6655507 -0.096087314 0.33006942 0.7177706
0000e0 4d d4 9f 3e 2a 50 18 be 1f 4b a8 bd 59 ff b5 be
       0.3121666 -0.1487433 -0.08217453 -0.35546377
0000f0 35 f3 9c be ec 92 4c bf fc 05 f2 bd 7d 3d 43 bf
       -0.30654302 -0.79911685 -0.11817548 -0.762657
000100 da be 24 be 4a 3b 05 be cb 40 09 be aa cb 23 bf
       -0.16088429 -0.13010898 -0.13403623 -0.6398264
000110 58 ce 22 3f 02 3b 10 be c3 d1 5b bf b2 dc 17 3d
       0.63596106 -0.1408501 -0.85866946 0.037075706
000120 7f 5c fa be 32 24 3a bf e0 49 e1 be f1 6c c1 bd
       -0.48898694 -0.7271148 -0.44001675 -0.09444607
000130 f4 ed 52 3f 4b 8c c4 be a9 e8 1e 3c 60 f1 11 bf
       0.8239434 -0.38388285 0.009699025 -0.57008934
000140 2e eb 74 be 6a a9 27 3d 7d ef 30 3e 56 5d a2 be
       -0.23917839 0.04093305 0.17278858 -0.31711835
000150 16 cd b7 3e f2 11 b5 bd e8 1d 58 be 15 e8 8c be
       0.35898656 -0.088413134 -0.21105158 -0.27520815
000160 f5 3e b2 be 8f 63 07 bf 28 8b a8 be 59 8e 1b 3d
       -0.34813657 -0.5288629 -0.32918668 0.03797755
000170 bf ad 5c be 12 44 bf be 8e 53 4d bf 73 e7 55 bf
       -0.21550654 -0.3735662 -0.8020562 -0.8355629
000180 8f 43 23 bf ba 64 dc bc 52 fe 96 bd 51 04 89 bc
       -0.6377496 -0.026903499 -0.073727265 -0.016725691
000190 a9 bc 54 be 2a 40 25 be 46 b0 d1 be d9 80 98 3c
       -0.20775093 -0.16137758 -0.40954798 0.018616127
0001a0 ef a8 7f be 07 7b ac bd f9 1f 5e be b2 69 9b be
       -0.24966787 -0.08421903 -0.21691884 -0.30354077
0001b0 fc 87 cc be e2 cf b0 be 59 8c 2d bf 03 fc bc be
       -0.39947498 -0.34533602 -0.6779228 -0.3691102
0001c0 f6 f0 a7 3e 1a 5d 45 bf cb 3e 26 be 7a 1c 63 be
       0.32801026 -0.77095187 -0.16234891 -0.22178832
0001d0 ba 3b d1 bd 7b 21 97 be 7e a7 41 bd 98 c4 14 3f
       -0.1021647 -0.2951773 -0.047278874 0.5811248
0001e0 f3 90 b5 bd f6 80 06 3e 40 4e 11 bf 90 79 83 be
       -0.088655375 0.13135132 -0.56760025 -0.25678682
0001f0 19 b3 0c be 3f 44 79 bd 1e fd f0 3e 16 da 3a be
       -0.13740195 -0.0608561 0.47068113 -0.18247256
000200 eb cf 4b bf f1 81 82 bd 5d 79 ac be 7d ed 3c be
       -0.7961413 -0.063724406 -0.33686343 -0.1844997
000210 36 0b 38 bf 6e 1c 9a bd ba 77 c5 be f5 60 c2 3d
       -0.71892107 -0.07524954 -0.38567907 0.09491149
000220 39 bc ce be 7b 82 7b be 7c 56 41 bf 75 11 1e bf
       -0.40377977 -0.24561493 -0.7552259 -0.6174539
000230 4b 6e 3e bd ea 55 a8 bd 40 a9 e9 be 8b 05 1d bf
       -0.046491902 -0.08219512 -0.4563694 -0.6133658
000240 65 65 5c be 0d b8 05 be eb f4 4e be 4f af 2f bf
       -0.21523054 -0.13058491 -0.20210616 -0.68626875
000250 34 08 b4 be 67 85 51 bd 42 0f 24 bf 7a 67 47 bf
       -0.35162508 -0.051152613 -0.6408578 -0.7789227
000260 b2 ec 21 bf af af f0 be eb 74 c0 bd e6 e3 d5 be
       -0.63251793 -0.47009036 -0.093973 -0.41775435
000270 84 2c 13 be 30 92 45 bd ca 24 07 bf ce f6 f1 bd
       -0.1437245 -0.04823512 -0.5279051 -0.118146524
000280 42 0f cb be b5 ad 0e be 43 05 d6 be 14 5d d1 bd
       -0.39660078 -0.13933451 -0.4180089 -0.10222831
000290 2f 8d 32 3d 81 2d 18 bf 8a cd 85 bd e4 a1 a7 bd
       0.043591674 -0.59444433 -0.06533344 -0.08185175
0002a0 12 0b a1 bd ec 44 01 be 1b a4 ff be c9 02 85 bf
       -0.078634396 -0.12623948 -0.4992989 -1.0391475
0002b0 cf 2f 9f 3d 2d 1d 43 be 0d 36 2f 3e 99 01 af be
       0.07772791 -0.19054098 0.17110462 -0.34180906
0002c0 96 8d 11 bf c2 b2 be be 5d 44 d2 be d8 a0 42 be
       -0.5685667 -0.37245756 -0.41067782 -0.1900667
0002d0 8a f5 c4 be c1 da 44 bf 31 0b d8 be c0 6f 4b be
       -0.3846858 -0.7689629 -0.42196038 -0.19866848
0002e0 fc 93 6f bd e3 09 a5 be ad 5a 68 be 6b be 11 3e
       -0.05849074 -0.32234105 -0.2269084 0.14232795
0002f0 0e 47 17 be 32 c0 03 bf a9 90 6a be bc 41 73 bd
       -0.14773199 -0.5146514 -0.22906746 -0.05938886
000300 3c 8d b1 be 63 84 d3 3c 90 47 b0 be 55 6a d2 be
       -0.34678066 0.025819963 -0.34429598 -0.4109675
000310 2e 7d 43 3e bf e7 b0 be 2d ce 29 bf 58 f1 f5 3e
       0.19090721 -0.34551808 -0.66330224 0.48035693
000320 ea 24 06 3f c8 7b e4 bd 49 f1 02 bf 01 51 87 be
       0.52400076 -0.11156422 -0.5114942 -0.2642899
000330 37 e8 19 bd 0d 62 69 bd 36 df a3 be 5f 93 4a bc
       -0.037574973 -0.056978274 -0.32006234 -0.012364238
000340 06 ca 49 bf e4 30 27 be 18 c9 d9 be b6 91 8d 3d
       -0.7882389 -0.16327244 -0.42536235 0.06912558
000350 08 32 0a bf 94 d6 43 3d 5a aa 88 bf 72 90 ed bd
       -0.5398259 0.04781206 -1.0676987 -0.115998164
000360 9b bc 7c be 71 2d 45 be b3 45 0d bf b6 4e 16 bf
       -0.24681322 -0.19255616 -0.5518448 -0.58713853
000370 1d ac 7e bd f5 f2 98 bc 0e c2 b7 bc 29 9d ed bd
       -0.06217586 -0.018670538 -0.0224314 -0.116022415
000380 e8 d9 39 be 2c 46 f0 be b4 6a 04 bf b6 3a 4f bd
       -0.18149531 -0.46928537 -0.51725316 -0.0505931
000390 14 0e 24 be a4 78 6a 3d e9 9b 27 be b8 14 46 3e
       -0.16020995 0.057243958 -0.16368069 0.19343841
0003a0 70 61 49 be d9 ec d6 be dc d6 6e bd 7e 3a 12 bf
       -0.19666076 -0.41977575 -0.058310375 -0.571205
0003b0 62 94 19 bf 0b 18 c0 be 5f 80 c5 be 0a 6b 29 bd
       -0.5999204 -0.37518343 -0.38574502 -0.041361846
0003c0 31 14 d3 bd 96 9f 2f bf 36 75 0b bf 67 d6 1c bf
       -0.103065856 -0.68602884 -0.54475725 -0.6126465
0003d0 5a 07 a5 be 45 7b 81 be 52 5b 4d bf 4c 74 55 bf
       -0.3223217 -0.2528936 -0.8021747 -0.8338058
0003e0 12 b0 20 bd b8 7b f7 be 2a 21 0d 3f 10 da 3b bf
       -0.039230414 -0.48336577 0.5512873 -0.7337961
0003f0 93 ce 39 bf d2 e8 4c be 4d 05 a3 be 3e 37 d3 be
       -0.7258083 -0.20010689 -0.31839982 -0.41253084

model.4.weight f4 [128, 256]
000000 09 3d 85 be 65 a4 f4 bd b6 e0 b1 bd dc ba 64 bf
       -0.2602313 -0.11945418 -0.08685438 -0.89347625
000010 7f 57 c8 be 85 f6 f1 bc 51 0d 11 bf f2 1f b6 bd
       -0.39129254 -0.029536495 -0.56660944 -0.08892812
000020 67 0e a1 be f5 75 a8 be 17 6f 52 3e ed 6f 55 bf
       -0.314563 -0.32902494 0.2055019 -0.8337391
000030 9c 0d 22 bd f9 b2 60 bf be 25 3f be 3b 0d f3 bd
       -0.03956376 -0.8777309 -0.18666741 -0.11867758
000040 15 43 4e be ad 21 2d 3d 37 bb 86 bf 94 82 2c 3e
       -0.20142777 0.042268444 -1.0525883 0.16846687
000050 44 5d b0 be d9 e1 25 3e 12 9c ae be f6 5e 03 bf
       -0.34446156 0.16199435 -0.34103447 -0.51316774
000060 1a d8 c3 bd be 5a b4 be bb 7b 55 bd 80 fa de bd
       -0.095627025 -0.3522548 -0.05211995 -0.10887623
000070 c4 76 c3 be 0f 41 6a 3e bc 12 94 bf 97 d3 08 bf
       -0.38176548 0.2287638 -1.1568217 -0.5344786
000080 d0 af 88 3d a5 14 9d be a8 4c 6f 3e 14 52 e0 bc
       0.066741586 -0.30679813 0.23369086 -0.027382888
000090 6a c7 08 3f 7c ab 81 3e 8f d2 3a 3e 04 4e d6 3d
       0.5342928 0.25326145 0.18244384 0.10464099
0000a0 84 f5 0a 3e f8 af 1e bf dc 02 59 3e 78 44 3e 3f
       0.1357022 -0.61987257 0.21192497 0.74323225
0000b0 35 6d b7 3d 53 e9 07 3e bd 9b 4c 3f b9 d0 b3 3c
       0.089563765 0.132726 0.7992514 0.021950113
0000c0 13 f3 5d 3e 96 4b 49 3e 64 d0 a1 3d 9c f9 9b be
       0.21674757 0.1965774 0.079010755 -0.30463874
0000d0 2e 7a 6c 3f 5d 5d 71 3d 52 65 aa 3e a9 ae 8b 3e
       0.9237393 0.05892693 0.33280426 0.27281693
0000e0 a2 a5 d3 3e 21 22 35 be 8d c5 2f 3e f8 ba 55 bf
       0.41337305 -0.176888 0.17165203 -0.83488417
0000f0 29 5b b7 be e5 43 1d bc 79 cb dc 3e 96 65 f0 be
       -0.35811737 -0.009598707 0.43123987 -0.46952504
000100 91 07 ef 3e f2 2a c9 3e 46 10 86 3d a2 6d 66 bf
       0.4668546 0.39290577 0.06546073 -0.90011036
000110 f3 9e 12 bf 83 b9 38 bf 2d d2 54 be 0e 36 41 bd
       -0.5727379 -0.7215807 -0.207833 -0.04717069
000120 8e 96 34 3f ec ae 66 3e 06 2e f6 be 14 11 63 3c
       0.7054223 0.22527665 -0.48081988 0.013859052
000130 b7 43 7c 3f f4 d3 ab 3c 18 7a fb 3d 4b b5 6a bf
       0.98540825 0.02097509 0.12279147 -0.9168288
000140 48 5a e4 3d c2 fc 08 bf 06 5d 8c be 92 c6 34 3c
       0.11150032 -0.5351068 -0.2741472 0.011033671
000150 14 21 01 bf d2 27 b9 bc e0 00 a8 3d 2d 52 01 bf
       -0.504411 -0.022601996 0.08203292 -0.50516015
000160 55 32 0d be 23 7c 5d be de d7 95 be 3c de 26 be
       -0.13788731 -0.21629386 -0.29266256 -0.16295713
000170 16 a3 de bd d7 d8 0a bf b8 b0 97 3c f7 4b 71 3d
       -0.1087095 -0.5423712 0.018516883 0.058910336
000180 e0 b7 94 bf 33 18 29 be 42 da a9 3d 7c 2d 4c bd
       -1.1618614 -0.16513138 0.082935825 -0.049848065
000190 db 4e 31 3e 7c 78 52 3e 76 30 91 be 87 a6 a2 bf
       0.17315237 0.20553774 -0.28357285 -1.270707
0001a0 c5 5b fc be 01 b4 e6 3e 6b 06 35 3f 88 0d f9 3d
       -0.49288765 0.45059207 0.7071292 0.12160784
0001b0 dd 2f 11 3a e2 39 18 3f 6f 3d d0 bd fc f5 f3 3e
       0.0005538443 0.5946332 -0.101679675 0.4764861
0001c0 d9 2c d4 3a f0 da b1 be 6a f2 6b be 6e 94 1f bf
       0.0016187682 -0.3473735 -0.23041692 -0.6233586
0001d0 f9 93 08 3e 87 b4 6d bf 0a e2 e8 3d 9c 1b e4 3e
       0.13337697 -0.9285359 0.113712385 0.44552314
0001e0 72 b4 eb 3d 10 94 63 be a4 06 f4 3d 38 92 6a 3e
       0.115090266 -0.2222445 0.11915329 0.2290734
0001f0 8c 61 b9 3c e1 44 67 3b 12 a5 8c 3d 85 a8 c5 3e
       0.022629522 0.0035288858 0.06867422 0.38605133
000200 e2 d9 46 be 50 15 03 bd 7c c8 1b bf 3f 27 67 be
       -0.19419053 -0.032002747 -0.6085279 -0.22573565
000210 3f 49 07 bf 7b 78 d4 3d 82 59 e8 be 93 e1 77 be
       -0.5284614 0.10374542 -0.4538079 -0.24207143
000220 86 03 8e 3e a4 f0 4b bf a9 41 c7 3d e6 63 93 be
       0.27737063 -0.79664063 0.097293206 -0.28787154
000230 35 92 a2 bf 01 96 17 3e 1b a6 f1 be 18 55 18 bf
       -1.2700869 0.14803316 -0.4719704 -0.5950484
000240 07 d1 32 be 63 b8 d0 3c 33 f5 f7 be 2c 70 e8 bd
       -0.1746255 0.025478547 -0.4842926 -0.1134952
000250 eb 90 88 be 9d 1b 87 3d a5 4c 81 bd c2 fb 29 bf
       -0.26673064 0.06597064 -0.06313447 -0.66399777
000260 c1 4a 7b 3e 23 68 66 be 08 2d 86 bc 6b ac af 3e
       0.24540235 -0.22500663 -0.016378894 0.34311232
000270 af 7a 11 be c0 b2 5c 3c 90 5e 8e be 06 b9 82 bd
       -0.14206956 0.013470352 -0.2780652 -0.06382947
000280 ec d4 7c be 00 58 e9 3d 29 62 e1 be 8e 7e 82 3c
       -0.24690598 0.11393738 -0.44020203 0.015929487
000290 00 d5 1d be e1 e7 5e 3f 21 4b ca 3d 86 08 8c 3d
       -0.15413284 0.8707257 0.09877611 0.06837563
0002a0 81 86 a3 bb 48 65 5c be 61 7a 4b 3d 10 0c 33 bf
       -0.0049903993 -0.2152301 0.049677256 -0.6994028
0002b0 c8 cc 7e 3f ee b4 02 3e 09 cf 92 3e 56 fd d8 bc
       0.9953122 0.12764332 0.2867358 -0.026487987
0002c0 58 07 f2 be 78 f9 08 bd c2 fc 4a be 33 81 5e 3f
       -0.47271228 -0.033441037 -0.19822982 0.8691589
0002d0 d4 8e 94 be 85 63 5d 3e f4 f8 c2 bd 17 78 a1 bc
       -0.2901522 0.21619995 -0.0952014 -0.019710584
0002e0 57 98 1f bf 3e bf eb be 78 9d ae 3e 4e 16 ae 3d
       -0.6234183 -0.46044344 0.34104514 0.08500348
0002f0 b9 3b 32 3f 5b 2c ac bd b0 0d 1e be da c0 ae bd
       0.6962238 -0.08406898 -0.15434909 -0.08532877
000300 d7 6c 57 3e 41 9b 45 bd 02 38 2d 3d 62 52 67 bb
       0.21037613 -0.048243765 0.04228974 -0.0035296907
000310 e2 d4 50 3e 9e 2e d3 be 96 c8 e1 3f 26 b0 3f 3e
       0.20393708 -0.41246504 1.7639339 0.18719539
000320 f4 88 43 3f a7 8e 69 3d 6b 26 9a 3f 3d a2 13 3d
       0.7638085 0.05702081 1.2042974 0.036043394
000330 c9 95 5e 3e 27 aa d7 be 10 ac cd be d6 25 25 bf
       0.21736826 -0.42122003 -0.40170336 -0.6451086
000340 03 29 16 bf ee dc 16 3e ec 96 13 3e af f8 9b bd
       -0.5865633 0.14732715 0.14413041 -0.07615792
000350 fa 65 15 bf 4e 59 ee 3e c2 22 1f 3f ef 1d ba 3e
       -0.5835873 0.4655251 0.6216241 0.36350963
000360 43 fa 87 bd df df 81 bf 5a bf 79 3f d3 23 04 bf
       -0.066395305 -1.0146445 0.97557604 -0.51617163
000370 db 41 af 3c 3f 25 74 bd 1f 3b ce be fb 97 8f be
       0.021393707 -0.059605833 -0.4027948 -0.2804564
000380 a0 73 1e bd 8a c2 3a bf 9d 50 93 be 8d 53 45 3b
       -0.038684487 -0.72953093 -0.2877244 0.0030109615
000390 72 b8 99 bc 57 d1 a5 be 1e 4f c1 bf 74 f4 1a 3e
       -0.018764708 -0.32386276 -1.510227 0.15132314
0003a0 99 c0 0c 3f 66 d0 ba 3e ef a9 af bd 25 3f 28 bf
       0.5498138 0.3648712 -0.08577334 -0.6572135
0003b0 6a 40 5e be 88 73 61 bd 6a d1 a6 3e 70 ec 31 3a
       -0.2170426 -0.05504182 0.32581645 0.0006787246
0003c0 d3 23 23 bf 12 15 5a be 15 2d 7c be e5 05 3e 3f
       -0.6372654 -0.212971 -0.24626572 0.74227744
0003d0 7e c8 96 bf 57 1f a0 bf df c7 3b 3e 48 ec 28 bf
       -1.1779935 -1.2509564 0.18337964 -0.65985537
0003e0 5b 05 b2 bd b8 d3 9b 3f df 65 ef be 98 73 fb be
       -0.08692428 1.2173986 -0.4675741 -0.4911163
0003f0 61 3f 00 3f 91 9f 3f 3f 1e db 2f bf 78 a9 be be
       0.5009671 0.74852854 -0.6869372 -0.3723867

model.4.bias f4 [128]
000000 1a 4a d8 3e 56 39 82 3e 87 f0 09 3f e8 50 52 bf
       0.42244035 0.2543437 0.5388264 -0.82154703
000010 06 03 01 3e 1d 2e 6c 3f a3 3f db 3e 9d b4 42 bf
       0.1259881 0.92257863 0.42821988 -0.76056844
000020 7b 77 46 3f fb 71 df 3e 3b a3 d5 be 2e 0f 8c 3d
       0.7752606 0.43641648 -0.41726097 0.06838833
000030 e9 2d 5f bf 8c 3e d7 3d cc fe 01 3e 2c ae 4a be
       -0.8717943 0.10509977 0.12694854 -0.19793004
000040 ef af 81 3f 90 10 2c be 6e 77 ad 3e 96 41 4b 3f
       1.0131816 -0.16803193 0.3388018 0.7939695
000050 fb e8 17 bf c5 af 6b 3f bc 83 38 3f d8 04 79 be
       -0.59339875 0.9206508 0.7207601 -0.24318254
000060 9a 52 ce be 34 e9 5d bf 6e ae 5e 3f 86 9e 6f be
       -0.40297395 -0.86683965 0.8698491 -0.23400316
000070 d1 31 89 be 9c ff ec 3e 11 7c 86 3f 72 4b 62 3e
       -0.2679582 0.46288764 1.0506612 0.22099093
000080 e2 61 45 bf 7e 1e 34 3e fd 15 6f 3d d3 da 93 bf
       -0.7710248 0.17589757 0.05837058 -1.1551155
000090 87 7d dc 3e 23 64 76 bf 33 b7 b7 3e 7e bf 30 bf
       0.4306452 -0.96246547 0.35881957 -0.69042194
0000a0 5f 21 1b 3e 9c ac 4c bf 4f f6 d5 be 46 25 fa be
       0.15149449 -0.7995088 -0.4178948 -0.48856562
0000b0 ff 17 42 bf ce 30 ad be b8 31 a2 3e 44 46 ee be
       -0.75817865 -0.33826298 0.31678557 -0.46537983
0000c0 7d 51 67 3f c2 87 53 bd bd 34 26 bf 41 76 48 bf
       0.90358716 -0.05164314 -0.6492422 -0.7830544
0000d0 d2 19 0a bf 79 e7 a7 3e 4c 9e 89 be c6 b1 95 3e
       -0.5394565 0.32793787 -0.26878583 0.29237193
0000e0 21 46 3b 3f 7e 65 8f 3f 5e 30 d1 be 27 bc 84 bf
       0.73153883 1.1202848 -0.40857214 -1.036992
0000f0 27 d8 54 3d 0d c0 47 bf 0a 7d dd 3e da b4 ef be
       0.05196395 -0.7802742 0.4325946 -0.46817666
000100 66 36 c3 bb 8c 86 20 3f c0 dd 48 be a9 de 3c bf
       -0.0059574125 0.627053 -0.19615841 -0.7377725
000110 ac 02 e8 bd e3 15 47 bf a5 f7 57 3f 55 a6 3f 3f
       -0.113286346 -0.7776777 0.8436225 0.7486318
000120 a4 4b c7 bd 7c b0 35 3e 2c df ac be d8 7c 20 3f
       -0.09731224 0.17743105 -0.33764017 0.62690496
000130 fa c7 43 bf 0a 39 9d 3e 72 27 88 3e 5f c9 4c 3f
       -0.76477015 0.3070758 0.26592594 0.7999477
000140 f8 5d 4c be f7 89 87 3e 06 90 ad 3e 3a 3c e9 be
       -0.19957721 0.26472446 0.33898944 -0.45553762
000150 a0 9e 8c 3f ea 94 75 3d 78 84 b2 3e cf 4f 29 3f
       1.0985909 0.05995647 0.3486669 0.66137403
000160 52 f9 dc be 76 fb 19 3e bc 67 98 be 85 d8 4b 3f
       -0.43158966 0.15037331 -0.29766643 0.7962726
000170 53 c3 78 3f ea 16 68 be 2a 17 db be f3 d0 c1 be
       0.9717304 -0.22664991 -0.4279111 -0.37854728
000180 90 7a f5 3e be c9 53 be d6 93 19 bf a3 35 3a be
       0.4794507 -0.20682427 -0.59991205 -0.18184523
000190 ea e1 96 3f 43 ab 50 bf 3c 15 b0 be 42 ea 13 3f
       1.1787694 -0.81511325 -0.343912 0.57779324
0001a0 a7 00 dd bc 5b 76 b2 bc f1 1b 96 bc 5b 27 f7 be
       -0.02697785 -0.021784952 -0.01832387 -0.48272213
0001b0 80 c8 96 3f b5 2e 82 3e f1 9e fb be d2 b2 8b bf
       1.1779938 0.2542626 -0.491447 -1.0913947
0001c0 5a 3f 08 3f 28 33 8b bf 81 1e e8 be ad e2 c8 be
       0.53221667 -1.0874987 -0.45335773 -0.3923544
0001d0 92 ae 1d be af 7d a8 3e 64 8f 28 bc 97 3a 81 3e
       -0.15398625 0.3290839 -0.010288093 0.25240013
0001e0 39 40 1f 3d 5e f7 67 3f 4b 33 2b bf 7a ed 01 bf
       0.038879607 0.9061183 -0.6687514 -0.50752985
0001f0 49 d6 1f 3f 39 db 78 3e ad e5 6c 3f 20 43 ac 3f
       0.6243635 0.24302377 0.9253796 1.3457985

model.6.weight f4 [64, 128]
000000 3f a7 5b bf 65 ff 14 bd 24 ea 08 bf 90 a9 2f 3e
       -0.8580207 -0.036376376 -0.5348227 0.17154527
000010 ab 69 70 3e d8 0b 0e bf 02 0e 41 bd 54 f5 e6 3e
       0.23477809 -0.5548682 -0.0471325 0.45109046
000020 d7 00 22 3e 36 cc de 3d e3 28 bd 3e 66 2d b1 bc
       0.15820633 0.10878794 0.36945257 -0.021628093
000030 26 94 12 be cc eb b5 3e 7c be 0c 3f 4c 62 b6 3d
       -0.14314327 0.3553146 0.54978156 0.089054674
000040 03 55 66 bf d8 e9 96 3e 54 52 cf 3e 7f 44 c9 be
       -0.8997347 0.29475284 0.404925 -0.3931007
000050 eb 8e 1f 3f 49 98 1b bf 5f 38 62 bf 6c 9f e9 3e
       0.6232745 -0.60779244 -0.88367265 0.45629442
000060 20 7c a4 3e ed 39 56 3f 5b b6 02 be a6 0a 7d 3e
       0.3212595 0.8368214 -0.12764876 0.24711093
000070 e0 c6 15 bf 11 3f 58 bf c1 75 db be 17 bc 63 3e
       -0.58506584 -0.8447123 -0.42863277 0.2223972
000080 e7 a5 58 3f b1 ef 0e be aa 12 92 be 44 b7 19 3f
       0.84628147 -0.13958623 -0.28529865 0.60045266
000090 3f 29 02 bf 12 b9 aa 3e 55 e2 0c 3f 2c 36 e1 bd
       -0.50844187 0.33344322 0.55032855 -0.109966606
0000a0 17 ff 41 be 7f 20 85 3f 70 5c b2 3e bf 90 87 3e
       -0.18944965 1.0400542 0.3483615 0.2647762
0000b0 3b e2 d7 3e 9f b1 af 3e 99 31 8d be a7 12 5d be
       0.42164788 0.34315202 -0.27576903 -0.21589147
0000c0 3b 1c 6b be d2 2f e4 be 4e cf 64 3e 25 fc f1 3e
       -0.22959988 -0.44567734 0.22344705 0.47262684
0000d0 c8 3a d4 3d 1e 49 f1 be c7 5f 8a 3e 14 8c 90 bf
       0.10362774 -0.47126096 0.27026197 -1.1292748
0000e0 f1 c6 f7 3d 38 b4 10 bf 38 16 bd 3d 3e e9 2e 3f
       0.12098492 -0.5652499 0.092327535 0.6832465
0000f0 cc 5d 00 be 8d a0 d7 3e c7 d4 0c bf 4d 99 91 3d
       -0.1253578 0.42114678 -0.5501217 0.07109318
000100 c2 ec 0f 3f e1 68 69 bf 21 2d 13 3d 29 6e 81 3e
       0.5622064 -0.9117566 0.03593171 0.25279358
000110 a9 e7 83 be ca 4e 9a 3d 88 3e 07 bf 9b d2 11 bf
       -0.2576268 0.07534559 -0.5282979 -0.56961983
000120 b4 c7 75 be 89 25 31 bf cb 5c 0d 3e 7c 6a 65 bf
       -0.24001962 -0.691979 0.13804929 -0.8961561
000130 38 36 d0 bd 03 a4 e6 be e6 65 65 be 2b 33 04 bf
       -0.101665914 -0.45047006 -0.22402152 -0.51640576
000140 35 da 4d 3f 8c a4 09 bf c2 99 b0 be 33 07 d5 bd
       0.8041108 -0.53766704 -0.34492308 -0.10401764
000150 ce 22 d2 be a3 28 28 be ad a1 69 3e 8e bc aa bd
       -0.4104218 -0.16421752 0.2281558 -0.08336745
000160 e0 ba 38 bd 8b 9b ea 3e 45 b8 49 3e d8 18 92 be
       -0.045100093 0.45821795 0.196992 -0.2853458
000170 ba 6e a1 3d 89 8c 19 3e 3f cf b4 3d cd d3 2a 3f
       0.078824475 0.14995016 0.088285916 0.6672943
000180 8b c6 1d 3e f9 3c 98 be ba d2 dd 3e 6a a4 32 3b
       0.1540777 -0.29734018 0.43324834 0.0027258643
000190 6f 8c 28 bf be 34 ae 3e cf 5e 8f bd 1f 75 95 3e
       -0.65839285 0.34024614 -0.07000505 0.2919092
0001a0 0a 4e 91 bd eb 7c 79 be 9c 35 34 be 33 fd 18 be
       -0.07094963 -0.24364059 -0.17598575 -0.14940338
0001b0 d1 57 2c bf 91 39 3e 3e cd b8 35 be 0a 88 77 3f
       -0.673215 0.18576647 -0.17746277 0.96691954
0001c0 9a e6 9c be 72 3e 7a 3e 53 b8 e0 3e 44 ff c2 be
       -0.30644685 0.24437883 0.43890628 -0.38085377
0001d0 7c bd af be 2a 1d 51 be 50 af 3c be d3 70 02 3f
       -0.34324253 -0.20421281 -0.18426251 0.50953406
0001e0 27 06 fa 3d aa 30 79 bf ba f5 be be 29 fb ff be
       0.12208205 -0.9733988 -0.3729685 -0.49996307
0001f0 dd 6f 37 bf 1f 60 24 bf 77 c0 19 be 52 02 07 bf
       -0.71655065 -0.6420917 -0.15014826 -0.52737916
000200 c3 70 3d 3e 41 f0 9b bf 4d 1d 76 be 59 62 cf be
       0.18500046 -1.2182695 -0.24034615 -0.4050472
000210 27 f4 50 3f ef f0 48 3e e5 24 43 ba 2d 90 b9 bd
       0.81622547 0.19623159 -0.00074441574 -0.090607025
000220 10 c7 f7 bd 67 a6 61 3d cb 6c 06 bf f9 b8 09 bf
       -0.12098515 0.055090334 -0.52509755 -0.5379787
000230 c8 c9 c4 3d 5f 4b 6b be 95 70 18 3f 74 7a af be
       0.09608799 -0.2297797 0.59546787 -0.34273112
000240 73 10 c8 be 74 a3 33 bf ac 05 62 3e dd 1d 66 be
       -0.3907505 -0.70171285 0.22072476 -0.2247233
000250 bd c7 a1 bd 68 69 f1 be f3 21 15 bd f0 30 bf bc
       -0.07899425 -0.4715073 -0.03640933 -0.023338765
000260 99 29 e5 bd dd 5f 3a bd 9f 41 b3 be f7 0b 54 3f
       -0.11189575 -0.04550158 -0.35011002 0.82830757
000270 4d 6b 41 bf 45 b4 0d bf 71 24 d0 3d 4a 2f 1d 3e
       -0.75554353 -0.55353194 0.10163201 0.1535007
000280 8d 39 72 be 9c 9f b3 be 64 d5 d3 3e 5b 39 2f bf
       -0.23654766 -0.3508271 0.41373742 -0.6844689
000290 73 60 32 bf c0 50 a2 3e 5b 2e 05 3f 24 be 59 3d
       -0.6967842 0.31702232 0.5202386 0.053159848
0002a0 7f ec 84 3f 25 3d 5c be cf 34 ab be 48 2e c2 3e
       1.0384673 -0.215077 -0.33438727 0.37925935
0002b0 36 b8 b0 bd 96 4b 44 3e 12 6b 92 be 26 f3 79 bf
       -0.086288854 0.19169459 -0.28597313 -0.9763664
0002c0 6c 7e 23 3e 54 24 65 3e 7f 0f 2a 3f e3 b3 86 be
       0.15966195 0.2237714 0.66429895 -0.26309118
0002d0 03 be 10 3f b4 fc 8f bd b8 b4 80 bd f0 b0 e4 be
       0.56539935 -0.07030621 -0.06284469 -0.44666243
0002e0 0f 73 92 3f af 48 f3 3d 54 d5 83 bd 56 45 5a bd
       1.1441363 0.11879098 -0.064371735 -0.05328878
0002f0 d5 63 2c bf 71 f4 08 bf 24 55 88 bb 06 ba b1 bd
       -0.6733983 -0.5349799 -0.00416054 -0.08678059
000300 fe 8c 91 be 39 76 cf 3e 00 cb 8f bf 03 7e 9b bf
       -0.2842788 0.40519884 -1.1233826 -1.2147831
000310 b6 b6 38 bf b4 28 70 bf 5e cd 21 bf 13 eb 6b 3f
       -0.72153795 -0.9381211 -0.6320399 0.9215557
000320 cb 57 ee 3e 8b e2 e9 be 5b fd 4d be 24 58 c7 3e
       0.46551356 -0.4568065 -0.20116179 0.38934433
000330 0b cb 66 38 73 ee 45 bf 8f 86 f8 3d 2e a0 43 be
       5.502537e-05 -0.7731697 0.1213504 -0.19104072
000340 3f 71 d5 be 5b 7d 04 3e ae 22 af 3d 91 ed a2 be
       -0.41687962 0.12938444 0.085515365 -0.31821874
000350 04 1d aa bd f6 04 21 be b6 c8 c2 be c7 45 4c be
       -0.083063155 -0.15724549 -0.38043755 -0.19948493
000360 8d d1 21 bd 0a 43 01 3f 1e 59 35 bf ad 9d 8f 3e
       -0.039506484 0.5049292 -0.7083911 0.28049985
000370 23 98 03 3e b7 20 3c be ab 69 23 bf 29 09 37 be
       0.12851004 -0.18371855 -0.6383311 -0.17874588
000380 3f 48 0a bf 2e 4e 36 bf 4d 7a 80 3e a6 98 2f 3c
       -0.5401649 -0.7121304 0.25093308 0.010717547
000390 96 04 83 be 06 d0 e2 be c8 d2 49 be de e7 dc bd
       -0.25589436 -0.44299334 -0.19709313 -0.10786413
0003a0 f5 e7 06 3f 08 f3 08 3e 76 59 0f bf e0 6e 39 3f
       0.5269769 0.13373959 -0.5599588 0.72434807
0003b0 fa 27 d9 3d d1 18 5c bf 6e 20 3e 3f 85 89 c2 be
       0.10603328 -0.85975367 0.74268234 -0.37995544
0003c0 0a 6e 52 be 6c 73 fb bd ba df 3b bf 8f 38 20 be
       -0.20549789 -0.12277874 -0.73388255 -0.15646575
0003d0 3c eb be be 90 b9 d2 be 49 64 16 bf 03 0e 22 3a
       -0.37288845 -0.41157198 -0.58746773 0.00061818975
0003e0 df a3 27 bf e1 9a 89 3d 82 9b de 3e 20 26 8d 3e
       -0.6548442 0.06718994 0.43478018 0.2756815
0003f0 76 9b a1 3c e0 40 8f bd fb 2c 27 3e f6 a6 7b bf
       0.01972745 -0.06994796 0.16325752 -0.9830164

model.6.bias f4 [64]
000000 4b e4 3d be 5c 1d 3d be 0d 7a ac be 22 08 40 3e
       -0.18544118 -0.18468231 -0.33686867 0.18753102
000010 dc 84 32 bf 9e 3d 0c bf ed 20 70 be b2 2b 3b 3e
       -0.6973398 -0.5478152 -0.2345006 0.18278387
000020 80 fa af be 73 aa 42 3f 8d 75 7e 3c 81 95 c5 3e
       -0.34370804 0.76041335 0.015530956 0.38590625
000030 85 27 ec be eb c0 32 bf 5a db b7 3e e8 43 8c 3f
       -0.461239 -0.6982562 0.3590954 1.0958223
000040 93 73 ea bd 2a fe a1 3d 77 24 d6 be 81 b9 c9 3e
       -0.11447825 0.07909806 -0.41824695 0.3939934
000050 75 01 a6 bf 5b 46 aa 3e 1a e2 4d be 08 78 ab 3e
       -1.2969195 0.33256802 -0.20105782 0.33490014
000060 d3 c1 a2 3d 0f 91 8e be da 52 27 3f e0 b8 ee be
       0.07947125 -0.27845046 0.65360796 -0.46625423
000070 fc e4 19 3e cc ce 43 bd 03 c2 a0 3d 83 b7 36 3e
       0.15028757 -0.04780464 0.07849505 0.17843442
000080 df e3 4f bf 06 2e a5 bd a7 a9 c4 3e 5c a5 f3 bd
       -0.8120708 -0.08065419 0.38410684 -0.11896774
000090 27 ae 18 be 00 32 64 3e 57 c0 24 bf 08 46 a4 bd
       -0.14910184 0.22284698 -0.6435599 -0.0802117
0000a0 c0 95 45 be 99 34 19 be a0 a1 26 bf 0e 45 d5 be
       -0.19295406 -0.1496147 -0.6509037 -0.41654247
0000b0 a8 ed 7b be 17 95 3f 3f 35 33 02 3e 94 27 39 3e
       -0.24602377 0.7483687 0.12714846 0.18081504
0000c0 fd 5e a1 bd b1 4a c9 3e ad bd b1 3e f9 ad d0 3e
       -0.07879446 0.39314798 0.34715024 0.4075773
0000d0 2c 2e 76 bf e6 11 63 be 20 7a 8b 3e 75 28 01 3f
       -0.961642 -0.22174796 0.2724161 0.5045236
0000e0 c4 c9 84 be 25 b8 82 3e 59 f3 36 3d 14 1e 10 3e
       -0.25935185 0.25531116 0.04466567 0.14073974
0000f0 c9 84 0a bd d3 e3 8c 3e 49 27 34 bf f7 71 22 bf
       -0.03381804 0.27517566 -0.70372444 -0.63455147

model.8.weight f4 [2, 64]
000000 1a b8 14 3e 73 8a 01 be f2 4b 67 3e e0 70 8e be
       0.14523354 -0.1265047 0.22587565 -0.27820492
000010 b4 bd 80 bd 39 41 9b 3e fb d0 a0 3d c5 e3 f8 be
       -0.06286183 0.30323198 0.0785236 -0.48611274
000020 a2 4e 49 3c 1d 93 90 3e ae 19 d0 bc e0 0a b7 bd
       0.012286814 0.2823724 -0.02540287 -0.08937621
000030 be 49 0e 3d fc 65 9a be 35 3d d1 bd 35 74 23 3f
       0.034738295 -0.30155933 -0.102167524 0.6384919
000040 23 6b 55 be 59 0f 53 be 39 d1 05 be bd d3 00 3f
       -0.2084165 -0.20611323 -0.13068093 0.50323087
000050 6b b0 e6 be fa 44 c1 bd f3 5c ba be 3a 3a d4 bd
       -0.4505647 -0.09436984 -0.3639904 -0.10362668
000060 f4 1d 9b bd 6d ba 9f bd 02 63 98 be ab 3d 82 be
       -0.075740725 -0.0779923 -0.29763037 -0.25437674
000070 6b 3e 23 bd d1 b7 a0 3d 87 50 1b be b8 28 9b 3e
       -0.03985445 0.0784756 -0.15167437 0.30304503
000080 aa ea 4f 3e 0b ac a6 be 95 0d d5 3e e2 5e a9 3e
       0.20304361 -0.32553133 0.41611925 0.33080202
000090 ed b8 4b 3e 2b 82 00 3f f2 ed 13 be d1 95 2d be
       0.19894762 0.5019862 -0.14446238 -0.16951682
0000a0 4d 0a 4d 3e ae af 9f bd dc 1c 80 be 79 bf 22 be
       0.2002346 -0.0779718 -0.25022018 -0.15893354
0000b0 a6 f9 ac bd a6 fb f3 bd cd c7 3c be b6 e5 0b be
       -0.08446054 -0.119132325 -0.18435593 -0.13661847
0000c0 6d 2e 9c be aa c4 0a 3d 4a ad 10 3e e2 58 de be
       -0.3050417 0.03387896 0.14128605 -0.43427187
0000d0 f8 65 20 3d a3 bb 00 be d5 eb b3 3d 04 48 a8 3d
       0.039159745 -0.12571578 0.08785216 0.08216861
0000e0 82 db cd bd 64 02 45 be bb 99 c3 3e 5b 57 3d 3e
       -0.100516334 -0.19239193 0.38203225 0.18490355
0000f0 6e 63 4b 3e bb 96 37 be 2b 96 0a bf 41 c9 f5 bc
       0.19862148 -0.17928593 -0.5413539 -0.030003192
000100 d5 d4 90 be 83 94 0e 3f e3 31 e3 bb 15 13 6f 3e
       -0.28287378 0.5569536 -0.006933437 0.23347123
000110 71 20 68 3c 17 58 8b 3e ff 83 af 3e 67 be 94 bd
       0.014167891 0.27215645 0.34280393 -0.07262879
000120 4c df 98 3d 89 42 64 3e c0 bb e0 be bf 01 4d 3e
       0.074644655 0.22291006 -0.43893242 0.20020197
000130 17 48 30 3e 95 6f 50 be 74 ee ad bd 47 a4 ef be
       0.17215 -0.20355065 -0.08492747 -0.4680502
000140 79 80 86 3d 34 bc bb 3e ef 8b 21 3e 96 1a 8b be
       0.06567473 0.36667025 0.15776037 -0.2716872
000150 cc b8 0a 3f 50 f9 7d 3d df 1c 21 3d c8 50 d4 3e
       0.5418823 0.06200534 0.039334174 0.4146788
000160 d0 b6 04 3f f0 41 82 be e7 16 b9 bd 0a 07 72 3c
       0.5184145 -0.2544093 -0.090375714 0.014772186
000170 ba e4 41 3e e0 7b cc be a9 1c 40 3d 51 28 11 3d
       0.18934909 -0.3993826 0.046902332 0.03543884
000180 0b 34 99 be b7 c9 af 3e d6 0e 78 be ba bd ba be
       -0.29922518 0.34333584 -0.2422441 -0.36472875
000190 73 dd 0e bf 61 30 90 be 05 aa 8e 3d 48 7c 8a 3e
       -0.55806655 -0.2816191 0.069660224 0.27047944
0001a0 e9 fe 9a be 3c a1 c7 3e 5a d2 15 be f2 51 c5 3c
       -0.30272606 0.389902 -0.14631024 0.024086926
0001b0 43 eb 3a 3e de f5 e6 bd 20 75 c6 bd d4 04 b8 3d
       0.18253808 -0.11277364 -0.096903086 0.08985296
0001c0 61 d4 ac 3d 7c 49 a5 3e a4 7e ba be d8 c3 19 3e
       0.084389456 0.32282627 -0.36424744 0.15016115
0001d0 b6 b7 df be 3b 59 d3 3e 41 3b bb 3e 12 12 8c bd
       -0.43694848 0.41279015 0.36568645 -0.06839384
0001e0 3e d6 e7 3d 70 00 d1 3d a4 ef 54 bd e5 ff e1 bd
       0.1132016 0.102051616 -0.05198635 -0.11035136
0001f0 8e ea 5f bd ff 15 44 3e 55 c8 84 3e 1a 25 e0 3e
       -0.05466705 0.19149016 0.2593409 0.43778306

model.8.bias f4 [2]
000000 9c 21 98 3e 67 07 98 be
       0.29713142 -0.29693148
