models/02-14-2023_23-49-41__mi_binary_opt_sched_on_fair2M.model (torch, 737547 bytes, 10 tensors)

model.0.weight f4 [512, 20]
00000000: ce98 fe3e cc7e 813f f5f4 1bbe ef5e c73d
00000010: 511c 4d3d 9622 b23d 6adc dfbd d7e7 463e
00000020: 2896 08be 03b3 0b3f adeb 42be ade9 993e
00000030: 320c f3bc c280 823b d2e3 be3e 4d6a 2f3d
00000040: 9d26 92be 3b51 d1bb c858 5abe a983 133f
00000050: f048 363f 1e34 28bd 9f2a 08be 0e37 9ebe
00000060: 5d21 af3d 8c79 4cbc 4fca 2e3e 59c9 cc3d
00000070: 505e 8ebc ef80 d03f 4c95 f4bd c4ce c93d
00000080: 54a4 283e 2bb1 48be 79d0 a13e 8f07 793d
00000090: 6146 6ebe f369 20be 20de aa3d b126 613f
000000a0: de07 1f3f 4ea7 a43e fa11 91be fd46 363d
000000b0: b410 5fbd d6f3 153e 46ab bc3d 7822 edbd
000000c0: ecc9 753d c95c f4bf e4a9 85be 2e48 6abd
000000d0: 19ac b7be 367f ddbe 5c1b 26be 4601 a73d
000000e0: 4816 02be 58cb 943c 77b4 8a3f 372c ab3e
000000f0: 4f62 393e d82b 2d3f 99b3 ab3e cf44 dd3e
00000100: 2acf 103f 4896 4c3d fa60 0f3f d8ff 983d
00000110: 624a a03e 9ca7 da3e f3d0 3b3c 4db3 e3be
00000120: 78f8 97bd 59b5 223e 2d57 17bf 2347 763e
00000130: b8d3 843e 4c72 c63e c73c 503f 8419 0b3f
00000140: 2b5a 80bd 7626 1a3f 971c 903e cf36 353f
00000150: 835a 52be 969a b1be 09a1 80be 1825 7e3e
00000160: 40c3 043f 5113 2c3f 1e29 f53c ce0d e73e
00000170: 358c af3b 62e6 51bc 56ad aa3e 7401 a0be
00000180: a1f8 c83e 0eb7 2d3f 372f 103f 78d5 1cbe
00000190: a964 bb3e f0db 3f3f ec70 783e 3803 563e
000001a0: 60ea 4a3f 41c0 ac3d 19be febe 22ea 083f
000001b0: bd85 613d 7a98 1e3f 2b77 c13e dcb4 5b3e
000001c0: 5fc8 aa3c cc6c 8f3e 1be5 a5bd 21c2 6239
000001d0: 259e d43d bcf4 213e 57bb 423e a12a 3a3e
000001e0: 821c 2e3e 66a6 933e 921e 0a3f d143 fb3d
000001f0: 01e2 c03e aed7 a63d e6bc ce3b c5b6 39be
00000200: 52e7 4c3f 8bf1 163f b2f0 b33e e0ba 5abe
00000210: a1c8 19be ae69 94be a56f babe e5f8 343e
00000220: 940e 2c3f f38b 543d e2c5 0f3f 24a8 323f
00000230: b4cd b73e 7c0d da3e d09e 3ebf db47 833d
00000240: 0e88 fa3e 9738 173e 8124 323f 59b6 d73e
00000250: b20e 383f af02 8f3e fd61 c73e a140 8e3c
00000260: 7abc 9c3e bfb0 823e 3c4a 7f3d 028e 4d3e
00000270: 1800 31bf 64c0 d7bd 64cd 01be 0665 713c
00000280: fbdc f8bc 796a 083e 88b4 d43e 93f1 3c3f
00000290: ae48 b7bf f421 83be bfc6 67be c50e e8bd
000002a0: a21c 533f d976 e8be e461 2c3d a438 c13e
000002b0: 6619 a63e ea72 243f 62b2 b63e 732a 8cbe
000002c0: e867 b83e 6393 243f 158b 183f 3355 483d
000002d0: 59fe e8be cb11 153f f1ef d4bb 24ec 573f
000002e0: 3e60 50bf 8dcd 9bbe 53e2 1dbe c8c3 acbe
000002f0: 3c80 0f3f 0952 263e a954 603d 9d05 ef3e
00000300: 6d67 d13e 6af6 3f3f e3d7 ff3e fe36 86be
00000310: 5721 73bd a662 553f f230 0a3f 622b 56bc
00000320: 1c30 a23e b898 643e 87f6 813e f1a2 b0bd
00000330: 536a 10bd 0df3 41bf 2c37 09bf e113 df3d
00000340: 140c f7be bd65 8540 6ab3 2e3d 2b6a 3f3f
00000350: 44a8 e03d 4ba2 c2be 465b 593f 708f 23bf
00000360: 73aa 783e 2d5e dcbc 90ea c83e 143e a7be
00000370: 92ec 87be 9c5e 253c e850 94bd 1001 113f
00000380: 8995 99bf 95fb 033f 5e54 55be 6ae4 e1be
00000390: 9a35 e53e baf2 83be 120d 403e 5bc2 633e
000003a0: f91c c43e 003d aabc 4b95 e43e e36c 053f
000003b0: 513b 073d a46f 253f ad94 3d3f 5038 fcba
000003c0: 99d1 cbbf e2c3 0e3c 91c1 d53e c206 50be
000003d0: 97b4 0dbe 4cba 933d 3408 163d 3c9f f7bc
000003e0: 85f6 7a3f 0762 e1c0 3d6d b03c 914a dcbe
000003f0: 5658 68be 019a f03e 69ce e9be 69ee 1f3c
0.49725956 1.011682 -0.15230162 0.09734904 0.050075833 0.08698003 -0.109307125 0.19424377
-0.1333853 0.54570025 -0.19035216 0.30061093 -0.029668901 0.0039826343 0.37283188 0.042825986
-0.28545085 -0.0063878573 -0.2132293 0.5762277 0.71205044 -0.041065328 -0.13297509 -0.30901378
0.085512854 -0.012480151 0.17069362 0.099993415 -0.017378956 1.6289347 -0.119425386 0.098538905
0.16468936 -0.19598834 0.31604365 0.060798224 -0.23269035 -0.15665416 0.08343148 0.87949663
0.6212138 0.32158893 -0.28334028 0.044501293 -0.05445929 0.14643797 0.09212355 -0.1157884
0.06000702 -1.9090816 -0.2610618 -0.057197742 -0.35873488 -0.43261117 -0.16221374 0.0815454
-0.12703812 0.018163368 1.0836323 0.3343217 0.18103908 0.67645025 0.3353546 0.4321656
0.5656611 0.049948007 0.5600735 0.07470673 0.3130675 0.42706 0.011463392 -0.44472733
-0.074204385 0.15889491 -0.59117395 0.24050574 0.2594278 0.38759077 0.8134274 0.5433581
-0.06267198 0.60214937 0.28146812 0.70786756 -0.2054234 -0.34688252 -0.2512286 0.24818838
0.5186043 0.67216974 0.029926833 0.4512772 0.00535729 -0.012811275 0.3333537 -0.3125111
0.3925219 0.67857444 0.56322044 -0.15315807 0.36600235 0.74944973 0.24261826 0.20899665
0.7926388 0.08435107 -0.49754408 0.5348226 0.055059183 0.6195141 0.3778623 0.21455711
0.020847498 0.28012693 -0.08100339 0.00021625358 0.10381726 0.15816015 0.19016777 0.18180324
0.17003062 0.2883789 0.53952897 0.12268794 0.37672427 0.081466064 0.0063091395 -0.18136127
0.80040467 0.58962315 0.35144573 -0.2136035 -0.1501794 -0.28986877 -0.36413303 0.1767307
0.67209744 0.05189128 0.5616132 0.6978781 0.35899127 0.42588413 -0.7446108 0.0641019
0.48931926 0.14767681 0.6958695 0.42131308 0.71897423 0.27931735 0.38941947 0.017364802
0.30612546 0.25525472 0.062326655 0.20073703 -0.6914077 -0.105347425 -0.12676007 0.0147335585
-0.03037881 0.13321866 0.41543984 0.73806113 -1.4319055 -0.25611842 -0.2263441 -0.11330942
0.82465565 -0.45403174 0.042085543 0.37738526 0.32441252 0.64237845 0.3568297 -0.27376136
0.36016774 0.64287394 0.5958722 0.048909377 -0.45506552 0.58230275 -0.00649833 0.84344697
-0.81396854 -0.3043026 -0.15418367 -0.3374312 0.56055045 0.16242231 0.05476824 0.4668397
0.4089922 0.74985373 0.49969396 -0.2621383 -0.059357967 0.8335365 0.53980935 -0.013071867
0.3167733 0.22323883 0.25383398 -0.086248286 -0.03525765 -0.7576149 -0.5359981 0.108924635
-0.48251402 4.168669 0.04265157 0.74771374 0.10969594 -0.38014445 0.849049 -0.63890743
0.24283771 -0.026900375 0.39241457 -0.3266455 -0.26547676 0.010093357 -0.07241994 0.56642246
-1.199876 0.5155576 -0.20832965 -0.4411958 0.44767457 -0.25771123 0.18754986 0.2224211
0.38303354 -0.02078104 0.44645151 0.5211927 0.033015553 0.64623475 0.74054986 -0.0019242857
-1.5923339 0.008713694 0.41749242 -0.20315078 -0.13838421 0.07213268 0.036628917 -0.030227296
0.9803241 -7.043216 0.021536464 -0.4302564 -0.22689947 0.46992496 -0.4566529 0.009761431

model.0.bias f4 [512]
00000000: b68f afbe ee1b 7abc 8bb0 afbe dde1 62bf
00000010: 59f6 fdbe aeea 29bf fcdb 14bf 3aa3 debe
00000020: 004e 5abf 803c 37bf 3104 ec3d 0754 d4be
00000030: 6a9b d1bd a89e 37bf 9c4a 2bbf 8523 363e
00000040: 7225 0ebf f33d 99be bb29 3bbf 54d6 aabd
00000050: 213d 1bbf 3530 7bbe 0d2d 9cbe 17c2 55bd
00000060: c97e eebe 55b8 e0be 829e 95be a87e 313e
00000070: 5495 c7be e34c 07bf f4d0 82be 5d5a 11bf
00000080: c756 9ebd 718e 4bbf 7d07 17bf b4f3 00bf
00000090: 2084 0abf f8fc a6be ec78 cabe e52f 4bbf
000000a0: 7fdb e43c 3490 d63e b40a 3ebf ec13 bfbe
000000b0: ab3f cbbe 0bc3 46be 2a81 a53e 9f63 40be
000000c0: 1920 bdbe 54a8 f9be 2dec f7be c44e 06bf
000000d0: 9d73 46bf 66f9 14bf 287b 1bbf 8957 36bf
000000e0: 95ec 06bf f3d9 d0be 193a 2bbd 6e22 43bf
000000f0: 3e72 4fbe 33a4 00bf ba55 dbbe 7e04 bb3d
00000100: 814c d1be 7db6 23bf 2eec 96be ddc2 5ebf
00000110: 7c96 f7bd fe2c 43bf 5f1c 303d 4d4d 3ebe
00000120: 007e 1bbf 6b37 9ebe e5e3 0bbf 0965 01bf
00000130: 7392 06be 1572 57bf 6e70 94be 3042 6c3e
00000140: 999e 6ebe c8c3 25bf d0c9 a63e e819 e5be
00000150: 9b3a 56be cd36 d2be 5ca6 003a 9130 26bf
00000160: 0731 c7be 7fb4 10bf 3e48 31bf 5ce4 32bf
00000170: 590f 33bf d9df a2be e333 12be 3462 94be
00000180: 95e7 27bf 3147 3cbf df44 23bf ffbb 34bf
00000190: a09f 54be 4557 5abf fd32 b7be f2c7 02bf
000001a0: 3b4c 29bf 7211 33bf 25ef 72be 9059 6abf
000001b0: 76bd b6bd a3a8 30bd dd02 22be 4921 29bf
000001c0: 0fb2 d1be dfd2 0cbf e624 b53d ec74 49bf
000001d0: 7768 1fbf ccf9 5fbf 5b0e 12bf 7ee2 0dbf
000001e0: 9814 4ebf 9ec8 53bf 5a5c 02bf a43a debe
000001f0: e777 e93e 7d8c 6ebe 2a94 4e3d be56 9b3e
00000200: c94b 3abf 8495 febd 9ae8 a6be 3bc6 f3be
00000210: 1b1c 3ebe 50fe ddbe c0c4 68bf d66c 89be
00000220: fafb 1c3e 7e06 8fbe a2ba 84be e761 77bd
00000230: 8dc1 00bf 365a 2bbf 9147 f7be ae31 87bf
00000240: b98f 37bf da00 b4be c801 f4be 57e3 2ebf
00000250: 19fa 15bf 7fa4 2fbf 0552 023f b389 c0be
00000260: 3d8c 9fbe 63bf 29bf 244b 3fbf 88f1 03bf
00000270: 0279 23bf c3e3 36bf 1b1e a8be f3f1 10bf
00000280: cdfc efbe 01e1 d6be 4864 e2bc 2c22 2fbe
00000290: 03af 32bf 89b6 aebd f0e8 64be 920a 183e
000002a0: 097a df3e 7bc7 6dbe 10e6 a33e eaa0 28bf
000002b0: ee6b 6ebf b5d5 2abe 1d01 0abf 6d5b ffbe
000002c0: c338 c93e c8d4 f7be c24a b8be 27e2 113e
000002d0: 53c6 2cbe 1f10 eabe 730d 7cbe 1a42 1fbf
000002e0: 018f eebe aad3 37bf 4717 d0be 3626 60be
000002f0: bc61 ecbe 9851 d13d 8d5a c5be 2523 cdbe
00000300: 52a8 8abe b8cc 71be 40b6 1abf ac7f 99be
00000310: d2ca 18bf e757 c5be aa34 40be 75a2 70bf
00000320: f656 66bc 2a7b 103d 0648 d4be 7b15 cdbd
00000330: a17b 78bd 0754 b0be 85a1 48bf a7c4 d2be
00000340: 96d6 e6be a597 8bbe 8bce e7be cb24 1d3f
00000350: 6fc6 b8be ecac 9abe 61e3 2dbf 871d 5ebf
00000360: b64d cdbe e788 6cbf 9bf3 d53e 236b 2ebf
00000370: 91cd c3be c154 2c3e 14df 74bf 669a d9be
00000380: c653 0b3f 5128 1fbe a202 aebe 9662 83bf
00000390: cebd babe d285 33bf 7817 63bf 9038 a4be
000003a0: e8e5 40be 7636 cdbe c097 13bf 62f6 163f
000003b0: aee2 dabe cb3b 0ebf 5cd1 d0be f216 b6bd
000003c0: 5935 abbe 2f44 9cbe 522c 38be ef5e 44bf
000003d0: b2a4 2c3e dbf5 1e3f 968c 12bf 892e 1ebf
000003e0: 1def 00bf 8b2d c6be 9cee 32be 1699 ddbe
000003f0: 8f66 37bf fa8f fd3e cb5a 20bf d24b a9be
-0.3428933 -0.015265448 -0.3431438 -0.8862589 -0.4960201 -0.6637372 -0.5814817 -0.43483907
-0.8527527 -0.7157669 0.11524237 -0.41470358 -0.10234721 -0.71726465 -0.6691072 0.17786987
-0.55525887 -0.29930076 -0.7311055 -0.08341661 -0.6064015 -0.24530108 -0.3050312 -0.05218705
-0.46581104 -0.43890634 -0.29222494 0.17333472 -0.38981116 -0.52851695 -0.25550044 -0.5677851
-0.07731395 -0.79514223 -0.589958 -0.5037186 -0.54107857 -0.32614875 -0.3954538 -0.79369956
0.027936695 0.41906893 -0.7423508 -0.37319887 -0.39697012 -0.1941034 0.32325107 -0.18788002
-0.3693855 -0.48761237 -0.48422375 -0.52463937 -0.7752016 -0.5819305 -0.60734797 -0.7122732
-0.52704746 -0.40791282 -0.041803453 -0.7622441 -0.20258424 -0.5025055 -0.42838842 0.09131716
-0.4087868 -0.6395033 -0.29477066 -0.8701609 -0.120892495 -0.7624053 0.042995807 -0.18584175
-0.60739136 -0.30901656 -0.54644614 -0.5054479 -0.13141803 -0.8415845 -0.28992027 0.23072124
-0.23302688 -0.64751863 0.32575846 -0.44746327 -0.20920794 -0.41057435 0.0004907602 -0.64917856
-0.38904592 -0.56525415 -0.6925086 -0.698797 -0.69945294 -0.31811407 -0.14277606 -0.28981173
-0.6558774 -0.7354613 -0.63776964 -0.7059936 -0.20764017 -0.8528941 -0.35781088 -0.5108634
-0.66131943 -0.69948494 -0.23724039 -0.9154291 -0.089228556 -0.043129575 -0.15821405 -0.66066414
-0.4095616 -0.55009264 0.088449284 -0.78694034 -0.62268776 -0.87490535 -0.57053155 -0.55423725
-0.80500174 -0.8272799 -0.5092217 -0.43404114 0.4559929 -0.2329578 0.05043427 0.30339617
-0.7277189 -0.124308616 -0.32599336 -0.47612175 -0.18565409 -0.43358088 -0.90925217 -0.26840848
0.15330496 -0.2793464 -0.2592364 -0.0603961 -0.50295335 -0.66934526 -0.48296788 -1.0562036
-0.7170368 -0.351569 -0.4765761 -0.68315643 -0.58584744 -0.68610376 0.509064 -0.37605056
-0.3116168 -0.6630766 -0.7472403 -0.5154042 -0.6385652 -0.71441287 -0.3283547 -0.56619185
-0.4687256 -0.4196854 -0.027635708 -0.1710288 -0.69798297 -0.085309096 -0.22354484 0.14847782
0.43647793 -0.23220627 0.3201146 -0.65870535 -0.9313344 -0.16683085 -0.5390795 -0.4987444
0.39301118 -0.48404527 -0.35994536 0.14246427 -0.1687253 -0.45715424 -0.24614505 -0.6221024
-0.46593478 -0.7180735 -0.4064276 -0.21889576 -0.46168315 0.10220641 -0.38545647 -0.40065876
-0.27081543 -0.2361325 -0.6043434 -0.29980218 -0.5968448 -0.38543627 -0.1877009 -0.9399789
-0.014058819 0.03527371 -0.414612 -0.10013863 -0.060664777 -0.34439108 -0.7837146 -0.4116566
-0.4508559 -0.27264133 -0.45274767 0.61384267 -0.36088893 -0.30210054 -0.6792508 -0.86763805
-0.4009835 -0.92396396 0.4178742 -0.6813223 -0.38242772 0.16829206 -0.9565289 -0.4250061
0.54424703 -0.15542723 -0.33986384 -1.0264461 -0.36472934 -0.7012607 -0.88707685 -0.32074404
-0.18837702 -0.40080613 -0.5765343 0.589697 -0.42751068 -0.55559987 -0.4078473 -0.08891095
-0.3343914 -0.3052077 -0.17985657 -0.7670736 0.16859701 0.62093896 -0.5724577 -0.61789757
-0.5036486 -0.38706622 -0.17473835 -0.43280858 -0.71640867 0.49523908 -0.6263854 -0.3306566

model.2.weight f4 [256, 512]
00000000: 794d 123f 2e6c 6a3e 46a3 3abf 1b98 d63d
00000010: 3cab 2abf 9b6e 31be ea2c 033e cd42 d83e
00000020: 7f9b 3dbf 6479 af3d bb43 93be 57b4 18bd
00000030: cbd3 c63f 1e46 0bbf 2bd1 1cbe 8059 49bf
00000040: 6866 c63c 3b82 e43c a3f6 2a3e 01cb ca3e
00000050: 47b5 493f 653f 09be 9521 de3c abf9 9abe
00000060: 319c 81be 96c6 45bf 27ef b7bf a01e c2be
00000070: 298b e4be 1e5e 87be 898b 483e f061 1e3f
00000080: 1531 953d 3f78 58bf 6290 21bf f958 19bf
00000090: e570 6fbe 1d08 3bbd ce9b 1ebf 68c3 56be
000000a0: 848e 8ebf 56e8 a6bf 7590 e6bd 0654 60bf
000000b0: af15 303d f7b5 babe f7c0 82bf b342 42be
000000c0: 05f7 85bf 5237 18bf cfed 333f 84d0 8a3e
000000d0: a69e 56be b0ce bc3e 5e07 b63b de50 58be
000000e0: 285a 12be bcad 0ebf 1d70 bebe 0082 89bf
000000f0: 681e bf3e 727a 9a3f d754 4dbf a168 d33c
00000100: 5307 15bf 429d adbe 8d3e 8d3f a8fd efbe
00000110: e90c a5be 3743 3a3f 73c8 10bf fc15 22bf
00000120: cfed 553d abc3 243f 1b11 03bf 97be c23e
00000130: 975e 26bf 30ba acbd 2f95 883f e7a5 10bf
00000140: c1f7 68bf 64dd b6bf 7168 41bf c04a 2c3f
00000150: c4dd 0c3f 1db1 833c 7d12 4fbe 746e 91be
00000160: 3f87 a8be 3104 df3c 314d 16bf 3a39 48bf
00000170: a9df 4b3e beee 823f c0bc babe c481 403e
00000180: 7d32 92be 365b 7ebe b48f 64be 8200 19bf
00000190: b67a c8bd dcc9 943e bfd4 acbf 2c4b 1abf
000001a0: 622f 89be 1480 4dbe cfff 7dbf 814c d53e
000001b0: 1e3e 05be 21d9 b8bd 7720 85bf 92dc fdbd
000001c0: fd57 1b3f b42a 723f 46cd b7be 72bd 6ebf
000001d0: 9dfd 13bf 27c2 afbd 6c42 76bf 3025 a9bc
000001e0: e963 7f3e a406 57bd fe84 7bbe 6681 2abe
000001f0: c8eb 17c0 b57b 9d3f 613d 0cbf e3e1 7dbf
00000200: 56b6 f3bc 3b39 c9be 8a07 103f d56d 1f3f
00000210: caa4 773f 54f7 73be bc25 18bf cd43 843e
00000220: 6807 cdbe c194 b5be 588a a13f f2c4 703e
00000230: d6d4 67be 07d6 863d 9fdb 263e 50e6 d0be
00000240: 0fcd 643e 87aa 15be 09ed 313f 4c3a 2c3e
00000250: 05b4 c9be 0932 e8be c7ae 04bf ad35 00bf
00000260: 3d6c 053f 67d5 14bd bf72 adbe a2df 0b3e
00000270: fac1 15bf 7fa8 ec3e 756c 613f 7e4d 84be
00000280: 3eb6 04bf 7b31 ba3e a02f 063f f3e2 3dbf
00000290: ec73 88be 633d 1ebf 5e83 85be 6835 42bf
000002a0: f43f b9bf fbac 5abf f74e f9be f708 70bf
000002b0: 4342 6b3f 02d5 613e 60c2 70bf f2da 40be
000002c0: aa6b 07c0 348b 363f cd6f 3bbf 7db3 cebe
000002d0: 1b1e 093f 49b4 1abf 765d 6dbf 0dc1 b7be
000002e0: 9825 4b3e ce24 da3e e949 82be 54eb 68bf
000002f0: 82f8 833f 7606 10bf bd91 843f 94ec 63be
00000300: 668d 1a3f 1660 e93e 2509 e23e 39c2 293e
00000310: eae7 e3be 68f6 06bf af2c d43f b574 eebd
00000320: 1ad6 2bbf f239 bd3e 46a9 07bf d075 1b3e
00000330: 0815 a1be 96de 8a3f 0ef2 22bf cae1 9abd
00000340: 676a 813f 47b2 eebd 3be7 b83e ec86 43bf
00000350: 2ab2 b33f 7ac9 3bbd e259 bebe a0cb ebbe
00000360: fc44 cabc 07aa 91be 0ca3 1ec0 19ab 133b
00000370: cf6b 42bf ea9d 8dbf f1e8 63be 96f7 243f
00000380: 6e72 c8bf a488 e3be c98d 2e3f ba2e d23e
00000390: c18a e13d d268 1bbf 2982 fcbd 123d 12bf
000003a0: 58bc ed3e 278a 633e 7c41 84bd c8f0 d3bf
000003b0: 608e 093f 26ad 463d f70b eabd 1590 b4be
000003c0: 5f8f a3be c70a 5abf 543d cabd 3c76 13bd
000003d0: 6082 8abe 90d2 3fbf 9485 843e 35eb 7c3c
000003e0: 49c4 5abf 4944 51be d460 713e 5e77 293f
000003f0: bc65 1bbd 46ee ddbe 2383 fa3e 7c37 253f
0.57149464 0.2289283 -0.72905385 0.104782306 -0.6666753 -0.17327349 0.12810102 0.42238465
-0.74065393 0.08568075 -0.28762612 -0.03728136 1.5533384 -0.54403865 -0.15314166 -0.7865219
0.024218753 0.02789413 0.16695647 0.39608005 0.7879223 -0.1340309 0.027115623 -0.30268607
-0.25314477 -0.77256143 -1.4369859 -0.3791399 -0.4463742 -0.26438993 0.19584478 0.6186819
0.07284752 -0.8455848 -0.63110936 -0.59901386 -0.2338291 -0.045662034 -0.6195649 -0.20972979
-1.1137242 -1.3039653 -0.11258022 -0.8762821 0.04298943 -0.36466953 -1.0215138 -0.18970756
-1.0466009 -0.5945941 0.7028474 0.2711221 -0.20958957 0.3687644 0.0055550775 -0.21124598
-0.14292204 -0.5573385 -0.3719491 -1.0742798 0.37327886 1.2068617 -0.8020758 0.025806727
-0.582143 -0.3390904 1.1034714 -0.46873212 -0.32236412 0.7275881 -0.5655586 -0.63314795
0.052228745 0.64361066 -0.51197976 0.38036034 -0.6498808 -0.0843395 1.0670527 -0.56503147
-0.9100304 -1.4286313 -0.7554999 0.6730156 0.5502589 0.016075665 -0.20221896 -0.28404582
-0.32915685 0.027223678 -0.58711535 -0.7821232 0.19909538 1.0229108 -0.3647213 0.18799502
-0.28554145 -0.24839482 -0.22320443 -0.597664 -0.0978903 0.29060256 -1.3502425 -0.60270953
-0.26793963 -0.20068389 -0.9921846 0.4165993 -0.13011977 -0.09025789 -1.0400532 -0.12395586
0.60681134 0.9459641 -0.358988 -0.9325782 -0.5780886 -0.085819535 -0.961951 -0.020647615
0.24940456 -0.052496567 -0.24562451 -0.16650924 -2.373766 1.2303377 -0.54781157 -0.991728
-0.02975003 -0.39301476 0.56261504 0.62276965 0.96735823 -0.23824817 -0.5943258 0.25832978
-0.40044713 -0.35465053 1.2620344 0.23512629 -0.22639784 0.06583791 0.16294716 -0.40800714
0.22343849 -0.14615832 0.6950231 0.16819113 -0.39395157 -0.45350674 -0.5182919 -0.500819
0.52118284 -0.03633633 -0.33876607 0.13659528 -0.5849911 0.46222302 0.8805612 -0.25840372
-0.5184058 0.36365876 0.5241642 -0.7417442 -0.2665094 -0.6181242 -0.26076788 -0.7586274
-1.4472642 -0.854202 -0.48693058 -0.9376368 0.9189798 0.22053912 -0.9404659 -0.18833521
-2.1159463 0.7130616 -0.7321747 -0.40371314 0.5356156 -0.60431343 -0.92720735 -0.35889474
0.1983856 0.42606205 -0.25447014 -0.9098408 1.0310214 -0.5625986 1.0356976 -0.22258216
0.60372007 0.4558112 0.44147602 0.16577996 -0.44512874 -0.52719736 1.6576136 -0.11643354
-0.6712357 0.3695827 -0.52992666 0.1518166 -0.31461358 1.0849178 -0.63650596 -0.07562597
1.0110596 -0.116550975 0.36113915 -0.7637775 1.4038746 -0.04584644 -0.3717795 -0.4605379
-0.024691097 -0.28450033 -2.4787016 0.0022532402 -0.7594575 -1.1063817 -0.22256829 0.64440286
-1.5659921 -0.44440186 0.68185097 0.41051275 0.11012793 -0.6070682 -0.123295136 -0.57124436
0.46432757 0.2222067 -0.06457803 -1.6557856 0.5373287 0.04850497 -0.11428063 -0.35266176
-0.3194532 -0.85172695 -0.09874979 -0.03600143 -0.27052593 -0.7493067 0.25883162 0.015436937
-0.8545576 -0.20436205 0.23572093 0.66197765 -0.03793882 -0.4334585 0.48928174 0.6453779

model.2.bias f4 [256]
00000000: ef12 06bf f9fc 303d 3444 cbba 4a62 fbbd
00000010: 02f5 4e3d 54cf b2be a2f0 123f 4606 a43e
00000020: 4b14 f5bd 0278 8a3e 74c7 b7be 4bc1 5e3e
00000030: 1105 9cbe 87fc 7e3b 0f54 05bd 0363 8fbe
00000040: a1f2 6bbe 48a3 1abe 504e 3dbd 9529 e8bd
00000050: bf55 1abd 0f66 c63d 24ab babe 9ec6 ddbd
00000060: 1583 afbd 4b4e cebe fccf d8be 096d 1abe
00000070: c33a 523f 64e1 243e 79a4 c6bd 810b 3dbe
00000080: 6adc 5cbe c659 87be e5ad 513f 3df0 c1bd
00000090: 1542 173e 7dd9 35be e1cf a2be dbe0 2fbf
000000a0: fd4d 583f 9b22 2fbf cac9 8a3d 7a18 8ebe
000000b0: f8a4 d0be cff2 02be e0cd 2dbd 9526 bdbe
000000c0: 90e4 24bc 0ef6 0bbf dffa fb3e 47af 05bf
000000d0: 41d6 2ebe a8f1 7e3e caf8 edbd d29a 05bf
000000e0: 7d59 93bc 36b0 26bd f6bb e1be b10f d8bd
000000f0: 21d8 dcbd ff07 5fbe 63f2 ad3e 5ea5 d0bd
00000100: bccf 33bd 5674 cb3e eb94 95be 821b 03bf
00000110: 1e68 2abd ac52 e9bd 07e1 093e b6fa 95bd
00000120: b9fa 57bd d420 01bf 4e91 1fbd 9cac 96bd
00000130: 5917 c0be 08bd e7bd 0f54 1abc 3452 adbe
00000140: 5201 ebbc 4f1d 0ebe 64f1 e13c cddb f5bc
00000150: d9d1 233b b06f b1bd e8b7 cbbd 4535 51be
00000160: 3c52 96be 3db0 4fbe 3a23 613c c760 b5bd
00000170: 1088 9abe b31a 69bd 71ad 81be ac6b b6bd
00000180: 702d 36bf 168e 23bd 67d3 35be 51ad 36be
00000190: 3fb8 b0bd 9c2e 2cbd 4804 e9be 7845 953e
000001a0: d3c8 4ebd b157 91be 4a13 87bd 165e 05bf
000001b0: cd07 eebe 6659 6abd a8b0 48bf 3302 5cbf
000001c0: 4f16 06bf a55c 9f3d 4702 efbe f273 3a3e
000001d0: f069 f8bd 7a65 cc3d cbd0 d6bd d5e7 96be
000001e0: 2884 0ebe 51ad 323e 1f7e 72bc 87ed 1cbe
000001f0: 2b88 c43e 3b4f f9be ad39 9dbe 8b00 3fbd
00000200: 5918 4abd 1841 3abf 38b2 33bd 9aa3 19bf
00000210: 4dea 87bd 210d ba3d 3cea bcbe 3b8e db3d
00000220: 50c6 4cbe 92ad ac3e ad8b aabe 13dc eabd
00000230: d933 a2bd bf85 b43e e505 0ebe bab0 93be
00000240: b4a2 82be 7f7e 48be b98b 4abe 06db 05bf
00000250: a79d ccbe d9ba bbbe caa9 dabe bc65 b3bd
00000260: bca1 66bf 1e1b 143f 525c 8cbe f4bf 3cbe
00000270: b598 eebd 1482 83be 3736 333e de16 88bd
00000280: 02a1 9cbd 108b 9d3d b1af 0ebf 2c08 f03d
00000290: 279f 82be 8290 54be 2f8c 7c3e a464 a7bd
000002a0: c370 19bd 4a60 e1bc 03d7 d6be 04bd b6bd
000002b0: c7f7 d6bd 62a0 56be 13a4 0cbe 4253 47bd
000002c0: 07d5 b33d 4746 b3be 46ba 6fbe cea1 fdbe
000002d0: ec9c 9fbd 81fd 74bd c8a4 abbe 895c ecbd
000002e0: 199f aabe ba6b 033f 3da8 dfbe 79d2 bfbe
000002f0: 1e1b 8d3d 26d4 1cbe 73cd fc3e 2b9e c0be
00000300: 215b 56be 5da0 a0bd dd9f 9cbd 6489 0d3f
00000310: 6325 363e 144b 05bf 8c96 97be 4809 d83d
00000320: ac5b 193e 4289 8bbd 576d 013f 3ba8 903e
00000330: c44a 96be 1030 15bd d05d 75bd 5248 aabc
00000340: 5d72 82bd 77a0 07bf 0718 993a 5032 dfbe
00000350: b416 05be 489a e6be c740 53bd 32c2 1cbd
00000360: 36e7 13bd cb55 5ebc 6f21 673e 6730 073d
00000370: dfa5 5abe ff26 55bd 75bc a63e 82e0 1c3d
00000380: 5419 8ebe 28e5 c4bd 3dff a2be e03e e6bd
00000390: 667a ab3e 6cb6 cbbc e27c cb3e 7667 4abe
000003a0: fee4 95bd ea87 1bbd 2f40 57bd 2552 a53e
000003b0: 2d21 96bd 9592 26bf 1167 4abe e3a5 183d
000003c0: 887d 5b3e e8fa c3bd a246 a13e 2448 d1bd
000003d0: d09c 0cbe e37b 81be 1877 b1be 90ab cf3e
000003e0: ab79 c1be 79b3 8cbe 621c 723e c0a9 35be
000003f0: 4755 9bbe 0c08 2abd eb48 4b3e 3182 fabc
-0.5237264 0.043210004 -0.0015507997 -0.122746065 0.050526626 -0.34923804 0.57398427 0.32036036
-0.11966761 0.27044684 -0.35894358 0.21753423 -0.30472615 0.0038907842 -0.032550868 -0.28005227
-0.23041774 -0.1510135 -0.046217263 -0.11336056 -0.03767943 0.09687435 -0.36458695 -0.10828899
-0.08569924 -0.40294108 -0.4234618 -0.15080656 0.82120913 0.16101605 -0.096993394 -0.1846142
-0.21568456 -0.2643568 0.81905967 -0.0946965 0.14771302 -0.17758746 -0.31799224 -0.6870248
0.84494 -0.6841218 0.067767695 -0.2775305 -0.4075086 -0.12787937 -0.042432666 -0.36943498
-0.010064259 -0.54672325 0.49214837 -0.52220577 -0.17073919 0.24896872 -0.116197184 -0.5218936
-0.017987007 -0.04069539 -0.44088715 -0.10549868 -0.10783411 -0.21780394 0.3397399 -0.10187791
-0.043899283 0.39737195 -0.29215178 -0.5121385 -0.0416032 -0.113927215 0.13464747 -0.0732321
-0.052729342 -0.50440717 -0.038956933 -0.073571414 -0.37517813 -0.11315352 -0.009419455 -0.33851779
-0.028687153 -0.13878368 0.027580924 -0.030012036 0.0024996905 -0.08663881 -0.09947187 -0.20430477
-0.29359615 -0.20282073 0.013741309 -0.088563494 -0.30181932 -0.056910228 -0.25327638 -0.089072555
-0.7116308 -0.039930426 -0.17756425 -0.17839552 -0.08628892 -0.042036638 -0.4551108 0.29154563
-0.05048449 -0.28387216 -0.06595476 -0.5209669 -0.46490327 -0.057214163 -0.78394556 -0.85940856
-0.5237779 0.077813424 -0.46681425 0.18208292 -0.12129581 0.099802926 -0.10489043 -0.2947375
-0.13917601 0.17448927 -0.014800577 -0.15324984 0.38385138 -0.4869326 -0.30708066 -0.046631377
-0.049339626 -0.72755575 -0.043871135 -0.6001526 -0.06636486 0.090845354 -0.36897457 0.10720488
-0.19997525 0.33726174 -0.3330969 -0.11467757 -0.079200454 0.3525829 -0.13869436 -0.2884577
-0.25514758 -0.19579504 -0.19779862 -0.5228733 -0.3996403 -0.3666599 -0.42707664 -0.08759639
-0.9009054 0.5785388 -0.27414185 -0.184326 -0.1165022 -0.2568518 0.1750115 -0.066449866
-0.07647897 0.0769254 -0.55736834 0.11720309 -0.2551205 -0.2075825 0.24662851 -0.081734926
-0.037461054 -0.027511735 -0.41960916 -0.089227706 -0.104964785 -0.20959619 -0.13734464 -0.048663385
0.08780866 -0.35014555 -0.23410901 -0.4953751 -0.07793602 -0.059812073 -0.33524156 -0.11541087
-0.33324507 0.5133625 -0.43683043 -0.37465265 0.06889938 -0.15315303 0.49375495 -0.37620673
-0.209332 -0.07843087 -0.07647679 0.55287766 0.177877 -0.52067685 -0.29607046 0.10548645
0.14976376 -0.06813289 0.50557464 0.2825335 -0.29353917 -0.03642279 -0.05990392 -0.020786438
-0.06369469 -0.52979225 0.0011680134 -0.43593073 -0.12996942 -0.45039582 -0.05157545 -0.038271137
-0.03610917 -0.013570259 0.22571348 0.033005144 -0.21352337 -0.052039143 0.32565656 0.038300045
-0.277537 -0.096140206 -0.31835356 -0.11242461 0.3349182 -0.024867259 0.39743716 -0.1976603
-0.073190674 -0.037971415 -0.052551445 0.32289234 -0.073305465 -0.65067416 -0.19765879 0.037267577
0.21434605 -0.09569341 0.314992 -0.10218838 -0.13731694 -0.2528983 -0.34661174 0.4056058
-0.37788138 -0.27480677 0.2364364 -0.17740536 -0.303385 -0.04151158 0.19852035 -0.030579658

model.4.weight f4 [128, 256]
00000000: b8a7 66be 8fa3 03bf add3 7fbe 5cf4 f43d
00000010: aa04 203f 1a0a c33e d7f1 6d3e 464b c93e
00000020: fa5a 2f3c 8b74 40bd d3b1 ce3f 04a0 153f
00000030: c11f 923d a821 823f 0f6d bf3d 96a7 173d
00000040: 3ba1 08bc dba0 943f 68ad a8be 65f9 3a3d
00000050: 94eb 443f 1b93 943e f6a1 023f c0be cebc
00000060: 576d cebd 13bb a63e cfed 80be c884 9fbe
00000070: c0a5 9d3e 9b62 cc3e 6f73 89bd f588 f43d
00000080: 5eb5 bd3c 5bfb 1abe d29e e23e ea10 a6bd
00000090: 5e8b 943e c14e 97bd 7c07 e0bd 095e 85be
000000a0: cbe2 17be b223 b5be 05a5 ee3d 224a 14be
000000b0: 5af8 5c3e 1a29 8f3e ba6f 893d f1ac 0c3f
000000c0: b70f 033e d13f 1d3f 7895 06bd 79c6 043f
000000d0: 4024 963e b2df d53c dc35 e1be 4e8c e4bd
000000e0: 3085 d9be be70 ea3d 6235 69be a266 68bd
000000f0: 06c1 973d 8aa1 c7bd e7dc 07be e715 a3bc
00000100: d957 a3be 0ec3 b9bd 2f95 803e 3134 983e
00000110: 91d9 1cbe c563 d1be 0bab 683e c04c a5bc
00000120: ebad 09be 9f5f 6d3d 18de aabd 51d5 50bd
00000130: aae4 e0be d275 2b3f c205 09bf 5d5e 743e
00000140: 46dc c03d 8d67 be3e cf9d 02bf dd88 cc3c
00000150: 0016 9c3e 4097 b93e cfd1 143d 4fe8 c1bd
00000160: 0c5c 923c 29bc 3f3e c0aa 05bf e978 6a3d
00000170: 9d3b d83e 21a2 bfbc 1a9e 473e 5b6e a23d
00000180: b0bd c9bc 4132 1d3d 097f 26bf e349 213e
00000190: 8183 35be 653c bdbd 5911 e03d f422 e43e
000001a0: a77b 04be 9ccd 6a3f 9002 5d3e 8b1e 473f
000001b0: ad36 a6bd ebfe 5fbd 4a72 6c3f 5ec2 723d
000001c0: 6f3f 913e de10 3e3f 01d8 1c3e af3c 253f
000001d0: fc06 b6bd a502 74be 1f88 9dbc 0030 fabe
000001e0: 4b49 9c3d 0f36 cebd 0040 163f a7a8 003f
000001f0: 0be5 7cbf 521f 2fbf d087 92be 100f 793e
00000200: b469 ffbd 2534 0bbe 7ef7 af3d 7b72 6ebe
00000210: 103d 543d 32e2 91be 3e52 0f3e 9a54 a13e
00000220: 3d43 b9bd 5d6f 4dbe 812d 0a3e af8d eabd
00000230: f4a4 f53b 2d10 693e 394b 6cbe 0e0a 53be
00000240: c1ec 79be 50c3 323d 4435 103e cfc3 703f
00000250: 3eeb acbe 9372 bf3e 8ea4 a43e 7dd2 473e
00000260: a0f6 a53e 64f1 1d3f 9044 d63d e869 643e
00000270: 6238 603d 8354 0b3e 265a 643e 7aca f3bc
00000280: cf1b d7bc c4f5 bb3e d232 b63d 8961 093f
00000290: eaf2 843d 1541 523e e1c6 0b3c b024 1abd
000002a0: 3485 d53d 42d8 debd f153 41be 3a6b c63c
000002b0: 0cb0 33be 9557 78be b516 123e af74 d33e
000002c0: 82b4 693e 429e aa3e 47bb 9cbe 2ae4 563f
000002d0: f624 aebd e06b 5cbd ce42 193e b43b 92bd
000002e0: 1a69 e5be 5f02 4dbf 35d1 ca3e 9c78 873e
000002f0: d279 fb3e 6b6e f5bc b8b7 be3f d352 223f
00000300: 5b40 e5bc aa83 9ebd cfbe 513d 1bda ab3e
00000310: b8d8 213f 0495 49bd aa22 8d3e 1ff4 053f
00000320: cc4d b43e cf47 353e 4067 0cbe 8eec 6e3f
00000330: 46dc 09be 381a 83bc c492 17bc 4ed6 0fbe
00000340: af4a 993e 061e 9f3c 509f 3bbe cd6c 663d
00000350: 0cbc 80bd 4dc1 fbbc a7fb e4bd f73a 03be
00000360: ca74 5b3e 334f ec3e d67d ee3e e940 2a3e
00000370: bf5c 363d 234d e03d 42d7 bc3e 8956 ac3d
00000380: 8671 a33e 57e1 043e ffc5 bb3e be78 edbd
00000390: f2a5 fbbe 4552 8cbd 96e3 863d 159c 24bf
000003a0: 0647 aa3d 8f4e f5bc 4bb7 50bd 9e8b 0fbf
000003b0: f9f7 a93e b460 15bf 59e4 353f 7227 923f
000003c0: 136a 823f b21e 7ebd 31ee 773d a19e 733d
000003d0: bf90 b83c 8759 603d 7fa4 c13e 5c38 023f
000003e0: f778 903e abc7 343e a57a c03e b44c a63e
000003f0: d741 cf3e 31a4 ff3d f879 563f 0e2f b2bc
-0.22524917 -0.51421446 -0.24983092 0.1196067 0.62507117 0.38093644 0.23236786 0.39315242
0.010702843 -0.046986144 1.6148018 0.5844729 0.07134963 1.0166521 0.09346973 0.037025057
-0.008339222 1.1611589 -0.32944798 0.045647997 0.76921964 0.29018483 0.5102838 -0.025237441
-0.10079449 0.325646 -0.25181434 -0.31155992 0.3079052 0.3991898 -0.0671147 0.11940185
0.023157772 -0.15134947 0.44261795 -0.08108695 0.2901258 -0.07388068 -0.109389275 -0.26048306
-0.14832608 -0.35378796 0.11652569 -0.14481404 0.21579114 0.27961046 0.06710763 0.5495139
0.12798963 0.614255 -0.03285739 0.51865345 0.29324532 0.026107643 -0.43986404 -0.111595735
-0.42484426 0.11447285 -0.2277427 -0.056738503 0.07409863 -0.09747608 -0.13267861 -0.019907905
-0.3190296 -0.09070407 0.25113818 0.2972732 -0.1531737 -0.4089643 0.22721498 -0.020178199
-0.1344525 0.05795252 -0.08343142 -0.050984684 -0.43924457 0.66976655 -0.5352441 0.23864122
0.09417014 0.37188378 -0.51022047 0.024967605 0.30485535 0.36248207 0.0363329 -0.094681375
0.017866157 0.18724121 -0.5221367 0.057244215 0.4223298 -0.023392739 0.19493905 0.07931205
-0.024626583 0.038378004 -0.6503759 0.15750842 -0.17725946 -0.09240035 0.10940809 0.44557917
-0.12937795 0.91719985 0.21583009 0.7778098 -0.08115897 -0.054686468 0.9236189 0.059267394
0.28368708 0.7424449 0.15316774 0.6454572 -0.08888051 -0.23829134 -0.019229947 -0.48864746
0.07631167 -0.100689046 0.58691406 0.50257343 -0.9878699 -0.68407166 -0.28619242 0.24322152
-0.12471333 -0.1359411 0.08592127 -0.23285858 0.051816046 -0.28492886 0.13996217 0.31509858
-0.09046028 -0.20062013 0.13493921 -0.11452805 0.0074964706 0.22760077 -0.2307557 -0.20609304
-0.2440672 0.043643296 0.14082819 0.9404878 -0.33773226 0.373921 0.32156795 0.19513889
0.32414722 0.6169646 0.10462296 0.22306025 0.05474127 0.13606457 0.22300014 -0.029759634
-0.026258377 0.36710942 0.08896412 0.5366445 0.06491645 0.2053264 0.008531303 -0.037632644
0.10425797 -0.10881092 -0.18879677 0.024221051 -0.17547625 -0.2425216 0.14266475 0.4129996
0.22822765 0.33323866 -0.3061163 0.839419 -0.085031435 -0.053813815 0.1496689 -0.07140294
-0.4480675 -0.80081743 0.39612737 0.26459205 0.4911638 -0.029959878 1.4899817 0.6340763
-0.027984789 -0.07739957 0.05120736 0.3356484 0.6322131 -0.049214378 0.2756551 0.52325624
0.35215604 0.17703174 -0.13711262 0.93329704 -0.13462934 -0.016003713 -0.0092513 -0.14046595
0.29939792 0.019423496 -0.18322492 0.056256104 -0.06285867 -0.030731821 -0.111808114 -0.12815462
0.2143127 0.46154174 0.4658038 0.16626324 0.044522043 0.10952213 0.3688298 0.08414943
0.3192255 0.12976585 0.36674497 -0.11595295 -0.49150044 -0.06851629 0.06586377 -0.6430066
0.08314328 -0.029944686 -0.05095605 -0.56072414 0.33197 -0.5835068 0.71051556 1.1418288
1.0188621 -0.062040992 0.06052989 0.059477452 0.022529958 0.05477288 0.37820813 0.5086725
0.2821729 0.17654292 0.3759357 0.32480395 0.4047992 0.12482489 0.8377986 -0.021750953

model.4.bias f4 [128]
00000000: 7d59 453e 3221 62be e7b3 da3e 752f a0be
00000010: 78f0 4a3f 6e44 e73e 62f7 e7be 41c7 003e
00000020: 53a0 9abe 9355 2c3e c113 9dbd 754c 0fbf
00000030: ef16 743d ee52 9cbe 98fd 093f f67c 92bf
00000040: 5346 c83e 98d1 a73e 3abf f9bd 751b fabe
00000050: 64c6 b63e a3b7 35bd 0367 133f 36be 1a3f
00000060: 2e79 64bd 879d ad3e 8ad8 013f ae9d c73e
00000070: 46ea 673e 59f5 89bd e092 6c3e ad4a b5bc
00000080: 320f 67be b4a6 85bf 51e7 8b3e c1fb 17bf
00000090: d2a6 18bf 3a5f ba3d 375f a63e 590f c93e
000000a0: d7f4 513f ab1c 61bf 4efd 8b3e a2f5 13bf
000000b0: c55f 04bf ac1b 76bc 1367 0a3e 71c1 f3be
000000c0: 24fc f83e f538 8ebe db1e 3abf 5e5b 57be
000000d0: 98cc 6a3d ed95 44bd e4ce aebd e648 2ebd
000000e0: 6c15 923e a0e1 45bf e9b7 ef3d 00cc 873d
000000f0: 2a66 1b3f a0d0 aebe 19e8 713f cc18 833d
00000100: 9e27 ae3e 3ecb 9ebe a6e8 93be 6fd1 783d
00000110: d682 9b3e 622e d0be 8a4c d43e b99f 1dbe
00000120: a4b3 3bbe 35c7 88be 4f3c a4be 2ccf 8fbe
00000130: eb8c 4cbe 3e38 02bf e1e6 283e c9f5 283e
00000140: e734 72be b1f8 363f 568f f5bd 40ed 0c3f
00000150: 5d65 7abe 1cc5 46bf 409a be3d 2445 f73d
00000160: b4dd e73e 7550 27be 4cd8 0b3f 6e46 923f
00000170: d4db fdbd 4bd1 ef3c 66d7 80be 9368 0b3f
00000180: c391 89be 04f6 57bf 4c89 ce3e 4f49 1a3e
00000190: 5caf cf3d 69e9 e63c c3da 103e c1db 133f
000001a0: 3488 f9be 75f3 5f3d f3b1 15bd c9f7 96be
000001b0: d113 aa3e f8d9 0ebd 4f14 463f 9051 b53e
000001c0: 6771 61bd 6852 e93e d7ac 36be 23db b43e
000001d0: 1269 213f 632c 44bf 6fc6 3a3c 1f26 00bf
000001e0: 66f4 0c3e 8e58 4dbf 1699 1fbe 981c ec3e
000001f0: d6c6 f23e 3086 78bd a4e1 cabc 31ff 2abf
0.19272418 -0.22082976 0.4271538 -0.31286207 0.79273176 0.45169395 -0.45305926 0.1257601
-0.30200443 0.16829519 -0.076697834 -0.5597604 0.059592184 -0.3053202 0.5390258 -1.1444385
0.39116153 0.32777095 -0.12194677 -0.48849073 0.35698235 -0.044364583 0.5757906 0.6044649
-0.05577963 0.33909246 0.5072104 0.38987488 0.22647962 -0.067362495 0.23102903 -0.022130335
-0.2256439 -1.0441499 0.27324918 -0.5936852 -0.5962955 0.09100194 0.32494518 0.39269522
0.8201422 -0.8793437 0.27341694 -0.5779668 -0.5170863 -0.015021246 0.13515882 -0.47608522
0.48629868 -0.2777783 -0.7270333 -0.21030948 0.057324022 -0.047994543 -0.08535555 -0.04254999
0.2853197 -0.772974 0.11705 0.06630707 0.60702765 -0.34143543 0.9449478 0.06401214
0.340146 -0.31014436 -0.28888434 0.060746606 0.30373257 -0.40660387 0.41464645 -0.1539296
-0.18330246 -0.26714483 -0.32077262 -0.28087747 -0.19975631 -0.5086707 0.16494323 0.1650001
-0.23652993 0.7147322 -0.1199023 0.55049515 -0.2445273 -0.77644515 0.093067646 0.120737344
0.45286334 -0.16339286 0.5462692 1.1427743 -0.123954445 0.029274603 -0.25164336 0.5445644
-0.2686902 -0.84359765 0.40339124 0.15067028 0.10140869 0.02818747 0.14145951 0.5775719
-0.48736727 0.054675538 -0.03654666 -0.2948592 0.33218244 -0.03487584 0.7737474 0.3541379
-0.05503979 0.45570683 -0.1783937 0.35323438 0.6305095 -0.7663023 0.011399849 -0.5005817
0.13765106 -0.8021325 -0.15585741 0.46115565 0.47417325 -0.060674846 -0.024765797 -0.6679564

model.6.weight f4 [64, 128]
00000000: fd18 f3be 0a14 1dbf 4016 7a3f ae96 c2be
00000010: cc5a c83e 2cd7 3e3f 8921 3a3f f709 f93e
00000020: be7a 273d ca0c 863e 0305 fdbe f2a2 ccbe
00000030: 09fa 4b3f 7fac 24bf 07c5 81bf 5c39 ddbd
00000040: 82b4 0ebf ef02 bfbe 5fde 11bf 956e 5fbf
00000050: d623 6b3e 958b 31bf a98c dc3e 6947 9b3d
00000060: 831f 493f 36a2 25be bcf3 da3e 054c 22bf
00000070: d77e 303e 8515 353e 483b a7be bd17 473b
00000080: 0684 cb3e c062 19bc f924 1ebe d670 f93e
00000090: e9cc 8d3e ef96 a5be 4c52 85be 23cb 553f
000000a0: 393c 133f 4696 5cbe 4294 753e d281 9fbe
000000b0: eb21 d6bd 31ce 683e 7a51 88bb 8f94 09bf
000000c0: a7ba 88bc 2048 5b3a 9e35 0fbd d2d2 25bf
000000d0: 353f 23be 0ed7 e5bd 9a26 413f aa6c b23e
000000e0: beeb e63e 6931 ef3c 1205 4ebf cc4d a1bd
000000f0: 16d1 81be 7863 b43e 57cd 8b3f cfe6 353d
00000100: 108b 10bf 4bb1 c8be d19d 1d3e e978 163e
00000110: 515c 3bbf 0ee5 e5bd 4338 9fbe bb9d cf3c
00000120: c038 2b3f 8aad c73e a2f9 373e e6d1 053f
00000130: f06d e03d 533e 2bbe 9158 b8bd 4b5d bdbe
00000140: 599c 39bf 8636 e3bd 1e19 393d 87f9 46bf
00000150: 4420 50bf aa92 16bf 90c0 d5be e417 48bd
00000160: aa2b c0bd d29c 9ebe 927d 983e 85a0 e33e
00000170: 9030 e63e 4118 0abf 1292 a3be 1aa9 bc3d
00000180: bd6d 003f 5509 5c3d ad92 2bbf a0c1 433f
00000190: e0fc 1bbf bb8e 0ebf 680c 6a3e 903c a0be
000001a0: 185f e8be 38ba 13bf 62c7 d13d 0de8 273d
000001b0: 7d13 4d3f b0d5 5e3e ed67 e33e e905 06bf
000001c0: 585d 8abe 1be8 013c 41c6 863f d036 74be
000001d0: 7ecb 7f3e f179 59bf f245 fdbe c11c 053e
000001e0: fce4 1fbd 6f2f 8ebe 42de 6cbe a5df 3fbf
000001f0: 2ed7 bdbe 9b2d 2e3c 071d 9d3f 8f16 b2be
00000200: 9a0f a7be 8832 b93d 89e3 6f3d 3cc6 6b3f
00000210: 140b 32be ea1f bebd 1848 f03e a3e1 ca3d
00000220: b6d3 8e3d 10e7 d2be 95bc 133e 3cf2 1f3f
00000230: 60a2 69bf a8d5 a3bd 2978 77bd 2af7 02be
00000240: 58ec 073e f2e7 9d3e 2d29 afbe 70b3 193e
00000250: 616c 1a3d a684 51be ecc7 553e 4bcd 06bf
00000260: ed23 2f3f cdf6 18bf 3c0a 8c3e 1bb1 21bf
00000270: 8f37 d63e 4f6b 31be a935 b63e 7367 d2be
00000280: 322a 92bf fe7d 723f a2dd 5a3f d700 dcbe
00000290: 9da6 8c3d 3f07 49be e1ca 0c3e b638 53be
000002a0: a81b 003e 71a0 0b3f b629 dc3d df1c fcbc
000002b0: cba6 6ebc 1d59 403e df0a 5fbe d43d 093f
000002c0: dbcf 3cbe 9c4a ccbd b7d6 fe3d 23d5 2c3f
000002d0: 71e7 7ebf a487 863f 409c c63e a63b 373e
000002e0: 5911 a13d c7a9 793f ebcf e53d 3159 9bbc
000002f0: 942d d2be 55e6 9bbe 9d8d 3dbd e089 7cbd
00000300: a1db 043e 506d c73e e963 5c3e 26da e5be
00000310: 240e 7ebc cfab 223e d412 a63e 7d45 cd3e
00000320: 5ed1 183f 637d 203e 7c33 11bf c6ae e43e
00000330: 7d2c f03e 14b0 0abf f5fe bd3c ca20 d13e
00000340: 3ef2 cabd 1d65 63be d3ff a1be 7abb a33e
00000350: d336 303f f34a 08bf 33ca ab3f eb42 043f
00000360: 3eae 4fbd e487 11bf 5ba6 25bf 2b37 41be
00000370: 057e debd 382a 8ebf 8356 38bf 3725 4bbd
00000380: 1de7 58be b5f9 2ebe 300c 72be 732b 0cbf
00000390: f079 aebe a348 e5be 0396 a13d dcfd 123f
000003a0: ac5a 13bf a047 da3e 42ae 85bc 7233 853d
000003b0: 170c 70bd 7803 003f 4b5e 48be 1586 0fbe
000003c0: 429c 013f 8756 02bf 7c93 dc3e 4a78 15be
000003d0: e89c 73be 5c0b eebe b39e 15be a506 473d
000003e0: 7602 48be accc 8c3d b323 30bd 13ea 96bf
000003f0: bf69 9abe 62ea 0fbf 7251 9b3e ed25 1abf
-0.47480002 -0.613587 0.976902 -0.38005584 0.39131773 0.74547076 0.7270742 0.48640415
0.04088854 0.26181632 -0.49417886 -0.39968067 0.796784 -0.6432571 -1.0138253 -0.10801956
-0.55744183 -0.37306926 -0.56979936 -0.8727811 0.22962889 -0.6935361 0.43076065 0.0758198
0.7856371 -0.1617516 0.4276408 -0.63397247 0.17235886 0.1768399 -0.32662416 0.003037914
0.39749163 -0.009361923 -0.15443791 0.487189 0.27695397 -0.32341716 -0.2603935 0.8351309
0.5751377 -0.215417 0.23982337 -0.31153733 -0.10455688 0.22734906 -0.0041601034 -0.5374231
-0.016690565 0.00083649345 -0.034963243 -0.6477481 -0.1594208 -0.11222659 0.75449526 0.3484853
0.45101732 0.029198365 -0.80476487 -0.07876167 -0.25354832 0.3523214 1.092204 0.04440957
-0.5646219 -0.39197764 0.15392233 0.14694561 -0.7318774 -0.11225329 -0.31097612 0.025343766
0.6688347 0.38999587 0.17966321 0.52273405 0.10958469 -0.16722994 -0.09001268 -0.3698524
-0.7250419 -0.11094384 0.04518997 -0.777245 -0.81299233 -0.5881754 -0.41748476 -0.04885091
-0.09383328 -0.3097902 0.29783303 0.44458404 0.44958925 -0.5394326 -0.3194738 0.09211941
0.5016745 0.053719837 -0.67020684 0.76467323 -0.6093273 -0.5568654 0.22856295 -0.31296206
-0.4538505 -0.5770602 0.102431074 0.040992785 0.8010786 0.21761203 0.44415227 -0.5235277
-0.2702434 0.007928873 1.0529252 -0.23849034 0.2497997 -0.8495169 -0.49467427 0.1299925
-0.039036736 -0.27770564 -0.2313166 -0.7495063 -0.37078232 0.01063099 1.2274483 -0.34782836
-0.3262909 0.09042841 0.058566604 0.92099357 -0.17387038 -0.09283431 0.46930003 0.09906318
0.069739744 -0.41191912 0.14427407 0.62478995 -0.9126339 -0.07999736 -0.060417328 -0.12789598
0.13273752 0.30841023 -0.34211102 0.15009856 0.037701014 -0.20460758 0.20877045 -0.52657
0.68414193 -0.5975159 0.27351558 -0.63160866 0.41839263 -0.17326091 0.35587814 -0.4109455
-1.1419127 0.947235 0.85494435 -0.4296939 0.068677165 -0.1963167 0.13749267 -0.20627102
0.1251055 0.5454169 0.10750143 -0.030775486 -0.014566134 0.18783994 -0.2178149 0.5360997
-0.18438666 -0.09975168 0.12443297 0.6751272 -0.995719 1.0510144 0.38791084 0.17893848
0.07864637 0.97524685 0.11221298 -0.018963428 -0.41050398 -0.30449167 -0.04627763 -0.061654925
0.12974407 0.38950586 0.21522488 -0.44892997 -0.015506301 0.15885852 0.3243624 0.40092078
0.5969447 0.15672831 -0.56719184 0.44664592 0.46908942 -0.54174924 0.023192862 0.4084533
-0.09909485 -0.2220654 -0.3164049 0.3197897 0.68833655 -0.53239363 1.3421081 0.5166461
-0.05070328 -0.5684798 -0.64706963 -0.18868701 -0.1086388 -1.1106634 -0.72007006 -0.049596038
-0.21181913 -0.17087443 -0.23637462 -0.547538 -0.34077406 -0.4478198 0.078899406 0.5741861
-0.5756023 0.4263277 -0.016318444 0.06503953 -0.05860528 0.5000529 -0.1956722 -0.14015992
0.50629056 -0.5091328 0.43081272 -0.14596668 -0.23790324 -0.46493042 -0.1461132 0.04859032
-0.19532189 0.068749756 -0.043002795 -1.1790184 -0.30158803 -0.56217015 0.30335575 -0.6021412

model.6.bias f4 [64]
00000000: 1371 003f a83f a6be 8915 453f 89f1 123d
00000010: 44c0 3e3e 2e05 433f 233b fd3d a0f8 313f
00000020: 1f21 263e 68d9 593e 9b83 a9bf 3e95 b33e
00000030: 3c5a c13c bfac 9f3e b11f fd3e 805e 323d
00000040: 4a7e b2bd d86d a73b 9047 7d3e b85b 76bd
00000050: fbbd fe3d 3c36 32bf f424 12bf 97f8 a93d
00000060: cc1d e53d 6fc0 813d 9a1c b93d 9493 193f
00000070: 7bbc 91bf 0ed9 19be 929b 3d3e f81b cabd
00000080: 06f7 84be dbb1 28bf 6f12 323f 0ea2 9b3d
00000090: 3b74 cabd 5bc0 893e 2605 cbba dee1 d9be
000000a0: e0f0 e33d 74ba 9d3e 9bd4 013f e92a 833d
000000b0: afc0 1a3e 3d1c 633e 551e e23e fe6d bb3e
000000c0: ef96 eabd a1b4 2cbd 2df5 8f3e f493 99be
000000d0: 9d09 853e 47b0 473f cda5 07bf 9716 9e3e
000000e0: a51a 0f3e 8c69 143f 2bf1 cf3d d3ce 2dbf
000000f0: 2116 503e 8666 b3be 4984 18be 3d61 82be
0.5017254 -0.3247044 0.76985985 0.035874877 0.18628031 0.7617978 0.12364795 0.69519997
0.16223572 0.2127434 -1.3243288 0.350748 0.023602597 0.31186482 0.4943824 0.043547153
-0.08715494 0.00510953 0.2473433 -0.060146064 0.1243858 -0.69614005 -0.57087636 0.08299368
0.11187324 0.06335532 0.090386584 0.5999081 -1.1385645 -0.15024206 0.18516377 -0.09868616
-0.25969714 -0.65896386 0.6955938 0.07599269 -0.098854505 0.26904568 -0.0015489205 -0.42555135
0.11129928 0.30806315 0.50715035 0.06404669 0.15112565 0.22178741 0.44163767 0.36607355
-0.114545695 -0.04216445 0.28116742 -0.29995692 0.25983897 0.7800335 -0.52987367 0.3087661
0.13975008 0.5797355 0.10153421 -0.67893714 0.20320942 -0.35039157 -0.14894213 -0.25464812

model.8.weight f4 [2, 64]
00000000: 836e 413f 14df fbbd d1fc 173f 99c5 9fbe
00000010: 8a0e 7f3e 0e10 3c3f 495f 52be cb1f 64bd
00000020: aae1 eabd 5297 6ebe baf7 8dbe 424e 08be
00000030: a830 263e 0d34 12bc bcf9 c2be b5b9 29be
00000040: 012f 043d f0b6 05bf 13bd 03bf 94a6 cfbc
00000050: 3225 393e 2ffd 48be 14ef d5bd fec0 29be
00000060: 5111 243f 53e7 2b3f b636 55be 9655 a73e
00000070: c7ef 35bf 01d4 4fbe 34fd 0e3f b842 d13e
00000080: 64c2 e0be 266f cdbd a1d3 b03e 2526 3dbe
00000090: f1e9 82be 05b5 4d3d 6296 e3ba 6fd6 48be
000000a0: e3d7 bebc f863 8abe f142 16bf 0604 d2bd
000000b0: 4f35 a5be ec7e 59be 2f8f 243f 42be f93e
000000c0: cea2 723c 0500 1f3f 1658 c7bd cbae dbbd
000000d0: 6b3e 023e 5953 393f 43eb b73d 3a38 eebd
000000e0: b33a 64be f608 d13e 119d 133f 778d 713e
000000f0: faeb 703e d63a d43d e51b 21be cd14 cf3e
00000100: e2cf 13bf 250b 053d 958f d4be e7e7 233f
00000110: 43e5 8fbe 33a0 b3be 100c 5b3e e10a 1f3e
00000120: ee38 3b3e 4126 023d 2373 513f 02f6 ed3d
00000130: bd38 533d 4080 033c ba5f 963c 33b5 7a3e
00000140: d9f1 b93e 3aea 013f b5d1 093f b328 61be
00000150: 1c86 b9bd 0997 c53d 3638 b4bd b024 b63d
00000160: a1b3 9ebe d3dd 16bf 16a9 bbbc 1b60 58bc
00000170: ebff cc3e 0db6 a23e b351 23bf 80e4 1fbf
00000180: aa41 2a3f 3a61 0a3f a4bc 34bf 02c4 95bd
00000190: 2a90 0cbe 8346 84be 2948 a8be fd9d 8a3b
000001a0: 4ff5 aabe 0862 723c c021 8d3d 62f5 913e
000001b0: 3e2c 163f ac97 363e 934e 28bf 4240 05bf
000001c0: e643 d4ba 1010 3ebf 43ae 6d3e 173e c13e
000001d0: 855f ebbd 0cd2 62bf 3ef5 0d3c c78f 7ebe
000001e0: 47fd 453e ae01 16bf 8b93 1fbf 2b17 afbe
000001f0: 0042 abbe c437 51be b113 2dbc 19bc d5bd
0.7555925 -0.12298408 0.5937014 -0.31205443 0.2490789 0.73462 -0.20544161 -0.055694383
-0.11468823 -0.23299912 -0.27728063 -0.13311103 0.16229498 -0.008923543 -0.38081157 -0.16574748
0.03227139 -0.52232265 -0.5146038 -0.025347985 0.18080595 -0.19627832 -0.10445991 -0.16577527
0.6408892 0.6714985 -0.20821652 0.32682484 -0.71068996 -0.20295717 0.5585511 0.40871215
-0.43898308 -0.100309655 0.3453646 -0.18471582 -0.25569108 0.05022146 -0.0017363543 -0.1961305
-0.023296302 -0.27029395 -0.58695894 -0.10254674 -0.32267234 -0.21239823 0.6428098 0.48777968
0.0148093235 0.62109405 -0.09733598 -0.107266985 0.12719123 0.72392803 0.089804195 -0.11631818
-0.22288017 0.4082715 0.5766154 0.23589121 0.23527518 0.103627846 -0.15733297 0.40445557
-0.5773908 0.03248133 -0.41515794 0.6402573 -0.281046 -0.3508316 0.2139132 0.15531494
0.18283436 0.031774763 0.8181631 0.11619188 0.05156778 0.008026183 0.018356193 0.24483185
0.36317328 0.50748026 0.5383561 -0.21988182 -0.090587825 0.09647948 -0.08799784 0.08893716
-0.3099642 -0.58932227 -0.022907775 -0.013206507 0.40039 0.3177952 -0.6379654 -0.6245804
0.66506445 0.54054606 -0.7060034 -0.07312776 -0.13726869 -0.25835046 -0.32867554 0.0042302595
-0.3339028 0.01479388 0.06891203 0.28507525 0.5866126 0.17831296 -0.65744895 -0.52051175
-0.0016194552 -0.7424326 0.23211007 0.37742683 -0.11492828 -0.88601756 0.008664427 -0.24859534
0.19334899 -0.58596313 -0.6233451 -0.34197363 -0.33448792 -0.20431429 -0.010563777 -0.104362674

model.8.bias f4 [2]
00000000: 7abd 343f 59b0 34bf
0.7060162 -0.70581585
