models/02-11-2023_13-46-52__multi_AE_opt_sched.model (torch, 853347 bytes, 22 tensors)

encoder.0.weight f4 [64, 79]
00000000: c9e9 893d f450 95bd 3d20 f3bd 789e c23d
00000010: 51de fb3d 6c46 8d3e 9f66 de3d 5d9d 723b
00000020: 80cc 243e 0270 5e3d ed24 1b3e 5adc 52be
00000030: f0f1 a73d 2d51 833d 2604 ac3e 676d e13d
00000040: b6e0 7b3d 9516 3dbe 49b4 d43c 191d 823d
00000050: d957 29be 9000 87bd 4a07 42be a1d6 343e
00000060: 896a c63c a31c ab3d a6c1 3bbe 9914 f6bd
00000070: 8048 823e b8e3 133f 72e5 9abd 185c f2bc
00000080: da7d 973d 6221 e8bd 5864 ea3d 182c b9be
00000090: bcbc 6bbe c94d a5be b4ed 35be 9caa b23d
000000a0: c052 c6bd c8a4 66be 034d 883e 6f4b 283e
000000b0: c13f e7bd 8af4 27bd f467 bfbd 1cae 683e
000000c0: 5319 8fbe 5c3e 7cbd e27d 9e3d 47b5 37bd
000000d0: b088 2bbe 05c0 a23c 9bf1 0d3e 2701 753d
000000e0: 4099 4cbe 1a87 b23d abc0 493e 7846 96bd
000000f0: b239 853d 85ef 1c3e 95b4 85be 3fa4 b8bb
00000100: 99c8 3e3e 92da bb3d 50df 11be 1032 773d
00000110: bdbf b9bd 8dd8 0dbe b956 6cba 845a 603e
00000120: 78ef f4bd f761 0bbe 95b1 96b9 6ad9 e23d
00000130: 8b2a d73d 59d6 453e 109a 823f b96d bdbc
00000140: 02e8 843d 5bc3 38be 3725 8bbd 9bee 883e
00000150: c7b2 a73e 72fc 1bbe c1d6 39be b41f c83d
00000160: d496 453d 3884 99bd 9195 a0bb 3caa a53c
00000170: 7033 b5bd b51c 9e3d b63a 323d a1f2 26bd
00000180: d055 753e 6da9 10be 7d96 a0bd 970c 6739
00000190: d955 9d3e 439f 1e3e 3d9f adbd 8133 493d
000001a0: 5b4a 89bc df52 083e 328d 59bd 3ac4 95be
000001b0: 0118 9fbe 7ac0 b9be d831 72bd 0820 07be
000001c0: d44e ebbd d172 d5bd b953 06be 9ccd 89be
000001d0: fa0e cbbd 76dc 853d aa9b dfbd aae9 ee3d
000001e0: c95c 87be 1be4 a03e d58f 38be 1788 5fbd
000001f0: 539d aabe fc3e 4fbe 288a 45be b580 cebd
00000200: 0d2e 05be 5ea9 843d bf12 8d3d 3b4d 1b3d
00000210: 226f a13d f788 bd3d 48c0 88bd 7bac 133e
00000220: 27b5 4a3e d471 3f3d 28ac da3c f5f9 b9bd
00000230: 66f1 cf3d 7e6c bdbd a0ca 733e 0d1c 1dbd
00000240: abd5 b83d 7401 793e d25c 30bd 6b3a 0c3e
00000250: 6117 6d3d cc3d 4cbe 36a4 633e 383d 063d
00000260: d310 debd 6758 34bd 0f43 a53d 876a 1cbe
00000270: 04cd 61bd 9d41 f6bc 78a8 033d a89b 693e
00000280: 6261 fb3e b4ab 553d 4e18 eb3e 1bcf 993e
00000290: 6639 743e a69a a2bd e220 193e 6ec6 0fbe
000002a0: 7bdd ff3d 9924 343e d51b 2a3e 4c38 723e
000002b0: 6698 6cbe 66ee 6a3d e691 973e d605 a63e
000002c0: 1171 423d aee2 b4bd 77a2 bd3e c35e a93e
000002d0: 0469 d13d e961 153c 3e01 d03d 46d3 67be
000002e0: cfe0 b73e 181e 42bd 0a65 91be 0f3a e13e
000002f0: 3380 18be 726d a0bd fe04 13be 2c7d 8dbd
00000300: c154 47be 086a 823e 15ee a23d 6381 b53e
00000310: 2bfc 0c3e 4ff9 933c 3d4c eebd 732c 08be
00000320: 2743 bb3d c031 50bd 9479 abbe aef7 5fbd
00000330: e1a8 aebd 83ec 9abe ca57 f1bd 2508 73be
00000340: b0a4 04be ceb0 84be e759 78be e0f8 eebc
00000350: 560e afbc f673 833d 8a8a d63d 234e 453e
00000360: dc04 96bd 3e93 4fbe a6b9 2abe 58af d13c
00000370: 68bb c63e f031 063f 6747 a83d ec53 103e
00000380: 89f1 cebd a788 c0bd e8cc 4c3e 717c a73d
00000390: 3bbd c1bd 164c 10be fe20 1c3e b5e7 54bd
000003a0: aa4b b73c e7c6 acbe a727 123d 7f34 7d3e
000003b0: 604a 39bc 0ce7 083c 512c 293d c34d 243e
000003c0: fe3b 183c 88e8 bebd 8353 a53d 46b5 9abe
000003d0: 156d aebe b0cb ddbe 3bcc a9bd c09b 27bd
000003e0: 70ba b43e 1edf 1abe 8626 14be 4b6d 41be
000003f0: 44cc 49bd f27d 5cbd 216f 183e 6433 3a3d
0.06734044 -0.07290831 -0.11871383 0.09502882 0.12298263 0.2759279 0.10859417 0.0037020065
0.16093636 0.054306038 0.15150805 -0.2059187 0.08200443 0.064119674 0.33596915 0.11007195
0.061493598 -0.18465646 0.025964873 0.06353206 -0.16537417 -0.06591904 -0.18948093 0.1766
0.024220722 0.083550714 -0.1833559 -0.120156474 0.25445938 0.57769346 -0.075632945 -0.02958493
0.07397051 -0.11334492 0.1144492 -0.36166453 -0.23021215 -0.32285908 -0.17766458 0.087239474
-0.09683752 -0.22523797 0.26621255 0.16435026 -0.11291457 -0.041004695 -0.09345999 0.22722667
-0.27949008 -0.061582908 0.07738854 -0.044850614 -0.16751361 0.019866953 0.13861696 0.059815552
-0.19980335 0.08717175 0.19702403 -0.073376596 0.06505145 0.15325744 -0.26114336 -0.005634814
0.1863121 0.09172548 -0.14245343 0.060350478 -0.09069774 -0.13852139 -0.0009015608 0.21909529
-0.119597375 -0.1361159 -0.00028742538 0.11076625 0.10506161 0.19320048 1.0203266 -0.023123609
0.064895645 -0.18043272 -0.067942075 0.26744542 0.32753584 -0.15233019 -0.18148328 0.09771672
0.048239544 -0.07495922 -0.004900642 0.020222776 -0.088477015 0.07720319 0.043513022 -0.040758733
0.23958516 -0.14127131 -0.07841203 0.00022034567 0.3072956 0.15490441 -0.08477638 0.049121384
-0.016759088 0.13312863 -0.05311317 -0.2925127 -0.31073 -0.3627966 -0.059129566 -0.13195813
-0.11489645 -0.1042229 -0.13117875 -0.2691468 -0.09914966 0.0653619 -0.109183624 0.11665662
-0.26437977 0.3142403 -0.18023618 -0.054573145 -0.33323154 -0.2023887 -0.19290984 -0.10083143
-0.13005848 0.06477617 0.06888341 0.03791545 0.07882525 0.092546396 -0.066773 0.14421265
0.19795667 0.046739414 0.026693419 -0.09080879 0.10153465 -0.09249209 0.23807764 -0.03835683
0.09025129 0.2431696 -0.04305727 0.1369416 0.057883624 -0.19945449 0.2223061 0.032773226
-0.10843053 -0.04402962 0.08069431 -0.15275012 -0.05512716 -0.030060584 0.032143086 0.22813284
0.49097735 0.052165702 0.4591698 0.3004082 0.23850021 -0.07939653 0.1495395 -0.14040539
0.12493416 0.17592086 0.1661218 0.23654288 -0.2310501 0.05735626 0.296035 0.32426327
0.04747111 -0.08832298 0.37038013 0.3308011 0.10225108 0.009117582 0.10156487 -0.22639188
0.35913703 -0.04739198 -0.283974 0.43989608 -0.14892654 -0.07833375 -0.14357373 -0.0690864
-0.19465925 0.2547152 0.07955567 0.35450277 0.1376807 0.018063216 -0.11635635 -0.13298206
0.09143668 -0.050828695 -0.33491194 -0.054679565 -0.08528305 -0.3025857 -0.117843226 -0.23733576
-0.12953448 -0.2591614 -0.24253045 -0.029171407 -0.02136914 0.06418602 0.10475643 0.19268088
-0.073251456 -0.20271012 -0.16672382 0.025596306 0.38814855 0.5241995 0.08216744 0.14094514
-0.10104663 -0.09401064 0.2000004 0.08178032 -0.09459921 -0.14091524 0.1524696 -0.051978786
0.022374947 -0.337455 0.035682347 0.24727057 -0.011309236 0.008355867 0.04130203 0.16045289
0.009291647 -0.093216956 0.08072569 -0.30216426 -0.34067598 -0.43319464 -0.08290907 -0.04092002
0.3529849 -0.15124175 -0.1446782 -0.18889348 -0.04926707 -0.05383105 0.14886142 0.045459166

encoder.0.bias f4 [64]
00000000: 98da 7abe 7ffb 9dbc f8bb 9a3d 35cd aebe
00000010: 4881 e13d 0dba 79be 80b5 d43e 5358 b93e
00000020: bba0 94bd 1d74 7dbe bf9c 3bbe 47e6 f93d
00000030: 30dc 9ebd 6cd5 9a3e 66c1 a53d b50f 40bd
00000040: eb3e 253e 5460 5d3e 23b7 b33c 4dc6 c23e
00000050: 7c01 443e c215 3fbd a3c0 61bc ca55 ab3e
00000060: 5085 81bc bde3 7e3c e1ff 86be 8a43 e4bd
00000070: 5968 88be e5ae c83d a5db 583d f181 e8be
00000080: 2259 603e 9e07 ce3d 5a19 733e 841f ac3d
00000090: e50e 023e 7d40 37be 81fc 87be 4ff3 8f3e
000000a0: 5d49 a73e ef9f 2c3d 8aff 3e3e f2ef 37be
000000b0: 0a0d b63e 0ea6 0d3f ba92 823d 8f69 86bc
000000c0: 1042 41be 0b5f b2be 3fba 8bbe dfd1 40be
000000d0: f6b5 5bbe b13c 7c3e c374 943e cc99 ae3c
000000e0: e736 353e 599b f2bc f0ec 13be c12a 17bf
000000f0: fcf2 e73e 5f99 d33d 8701 69be 6ff3 333e
-0.2449745 -0.019284962 0.075553834 -0.34140936 0.110109866 -0.24387379 0.41544724 0.362002
-0.072572194 -0.24751325 -0.18321513 0.12202125 -0.07756841 0.30240953 0.080935284 -0.04688998
0.16137283 0.21618778 0.021937912 0.38041916 0.19141191 -0.04665161 -0.013778838 0.3346389
-0.015810639 0.015557227 -0.26367095 -0.111456946 -0.2664211 0.097989835 0.052943844 -0.45411637
0.21909001 0.100600466 0.2374014 0.08404449 0.12700994 -0.17895694 -0.26559833 0.28115317
0.3267316 0.042144712 0.18652168 -0.17962626 0.35556823 0.55331504 0.06375642 -0.016407756
-0.18872857 -0.34838137 -0.27290532 -0.1883006 -0.21456131 0.24632527 0.28995332 0.02131357
0.17696725 -0.029615091 -0.14445853 -0.5904961 0.4530257 0.103319876 -0.22754489 0.17573331

encoder.2.weight f4 [32, 64]
00000000: e256 01be a9d2 1fbe e507 6b3d 0ad7 26be
00000010: 2e60 5dbd 3f5b a33d 9ab7 5c3e 2983 32bd
00000020: 27b1 c3bd 4c00 813d 9f75 0fbe 23a8 8ebc
00000030: 4b3e 593e 4049 e63c 9428 d93d fdcb 59be
00000040: 516e 033f e607 7abb 2493 b93c a6e5 94be
00000050: 961e 47bd b550 c63d 1090 98bd 9632 a6bd
00000060: 8019 debe 9231 f8bd 3136 a53c 6270 933e
00000070: 2cbe 593e 90a5 303e 0813 f53d 094b 91bd
00000080: 76d9 0ebd 79f4 6abd ad0b 023e 9cd6 27be
00000090: 40dd acbd a077 63be ad75 68be ec1b a93d
000000a0: a040 adbb c87e 07be d452 593e a4ed cb3d
000000b0: 42f8 acbe f8dc 97bd 1d8c 863e 6d6e 2ebc
000000c0: f638 abbd e0c5 b43d 8eb6 2bbe df4c b2bd
000000d0: 1bb4 d63e fff4 1abe ca7f 5fbb 3b71 27be
000000e0: 4e3a 43be 5bb4 cebb 5fc8 f03c 7b6e 9cbc
000000f0: 17d3 a1be 11ca 8bbe 348b 5fbb 2548 df3d
00000100: 0131 c83c dd7a bc3e b6b4 c5bc 5e79 ffbd
00000110: 4008 94bc aad3 493d 1bc7 893e b49d 41be
00000120: dbd1 463d 72cb 2ebe 301d 563e fd3c e73d
00000130: 75a7 e9bd 98ae 86be 8650 5fbe 903b d03d
00000140: f80b 2a3c 684c 0c3d 4b9f bc3e 860f 1cbe
00000150: b5e1 643c 62d7 e73d 4d3e 253d d358 1a3e
00000160: 8295 94be b1d0 6abd 0a09 2cbe c803 8b3e
00000170: 1268 06bd b5fb d63d c704 b93d 0397 7f3c
00000180: 1fcb 633d a68e b0be 56a2 cb3d 1059 33be
00000190: 948f 4d3a 654e 50be 3b25 d23c a365 2cbd
000001a0: 5a9b b73e 05e2 dc3c 8921 be3d 4f91 e03e
000001b0: 4006 97bd 131b fdbe 4540 c7be d521 7abc
000001c0: 1ba3 29be 12a6 8c3e 109b 353e 1444 4ebe
000001d0: 4e21 063f cbbd 88bd 4ccb 15be 8439 69be
000001e0: 7558 13bc bab0 8a3c 978d 213e 2769 1b3d
000001f0: ef09 db3c 464d fe3d 6b4b b3ba 8b15 04be
00000200: 2567 abbe 3f81 99bd 89f6 bcbd 738b 8f3d
00000210: 47f0 92bc ad01 36be 9dff d5bd 7ca6 24be
00000220: 10dd 6b3c c6e6 d23d 5ec8 77be b133 283e
00000230: 68f5 5bbe 1aa2 bf3d 43cf ed3c be7d cabd
00000240: 4cae 11bd 20e7 e0be 19b0 ee3d 9b25 b23c
00000250: 959b 513e e422 19be 9487 03be c648 23bd
00000260: 9391 ad3c 51ce 69be e113 043e c5c4 3f3e
00000270: 3ce2 9dbd f4fd a13e 3fb8 14be efe2 eabe
00000280: 1422 d43e f09c 4c3d 7e3f 7cbe b746 9e3e
00000290: c403 863d d89f bc3d b784 2cbe 396b 0e3f
000002a0: b91c 03be e476 923e 0891 343e 26f1 9fbd
000002b0: 29c2 83be 6ac3 a53d a23a 92be be56 3a3d
000002c0: 3953 06be 37ac a2be 39ed e43e 6cac 8dbe
000002d0: df07 963e 0c34 c8be c9bb 25bd d199 293e
000002e0: 0106 0f3e b11f 8bbe d71a 2c3e 7cda a8bd
000002f0: 3799 b93d b329 28be e491 413e 1d04 7f3d
00000300: 915b 703e 5233 27bc ee1a 54bd cc59 6bbe
00000310: 4fa3 c4bd 6440 91be f5be 3d3e 26b5 c9be
00000320: d1f3 c93c e2e0 173c 1d79 693e b34c a53d
00000330: 70b5 b3bc a0ea b13e e3c1 2a3c 820a 0ebf
00000340: cd3d 443e 8b4e c6bd 9b2b 213e 8ce3 94be
00000350: 8fbd e6bd 5953 aabc ca80 6c3c f1d3 843e
00000360: e5a5 89be 466c 823d dcb0 873d 9ff4 dabe
00000370: d57c e0be 093f 853e 113c 31be e8ad fa3d
00000380: c660 193e 734b 9abe 2fb4 163d f511 96be
00000390: 6bb2 f4bd 8f03 683e dc76 76be 7f34 81be
000003a0: 2730 edbc f0ef b3bd 1e95 52bd 70c4 c83d
000003b0: 2b3a 00bb 41f3 993e 29d6 27bd 5a75 853e
000003c0: 946d 133e 3cc7 8d3d 7b5d 6a3c 17f4 6d3d
000003d0: 0ca0 3c3e 316b 9e3d d402 78bd 0599 9ebe
000003e0: b547 e33d aaad 21bf 1ee5 33be 0b25 02bf
000003f0: 56ab 4f3e 25ae 3a3e 6695 633d c847 af3e
-0.126308 -0.15607704 0.057380576 -0.16292968 -0.054046802 0.07976388 0.21554413 -0.043582115
-0.095552735 0.06298885 -0.14009713 -0.017414158 0.21215169 0.0281111 0.10603443 -0.21269222
0.51340204 -0.003815168 0.02265317 -0.29081458 -0.048613153 0.096833624 -0.07449353 -0.08115117
-0.4337883 -0.1211883 0.020167442 0.2879668 0.21263951 0.17250657 0.119665205 -0.0709439
-0.034875356 -0.057362054 0.12699766 -0.1639046 -0.084406376 -0.22213602 -0.2270114 0.08257279
-0.005287245 -0.13231957 0.21223003 0.09957436 -0.33783156 -0.07415193 0.26278773 -0.010646445
-0.08360474 0.08826804 -0.16768858 -0.08706068 0.41934285 -0.15132521 -0.0034103268 -0.16351788
-0.1906521 -0.006308121 0.02939242 -0.01909565 -0.3160636 -0.27302602 -0.003411007 0.10902432
0.02443743 0.36812487 -0.024134021 -0.12474321 -0.01807034 0.049274124 0.26909718 -0.18907815
0.048539978 -0.17069796 0.20909572 0.112909295 -0.11408893 -0.2630508 -0.21808061 0.10167611
0.01037883 0.034252554 0.3684028 -0.15240297 0.013969828 0.11320378 0.040342618 0.15072946
-0.29020315 -0.05732793 -0.16800323 0.27151322 -0.032814093 0.10497228 0.09034114 0.015599969
0.055613633 -0.34483832 0.099430725 -0.17514443 0.0007841524 -0.20342405 0.025652518 -0.042089116
0.3586071 0.026963243 0.0928374 0.43860862 -0.07374239 -0.49434718 -0.3891622 -0.015266855
-0.16566126 0.27470452 0.17734933 -0.20143157 0.5239457 -0.06676825 -0.14628333 -0.22775847
-0.008993258 0.016929973 0.15776668 0.037942078 0.026738135 0.124170825 -0.0013679093 -0.12898843
-0.3347713 -0.07495355 -0.0922671 0.0700902 -0.017936839 -0.17774077 -0.10449145 -0.16079134
0.014395967 0.10297923 -0.24197528 0.16425969 -0.21480334 0.0935709 0.029029494 -0.09887265
-0.035566613 -0.43926334 0.11654682 0.021746447 0.20469506 -0.14954716 -0.12844688 -0.039864324
0.02118758 -0.2283261 0.12898208 0.18727405 -0.077091664 0.31639063 -0.1452341 -0.45876262
0.4143225 0.049954355 -0.24633595 0.30913326 0.06543687 0.09210175 -0.16847502 0.5563236
-0.12803926 0.2860633 0.1763345 -0.07809667 -0.2573407 0.08093913 -0.28560358 0.04549288
-0.13117684 -0.31772014 0.44712237 -0.2767061 0.2930288 -0.3910221 -0.04046229 0.16562583
0.13967134 -0.27172616 0.16807114 -0.082447976 0.090624265 -0.16422157 0.18903309 0.062259782
0.2347243 -0.010205107 -0.051783495 -0.22983474 -0.09601461 -0.2836944 0.18529876 -0.39396018
0.024652394 0.009269925 0.22800107 0.0807127 -0.021937102 0.34749317 0.010422203 -0.55484784
0.191642 -0.0968295 0.1573929 -0.29079854 -0.11266624 -0.020791696 0.014435003 0.25942948
-0.2688438 0.06368308 0.0662553 -0.42764756 -0.4384524 0.26024655 -0.1730807 0.12240201
0.14978322 -0.30135688 0.03679293 -0.29310575 -0.11948093 0.22657607 -0.24068779 -0.25235364
-0.028953625 -0.08785999 -0.05141174 0.098030925 -0.001956592 0.300684 -0.040975723 0.26066095
0.1439727 0.069227666 0.014304514 0.05809411 0.18420428 0.07735289 -0.060549572 -0.3097612
0.110976614 -0.63155615 -0.1756787 -0.50837773 0.20280203 0.18230493 0.0555624 0.34234452

encoder.2.bias f4 [32]
00000000: 17d5 65be 11a8 9fbd c535 7ebd 66b7 19be
00000010: a7d4 2fbd 3626 d5bc 83b5 4d3e 5f4d 983e
00000020: 07b6 25be 3369 b0bd 8af5 32be 087f 53be
00000030: e611 a33d ba87 c83d 00f5 8e3e 67e1 a5bd
00000040: 96d3 ffbd eaee 44be d12d 183e e5e0 6abe
00000050: bc88 49bd 974c 9dbe 9504 e0bb 41eb cfbe
00000060: 1950 d03d 15ea bb3d 838b 653d 38df 3e3c
00000070: c40d 133d a402 82be 0a6c 443e d6bb 89be
-0.22444569 -0.07795728 -0.062062997 -0.15011367 -0.04292741 -0.026019197 0.20088772 0.2974653
-0.16182719 -0.08613815 -0.17476478 -0.20653927 0.07962398 0.09791513 0.27921295 -0.08099633
-0.12491529 -0.19231763 0.14861228 -0.22937353 -0.049202666 -0.30722496 -0.0068364837 -0.40609172
0.101715274 0.09175507 0.056041252 0.011649899 0.0359018 -0.2539264 0.19181839 -0.2690112

encoder.4.weight f4 [40, 32]
00000000: aa56 3f3e c9bd 913d d3f2 903e 55b3 f33e
00000010: 4291 25be 03e1 bdbe ce9c 4a3e 3936 34be
00000020: ed13 b43d 43e5 cfbe c8ac e1bd 6238 203e
00000030: 6f50 4e3e 6854 143c e1f3 a4be 9ebb c53e
00000040: 64b1 f63d 0d1c 2dbe 698e fa3e 1426 aa3d
00000050: d567 c9bd 17b7 643f 2823 f7be 9bb6 ba3e
00000060: 5fd0 04be c60e 79bd ebe0 51bd 45f8 063e
00000070: ac95 a4be a26f b23d d867 523e c5b0 9f3e
00000080: 88ce 8cbe d992 a7bd b6dc 55be e22d f9bc
00000090: 38c4 ac3b 2326 9dbe 9aab f2bd 46fa 873e
000000a0: 6c2c 96be f23c 6a3e a210 5e3d 0e44 c6bd
000000b0: fa77 693d 3a7f 73be dd4d cbbe 2e03 353c
000000c0: 7489 37bf 5f2e 3f3e f45d d03e c9aa debe
000000d0: 650b c23c 2aad b93e 5945 25bd c0db e2be
000000e0: 2021 8f3e 1bcd 0d3e 5a42 83bd 80b5 263d
000000f0: 86aa 9e3c 9b2f 053e 2e98 2cbe ab4b 2f3d
00000100: 9cfb 6b3e beb9 5c3e d8b8 87be 36c6 fd3e
00000110: abc5 a1bd 2ceb edbe 58a6 eebe 133a 89be
00000120: d8b1 af3e f6c0 843e f2a3 08be cff3 dd3d
00000130: 4eea 583b 3287 c63e 518c b0bd ddb6 9b3e
00000140: eb16 ad3e 875b d8be 0682 2ebe 1e30 29be
00000150: 0c76 4abd 6b1a 153f 945a 04bf 579c b6be
00000160: d1c5 be3e ed72 103e e11a 2d3e 5f0d e0be
00000170: 2a2c bd3d 8392 06be 67be ccbe 8986 37be
00000180: 6887 44be 9d9c 823e 8b4d 0d3e c4c2 89be
00000190: 258c 7f3d 5a40 ef3b c977 413e 3ddc 0ebe
000001a0: 4585 41be 1bc5 9dbe bcf3 b53e f16a 8ebe
000001b0: cdf0 a13e 951b d5bd 0037 33be 784c 0d3e
000001c0: ea0c 87be f57a 5bbe dc4b 10be 154a 88be
000001d0: 1165 1cbf 69b8 8fbd effa 4b3e 63b3 03be
000001e0: d92e 223d 7d0b 933e 54c1 87be 2811 0cbf
000001f0: 3a68 513c ee43 5cbd feba b7be 2d2a e7be
00000200: 1ee3 7c3e 0f90 ca3e 5a76 b53e 8b8d f8be
00000210: a416 97bd 64e5 1abd 8557 b2bd 5bdd 913e
00000220: 3d47 d03e c0fc 5ebe b519 c53e 9e59 c1bd
00000230: d85d e2bd 06e2 29bf c16b 15bf 0c01 543c
00000240: f434 0d3f c861 a9bc 2823 9a3e 96bc 24bd
00000250: e5f5 e23d dea1 683f ce05 c9be d4e3 5c3e
00000260: 3b52 b4bd 8d7f d33e 3abd 5b3e 426f 203e
00000270: f4b1 0f3e b586 d43e 5472 0cbe 1d74 c23e
00000280: a132 803d 5c9e dd3e f3e3 f1bc 5c37 79be
00000290: 0320 743e 8da2 11be 08d9 5dbe 2c2e e8be
000002a0: c781 863f 9320 08be a2fb 7abe 45a8 593e
000002b0: 143d 8fbe 3e85 b7bd c08b c03d f3b7 fd3c
000002c0: 899b 333f c494 9f3e fded 0dbe 429f b63d
000002d0: 018d 893d 725d 693e 1f07 87be 192b 6c3e
000002e0: b8f7 8cbd f1ca cb3e 9904 3a3e 3eb6 313d
000002f0: 1d9f 18bd 020d 7a3e 78a5 97be e570 953e
00000300: f3f7 09be a016 01bf 1f81 6abe e52c b2be
00000310: 1af2 ec3e 28ea 9abe 85c0 d1bd 9135 feba
00000320: 2409 5dbe 153b 0cbe 538a b53e a185 f43d
00000330: ed8b a43e 893d a2be 6446 47bc 2a19 233e
00000340: c186 893e f6d6 6dbb 03f4 a9be b8cd b4bd
00000350: bf1f 7b3c 4774 983e 967c 203e 5d10 52be
00000360: ac0d bfbd c26e 04bc 883d 843e be13 56be
00000370: c1d9 fb3e ec04 33be 9b8d a1bd 5efa 08bd
00000380: 0edc 82be b2ac 6a3e b022 48bd b698 ba3e
00000390: 9b82 d6bd fe24 debe f83b 483e 9dda 633e
000003a0: 4ead d83d d792 11be 6bd0 2cbe b2d7 983e
000003b0: 0ceb 18be fda6 8b3e 8233 26bd 6348 87be
000003c0: 0bcd a63e 196a a0be 012d 273e 3293 92bd
000003d0: 6c57 153d f4c1 d2be 8d95 b33e 1bda 5f3e
000003e0: 598e b23d fbda bfbd a4f0 76be 7ccc 1a3f
000003f0: ffa8 61be fb97 833e 93b9 47be 8a60 5a3e
0.18685403 0.07116277 0.2831026 0.47597757 -0.16168693 -0.37085733 0.19786379 -0.1759881
0.08792863 -0.406046 -0.110192835 0.15646508 0.2014787 0.009053327 -0.32217315 0.38619703
0.12045553 -0.16905232 0.48936775 0.08308044 -0.098342575 0.8934187 -0.4826901 0.36467442
-0.12970112 -0.060805105 -0.05123989 0.13180645 -0.3214544 0.087126985 0.20547426 0.31189552
-0.2750132 -0.08182306 -0.20884976 -0.030417386 0.0052724145 -0.30693159 -0.11849137 0.2655813
-0.29330766 0.22874811 0.05421508 -0.09680949 0.056999184 -0.23779002 -0.39707842 0.011048121
-0.7169411 0.18670033 0.4069668 -0.43489674 0.023687074 0.36264926 -0.04034934 -0.4430828
0.2795496 0.13847773 -0.0640914 0.040700436 0.019368421 0.13006441 -0.16854927 0.042796772
0.230452 0.2155523 -0.26508212 0.49565285 -0.0789903 -0.46468484 -0.46611285 -0.2680212
0.34315372 0.25928468 -0.1334379 0.108375184 0.003309864 0.3877502 -0.08620513 0.3041295
0.33806548 -0.4225733 -0.17041788 -0.16522262 -0.049428985 0.58243436 -0.5170071 -0.35666153
0.37260297 0.1410634 0.16904785 -0.437602 0.09236939 -0.13141827 -0.39989015 -0.17922415
-0.19192278 0.2551011 0.13799112 -0.26906407 0.06238951 0.0073013725 0.1889335 -0.13951202
-0.18898495 -0.30814442 0.35537517 -0.27815965 0.3162903 -0.104056515 -0.1750145 0.13798702
-0.2637704 -0.21433623 -0.14091438 -0.2661902 -0.61091715 -0.07017595 0.19919942 -0.128614
0.03959546 0.28719702 -0.26514685 -0.5471368 0.012781197 -0.05377572 -0.3588485 -0.45149365
0.24696013 0.39563033 0.35441858 -0.4854549 -0.07377365 -0.03781642 -0.08708099 0.28489193
0.4067935 -0.21776104 0.38496175 -0.09440921 -0.110530555 -0.6636051 -0.58367544 0.012939703
0.55158925 -0.020676509 0.30104947 -0.040218912 0.11082057 0.9087199 -0.3926224 0.21571285
-0.08804747 0.4130825 0.21458903 0.15667441 0.14032727 0.41509023 -0.13715488 0.37979212
0.06259657 0.4328488 -0.02952764 -0.24337524 0.23840337 -0.14222164 -0.21664822 -0.45347726
1.0508355 -0.13293676 -0.24510053 0.21255596 -0.27976286 -0.08960961 0.09401655 0.030971503
0.701592 0.31168187 -0.13860317 0.08917095 0.067163475 0.22789553 -0.2637262 0.23063315
-0.06883186 0.3980327 0.18165816 0.04338669 -0.037261117 0.24419025 -0.2961843 0.29187694
-0.13473491 -0.5042515 -0.22900818 -0.34799877 0.4627846 -0.30256772 -0.10241798 -0.0019394626
-0.21585518 -0.13694413 0.35457096 0.1193955 0.32138005 -0.31687573 -0.0121627785 0.15927568
0.26860622 -0.0036291457 -0.3319398 -0.088283 0.015327393 0.29776213 0.15672526 -0.20514055
-0.093287796 -0.008083047 0.25828195 -0.20905969 0.4918957 -0.17482346 -0.07888337 -0.033441894
-0.25558513 0.2291744 -0.048861206 0.36444634 -0.1047413 -0.43387598 0.19554126 0.22251363
0.1057993 -0.14216171 -0.1687638 0.29852062 -0.14933413 0.2727584 -0.040576465 -0.26422414
0.3257831 -0.31330946 0.16325761 -0.071569815 0.036460325 -0.411636 0.35075036 0.21860544
0.08718557 -0.09367939 -0.24115235 0.6046827 -0.22037123 0.2570189 -0.19504385 0.21325889

encoder.4.bias f4 [40]
00000000: 6f96 37be 4886 993e fa67 71bd 1575 253e
00000010: 789b eebd 319c 81be 3af9 f3bc 1087 9a3d
00000020: ddad a7bd 4651 f43d 553f 7b3d 7856 1a3e
00000030: a27e fc3d f733 debd b4be 4e3d 1aa4 87bd
00000040: 7a72 13bd 935b 58be 1704 023d 8b34 86bd
00000050: 403e 4a3e 461a 583d e445 2fbe 6c89 c13c
00000060: 39fc 873d ad0b 343e 5e14 36bb 5ee9 65bc
00000070: 5c7b 3d3c 7604 63be 6b86 2fbd c81a 123e
00000080: 955b 32bd e434 843e f222 08be c6a3 2e3d
00000090: f9e3 55bd 9804 153c b9dc 8f3b 542c ccbd
-0.1792848 0.2998526 -0.05893705 0.16157945 -0.11650747 -0.25314477 -0.029781926 0.075452924
-0.08187459 0.11929564 0.061339695 0.15072048 0.12328841 -0.10849755 0.050474837 -0.06623097
-0.035997845 -0.21128683 0.03174218 -0.065529905 0.19750309 0.05275943 -0.17116505 0.023625098
0.066399045 0.17582579 -0.0027783136 -0.01403269 0.011565056 -0.2216967 -0.0428528 0.14268029
-0.04354437 0.25821602 -0.1329458 0.042636655 -0.052219365 0.0090953335 0.004390326 -0.099693924

decoder.0.weight f4 [32, 40]
00000000: 6b1f 973d be59 35be 2b04 08be ce1d f4bd
00000010: 8fa9 423e c0f8 36bc 717e b0bc 44b1 afbd
00000020: 1227 fe3e a1dd 4dbd 756d 93be 09be 203e
00000030: 4dbd 753e 177d eebd 1764 ff3d e29f 923d
00000040: 8d9f c83d b22a b6be 79bc b83d 6967 0e3d
00000050: 7168 bd3c 1bdd d83d 0cd3 37be 8014 b53c
00000060: d6b9 2dbe 3c00 35be d477 303e 76f2 c3bd
00000070: 35d4 823e f88a 05bd a095 20bd d11b c7bd
00000080: c68e 6bbe 878b c23d 7942 eabd dd66 1f3e
00000090: 5652 49bd ecc2 8b3e dbfe 8bbd bc9e 3f3e
000000a0: 3984 47bd f800 a6bd 12d5 823d b284 f63d
000000b0: bbf7 e63c 7786 87bd e914 973e 25ac 133e
000000c0: 4736 3cbd ea4e fe3b c815 4fbe 3707 09be
000000d0: 243f 9c3e be44 0a3e c85e b7be a0fb ecbc
000000e0: 16e6 cdbd 3c83 373e b03c 063e 0238 b63e
000000f0: 2df1 a8be 120b da3c c138 84be a88b c0be
00000100: 82b2 dd3c fde0 723d 427f 883e ce17 febd
00000110: c201 3c3d b0a7 c63e d09f e53c 1aa7 3ebe
00000120: 85d8 58be bba0 aebe 7476 703e 9047 1cbc
00000130: 510d a1be c9b4 d23e 5d9c d3be 1134 6f3d
00000140: 5016 9dbc 0178 d73d a377 77be dacf a0bb
00000150: b990 8c3e dcae b7bd a80e b1be 3e42 8c3d
00000160: 57e9 26be 7119 81bd 6ea6 143e 9ad4 163e
00000170: 1c98 3a3e afee 7c3d df66 f4bd c3c7 50bd
00000180: 9ba7 2b3e bce5 8fbe 2d25 89bd 853e b13e
00000190: 6f34 a5bd 2fbc a53e 8f23 3cbe bfc6 a5be
000001a0: 1e6e 41be b4db 143e 3f44 84bd c2ae 913e
000001b0: 7ac3 22be e3a2 643e ee64 59bd 3ffb 923d
000001c0: e514 cdbe 6502 42bd 0ec0 833e 5401 283e
000001d0: e4a9 333e 3054 e7be ef3f 853d 05c6 72bd
000001e0: 16e9 2a3d 8cdb 7abe b675 cdbe 3aec 2a3c
000001f0: e233 c73d 98f0 7e3e 29b2 76be 8421 6e3d
00000200: dd52 273e 02e7 8ebd 3fe1 073f 7254 6dbe
00000210: d66b c5bd 76e6 193d fa00 083e 8e42 a7be
00000220: 24d9 713e 07a0 16bd b480 04be b28a 9abd
00000230: 7b46 5f3e 8e4c 76be 6f4d d33d 864b 693e
00000240: 7e95 6fbd dcea e5bd 6b09 f53d a0a9 f4be
00000250: e7e1 4b3c 2d51 8fbc b205 5e3d aa7a 1d3e
00000260: 1eaf 253e 7670 81be 1a3b 65be 319b b83d
00000270: 80f3 de3d 31f6 2f3e 0e67 3dbd 2735 44be
00000280: e913 6e3e 7ad1 09bf a47c cf3c d95e f0be
00000290: 251a 2cbe 1e8a 113d 6071 89bd 3f07 273e
000002a0: d8fe 5bbe a9d6 8f3e 05a2 ddbc 244a 2ebe
000002b0: 184c 96be 3fb6 98be 0951 80be ec32 19be
000002c0: e92c 9f3d 73af a8bd 4ba3 82be b7a4 763e
000002d0: 2d85 9fbe 2984 89be 6d1d 6e3e dbb7 843d
000002e0: 08e5 91be 424f 0abc deba 963e 38f9 7f3e
000002f0: 3ff5 13be 72ad cfbd 4633 3f3f 2b23 15be
00000300: bfbf 83bd 73ed 91be 5348 a1be 92f2 8fbe
00000310: 128f ca3d 1b86 973e 93f3 32be 6480 7fbd
00000320: 6b49 113e 8732 a33e 1d8e aa3e 219a c93e
00000330: 5cbf 4f3e 7103 08be ab52 87bc bd28 4abd
00000340: cb97 23be 2cde ab3c 7fd4 ac3e ed1f 9dbd
00000350: bfb3 bd3e d590 af3e 6c16 a9be 57b5 4a3e
00000360: d646 753c 18cb ed3d a056 983e 37d2 20be
00000370: 5198 ab3e 042e f1bd 3516 da3d f06a 293d
00000380: 959f c0bd 09dc 4a3c a59c 3dbe ec3d debe
00000390: d873 8e3e 82e8 d1bc a276 b93e 9ef6 acbc
000003a0: fc41 963d b2a1 3b3e 3940 e1be eec4 b53c
000003b0: 16af 59ba aa6b bc3e f165 363e c680 8dbc
000003c0: fed4 773d edeb d43d b7b3 26be e1a9 803e
000003d0: e278 1c3e c9a2 47bd 360b ba3c cc2c f5bd
000003e0: d867 45be 6515 073f 1c43 3c3d 368c 703e
000003f0: 385c a43e 0de2 87bd e47c 93be 88d1 ab3e
0.073790394 -0.17710015 -0.1328284 -0.11919747 0.19009994 -0.011167705 -0.021544667 -0.085787326
0.49639183 -0.05026019 -0.28794447 0.15697493 0.23997994 -0.11644953 0.124702625 0.071594015
0.09796057 -0.3557945 0.09020323 0.03476659 0.02312109 0.105890475 -0.17951602 0.022104502
-0.16965422 -0.1767587 0.17233211 -0.0956773 0.25552526 -0.032603234 -0.039205194 -0.097221024
-0.23003682 0.09499269 -0.1143846 0.15566583 -0.049150787 0.2729715 -0.06835719 0.18712896
-0.04871008 -0.081056535 0.06388296 0.12037028 0.028194299 -0.06617444 0.2950814 0.14421137
-0.0459502 0.007760872 -0.20223153 -0.13381658 0.30516922 0.13502786 -0.358145 -0.028928578
-0.10053651 0.17921156 0.13109088 0.35589606 -0.32996503 0.026616607 -0.2582455 -0.3760655
0.027062658 0.059296597 0.2665959 -0.12406884 0.045900114 0.3879981 0.028030306 -0.18618432
-0.21176346 -0.34107003 0.23482686 -0.009538546 -0.31455472 0.41153553 -0.41330233 0.058399264
-0.019175678 0.10520936 -0.24166732 -0.0049075903 0.27454165 -0.08968899 -0.34581494 0.06848572
-0.1629995 -0.06303681 0.14516613 0.14729539 0.18222088 0.061751064 -0.119336836 -0.050971758
0.16763155 -0.2810496 -0.06696544 0.3461801 -0.080666415 0.32370135 -0.1837294 -0.32378194
-0.18889663 0.14536935 -0.064583294 0.28453642 -0.15894881 0.22327761 -0.05307477 0.07176828
-0.40055004 -0.047365565 0.25732464 0.16406757 0.17545277 -0.45181417 0.06506335 -0.059270877
0.041726194 -0.24497813 -0.4012887 0.010432297 0.09726693 0.24896467 -0.240914 0.05813743
0.16340204 -0.06977655 0.53078073 -0.23176745 -0.09639709 0.0375733 0.13281623 -0.32667965
0.23617989 -0.036773708 -0.12939721 -0.07545985 0.2180423 -0.24052641 0.10317504 0.22782716
-0.058492176 -0.112264365 0.11964687 -0.47785664 0.012443996 -0.017494762 0.05420465 0.15378824
0.16180083 -0.25281113 -0.22385827 0.090139754 0.10886288 0.17183758 -0.04624086 -0.19160901
0.23249783 -0.5383526 0.025327988 -0.46947363 -0.16806848 0.03553211 -0.06711078 0.16311358
-0.21483934 0.2809346 -0.027054796 -0.1702047 -0.2935493 -0.29826543 -0.25061825 -0.14960831
0.07772238 -0.08236589 -0.25515208 0.24086271 -0.31156293 -0.26858643 0.23253413 0.0648038
-0.2849505 -0.008441748 0.29439443 0.24997413 -0.14449023 -0.10140504 0.7468761 -0.14564197
-0.06433057 -0.28501472 -0.31500491 -0.28114754 0.0989057 0.29594502 -0.17475729 -0.062378302
0.14188163 0.31874487 0.3331155 0.39375404 0.20287842 -0.13282563 -0.016518911 -0.049355257
-0.15975873 0.020979963 0.33755872 -0.07672105 0.37051198 0.34290186 -0.3302492 0.19795738
0.014970502 0.11611003 0.2975359 -0.1570519 0.33514646 -0.11776355 0.10648767 0.04136175
-0.09405438 0.012381562 -0.18516786 -0.43406618 0.27822757 -0.025623564 0.36223322 -0.02111369
0.07336804 0.183234 -0.4399431 0.02218863 -0.0008303983 0.3680089 0.17812325 -0.017273318
0.06050586 0.10396562 -0.16279493 0.25129607 0.15280488 -0.04873923 0.022710424 -0.11971435
-0.19277894 0.5276702 0.045962438 0.23490986 0.32101607 -0.06634913 -0.2880622 0.33558297

decoder.0.bias f4 [32]
00000000: 0cef b13c 129c e9bc 81c0 253e 32b7 36be
00000010: 2619 94be 9e6d 343f 7821 593f 6dd8 b2be
00000020: 455e a43f 3553 83bd 4eaa e3bc 1c53 e53e
00000030: e042 82be 30ac 193e 0f1d 81bf 7e16 003f
00000040: 8c1f b7be e106 22be 7bf2 893f 0bf6 933e
00000050: b8a5 14bf de91 2d3f 19ee d1be 14a8 843f
00000060: 7ef8 ebbe aad6 23be d497 e13e 6aa2 2c3f
00000070: d6ef 873f 16c9 533f dea3 f7be 3a54 30bf
0.021720432 -0.028516803 0.16186716 -0.17843321 -0.28925437 0.7047976 0.84816694 -0.34930745
1.2841269 -0.06412355 -0.027791169 0.4478997 -0.25441647 0.1500709 -1.0086993 0.5003432
-0.35766256 -0.15822937 1.0777124 0.28898653 -0.58065367 0.678007 -0.41001967 1.0363793
-0.46088022 -0.15999857 0.44061148 0.67435324 1.0620067 0.8272871 -0.48367208 -0.6887852

decoder.2.weight f4 [64, 32]
00000000: 22c8 cbbb 86e9 0ebf 486d 01bf e8dd f33e
00000010: 19b2 543f bb62 99be e16d f7be 08bb 5b3f
00000020: 88ea 283e 2748 343e 9b4e d8bc 77e8 e3bd
00000030: 9443 61bd afc8 533e ee31 053f 23c8 323f
00000040: 5d77 63be d65b 77be 43d6 12bf cd41 af3e
00000050: 80a7 133e 4ab4 8e3e 4a85 22be 530e e9be
00000060: 9b68 d73e 6cc2 bebd af6e 623f 3364 6b3e
00000070: 192a 8fbe 525c 763e 2d6f 5c3e 3896 2cbe
00000080: b333 f4be 6de0 04bf d52d 02bf ce7c 10bc
00000090: c4ac 3abd 72cd dfbe c04f 90be f422 673f
000000a0: f4e3 fdba c080 603e 086b 80bd e160 81be
000000b0: b573 2d3d 2858 443f b098 46be e4e4 aebe
000000c0: 6236 1ebe 6bbb ef3e 30f1 e3be fcac 9d3d
000000d0: a6bd 15be cdf7 fa3d e84c c2bd 1ff0 5b3e
000000e0: e6ab 0c3f 4786 db3d e40e 86be b7c5 0a3f
000000f0: 15ad 1bbf 83a4 aebe f5c6 923e 1df6 a93d
00000100: 434d 8dbe 6644 18be e73b 123f dcb0 713e
00000110: 5853 863e 1591 0abf ab1d af3e caff 08bf
00000120: 5ebb a53d 73ee 54bf 9277 2b3e 685e 153e
00000130: 967d 18be 5673 bf3e 0cf1 4c3f c89e 823f
00000140: 98b3 abbe 6761 8cbe ac4d 9d3e 4118 b1be
00000150: 45c9 0bbd 50f4 0e3f 3410 f1bd 25fb 353e
00000160: 3cdb d9be 811b f03e 9a35 f1be de63 0a3f
00000170: 107f 3abe 3e62 033f 14ab 83be 852e a3be
00000180: 02fb d43d f000 bf3e 54a8 c23d 1326 d23c
00000190: 9c47 b13e f5be 45bc 9a68 423d 1c6d 04be
000001a0: 1d58 6ebe c60b f8be 3686 443f c640 563e
000001b0: 46dc 813e 9239 80bc 3129 e6be 8697 9ebf
000001c0: 36c6 7b3e 9c1d 2cbd 7789 b1bd 018c 963e
000001d0: e54c 513f f977 bbbe c0d2 f53d 87bf 973d
000001e0: a430 f53e 6076 aa3e 7669 29bc c25f febe
000001f0: a2fb 2abf 80d7 44bf 0f3e 3abe c608 ad3e
00000200: 1a2f 55be 27e1 a03e f3e2 213e 0ef1 93bd
00000210: 5e79 3d3d 33a7 283e d333 09be c213 35bf
00000220: b758 bbbd cf18 06c0 94f1 c63e a97d bc3e
00000230: 3f48 823f 6d00 8cbf a03e 043e d363 a83e
00000240: d8d0 a6bd 0a3f 203d c517 723e 6ec2 47be
00000250: 9c44 2fbe 514f 55bc af31 1cbe a6ff 19be
00000260: 74cd 273f bebd 8f3d cd42 dd3e f851 82be
00000270: 5dc5 0d3f f65a 12be f807 2e3f 689a c7bd
00000280: 4a70 bdbe 71ad e83e ad42 9abe f763 253e
00000290: c374 c43e fb59 9e3d 4d60 c1be 7980 0a3e
000002a0: 71c5 9abe 2053 8ebe 4f40 8abd 7bff a3be
000002b0: 6e57 373e 475a 14be 6527 d83e 8087 d8be
000002c0: 33cf e6be 9419 bf3d e087 b2bd c203 0ebe
000002d0: 4fb2 463b 59fd 183d d4c0 913e eca6 b6be
000002e0: b5e8 40be ddcf 243f d8eb 3a3e cba0 fd3c
000002f0: adf6 7abe bb49 3b3f 603e c4bd aaa0 133e
00000300: 9a2b bf3d c6c9 5d3e a8d2 6b3e 58a1 6ebe
00000310: 2e26 173f b743 ac3e 4628 68bb 17b5 863e
00000320: 70e2 54bd 28dc 643e 5449 79bc 1eee 99be
00000330: d70d 25bd 3f11 77be 3c64 2bbd 5c2d ebbe
00000340: d2de ed3e 09c0 85be 0d0f 4dbe 5bd7 9ebd
00000350: 9e5d 2ebf 0f3e 84be d122 85be 2f9f 8dbf
00000360: 637e 4a3e b4bc fa3e 4097 debd 7c2b 023f
00000370: f638 043f 7df2 91bf 096d ecbe 7b34 fb3e
00000380: fd2a 06bf 40c6 183d 7dc8 883d 63c5 f9be
00000390: 002d f2be 3179 a5bd b6e6 343f 4e7e 00bd
000003a0: 1b02 50bd 2a29 80be 2e15 1b3f a80b 0d3f
000003b0: 7c49 fa3e f16b 12bf d16d b5be 0307 5e3e
000003c0: 5571 5bbe 07d3 02bf 84bf 9a3e 5bdd 5abe
000003d0: 8a2d 173f 4bb9 0b3e 2e7f f63e 4b02 823f
000003e0: a0cc 1dbf bfc4 1c3e 08c3 e53e 5d6d 0b3f
000003f0: f3d7 76bf 8e2b 0cbf 5c37 e6be f22d 553f
-0.006218926 -0.5582508 -0.50557375 0.4763024 0.83084255 -0.29958138 -0.48326018 0.8583226
0.16495717 0.17605649 -0.02640467 -0.111283235 -0.05499609 0.20682023 0.5202931 0.69836634
-0.22213502 -0.24156126 -0.5735819 0.3422989 0.14419365 0.27871925 -0.15871158 -0.4551874
0.42071995 -0.09314427 0.8845014 0.22987442 -0.27961805 0.24058655 0.21526785 -0.16854179
-0.47695693 -0.51904947 -0.50851184 -0.008818818 -0.04557492 -0.4371143 -0.28185844 0.9028771
-0.0019370303 0.21924114 -0.062704146 -0.25269225 0.042346675 0.76697016 -0.19394183 -0.34159005
-0.15450433 0.46822676 -0.4451995 0.0769901 -0.14623126 0.122542955 -0.09487325 0.21478318
0.54949796 0.10718971 -0.26183236 0.5420794 -0.6081098 -0.34109887 0.28667417 0.082988955
-0.2759801 -0.14869842 0.57122654 0.23602623 0.2623546 -0.5412763 0.34202322 -0.53515303
0.08092378 -0.83176345 0.16744831 0.14586794 -0.14891657 0.37392682 0.8005531 1.0204706
-0.33535457 -0.27418062 0.3072332 -0.34588817 -0.034127492 0.5584154 -0.117706686 0.17771585
-0.42550075 0.46895984 -0.47111207 0.54058635 -0.18212533 0.5132178 -0.2571646 -0.3187143
0.103994384 0.37305403 0.09504762 0.02565292 0.34624946 -0.0120694535 0.047463037 -0.12932247
-0.232758 -0.48446482 0.7676729 0.20923147 0.25363368 -0.015652452 -0.44953302 -1.2389991
0.2458733 -0.042020425 -0.086687975 0.2940369 0.81757957 -0.3661497 0.12003088 0.07409578
0.47888672 0.33293438 -0.010340085 -0.49682432 -0.6679021 -0.76891327 -0.18187736 0.33795756
-0.20818749 0.31421778 0.1580923 -0.07223712 0.046258323 0.16470031 -0.13398676 -0.70733273
-0.091477804 -2.0952642 0.38856184 0.3681462 1.0178298 -1.093763 0.12914515 0.3288866
-0.081453025 0.03912262 0.2364188 -0.19507763 -0.17116016 -0.013019399 -0.15253328 -0.15038928
0.6554787 0.07018612 0.43215027 -0.25453162 0.5537928 -0.14292511 0.6798091 -0.097462475
-0.36999732 0.45444825 -0.30128995 0.16151415 0.38370332 0.07732006 -0.37768784 0.13525571
-0.3022876 -0.27797794 -0.06750547 -0.32030854 0.17904446 -0.14487563 0.42217556 -0.42290878
-0.45079955 0.093310505 -0.08717322 -0.13868621 0.0030318683 0.037350986 0.2846743 -0.35674226
-0.1883877 0.64379674 0.1825403 0.030960461 -0.24508162 0.7315938 -0.095822096 0.14416757
0.09334488 0.21659002 0.23029578 -0.23303735 0.5904263 0.33645412 -0.0035424395 0.26310036
-0.05197376 0.22349608 -0.015215237 -0.30064481 -0.0402964 -0.24127673 -0.041843638 -0.45933044
0.4645906 -0.26123074 -0.20025273 -0.077559195 -0.681116 -0.25828597 -0.26003125 -1.1064204
0.19774775 0.48972094 -0.108686924 0.508476 0.51649415 -1.1402127 -0.46176937 0.49063477
-0.52409345 0.03729844 0.06678865 -0.48783407 -0.47299957 -0.08079756 0.70664537 -0.031370454
-0.050783258 -0.25031406 0.6057919 0.5509591 0.4888419 -0.57195956 -0.35435346 0.21682362
-0.21429951 -0.5110325 0.3022424 -0.21373503 0.5905386 0.13644902 0.48143905 1.015695
-0.6164036 0.15309428 0.4487536 0.5446375 -0.9642326 -0.5475396 -0.4496411 0.8327323

decoder.2.bias f4 [64]
00000000: ca21 233e c37d 003f 8458 853f 46a4 25bf
00000010: 06d9 4ebf 8e1d b3bd c6d4 52bf 13e5 123e
00000020: 42fe 9dbe 8e00 9fbe 3f4e 54be 47dc 0940
00000030: 754b 07bf ec6c 673e 80b2 d83e 8a0c 743f
00000040: 66aa cfbd 2a93 61bf 342b 143f 2737 733e
00000050: 91b0 3e3f 5769 db3d aaff 5b3d fa00 453d
00000060: 7d57 b13e 945f 993f af90 e1be f71f 5b3f
00000070: 135e 04bf d3d3 c73e 167e 5f3e 3a1e 713f
00000080: e644 a5be ee7c ab3d 4254 08bf ee84 0a3f
00000090: a08e 83bf 5a13 8f3f 8012 153f 689d 213f
000000a0: 69d2 683f 25da 053e 9ab8 ff3e 967a b2be
000000b0: fabf c43e 57ae 34be 89ab 31bf a62a 19bf
000000c0: c673 a8be a63f 673f 11c8 2bbf 8fcd 72bf
000000d0: f194 0cbf e403 053e 37ad 1c3d 376b 803f
000000e0: 9554 f1be 2c9c 9e3f 793b 8dbf 6b3e 05bf
000000f0: 22e7 aabe 253c 3fbc 8c8b 49bf fb38 a9bc
0.15930858 0.501919 1.0417638 -0.64703786 -0.807999 -0.087458715 -0.82355917 0.14345197
-0.30858046 -0.3105511 -0.20732974 2.1540697 -0.52849513 0.22600144 0.42323685 0.95331633
-0.10139923 -0.8811518 0.5787842 0.23751508 0.7448817 0.10713451 0.053710617 0.048096634
0.3463706 1.1982293 -0.44055697 0.8559565 -0.51706046 0.39028797 0.21825442 0.9418675
-0.32279128 0.08373438 -0.5325357 0.54109085 -1.0277901 1.1177781 0.58231354 0.6313081
0.9094606 0.13071497 0.49945527 -0.3485915 0.38427716 -0.1764463 -0.69402367 -0.598307
-0.32900828 0.90331495 -0.6710215 -0.9484491 -0.54914767 0.12989765 0.038251128 1.0032719
-0.47134843 1.239141 -1.1033775 -0.5204837 -0.33379465 -0.011672054 -0.78728557 -0.020657053

decoder.4.weight f4 [79, 64]
00000000: 298b 49bd 37d1 a6be 60ff 85bc 4d10 cebe
00000010: df40 3740 9332 3e3f ad6c 1ebe f133 cabd
00000020: d11f 15bd 6816 2a3f e4d4 27bf 9708 b5bd
00000030: e81b 90be 3959 903e f2bc 0d3f 3623 063e
00000040: c8ab 56bf 6dfd 3cbf cd41 85bf 66b2 90bd
00000050: 09c0 833e 9f63 813e 1f5d da3d 3b71 993d
00000060: 425f 233d c8e0 ff3d 114f 15bf d51e c63c
00000070: c156 803e 27cd 00bf 4d34 b53d cbf4 33be
00000080: 1fca 733e 0a19 8a3e 5190 ebbe 3c83 aa3d
00000090: 2f59 1fbd 410f 633e c303 8bbe d872 433e
000000a0: 4657 e33e 8b4c 133e 7bea cd3e bcf9 263f
000000b0: 337f e53e 3d24 02bf e595 1e3e 5c6f fcb9
000000c0: 9081 c73e 1fca 5abe 480a 90be d339 19bf
000000d0: 1dde 5bbf ac05 9fbe e8c6 b03e f27b 92be
000000e0: fe03 2f3e a87d 41bf a3f6 78be 6aa5 363f
000000f0: 7a5b e03e 97be 0f3e e86e 783e f76b a2be
00000100: fd41 3640 483a 713f 430f fc3e 490b 503f
00000110: 53a2 883a a405 cbbe 5a8e 17bd 73a9 833e
00000120: 2159 963d 1ca1 91be 4510 33bf c3fb 51bf
00000130: 379d ecbe d84d 093f fdb3 f2bd 6860 bb3f
00000140: 55bf 223f 7abe 53bf 062d 9d3e 05d0 08bf
00000150: bf3d 95be d6d2 30bd 32a9 31bf 30d4 efbd
00000160: 7418 49be 8d3a 143f 2629 01bf b310 c93d
00000170: 25c7 0b3e 260f 253f 670a f7be fb3d 503d
00000180: 52cd ae3e 963c c83f 038d f63e 9df5 ed3e
00000190: 498a 1bbd 2518 723e e1e1 47bd 5c65 183f
000001a0: a855 583f 6688 ab3c e04d 8b3e 6bc0 ee3d
000001b0: ff6d 76bb 7dca 293d b441 33bc 85b7 f9be
000001c0: 620c c13e c977 b53e aa4f 953f 01a4 da3d
000001d0: 6495 f3be 0fed 82be f245 273e f7a4 483e
000001e0: a9f8 813f 5f6a ff3e 0b30 66bf 2057 27bd
000001f0: 0b2f 9a3e e38a 8c3e c5d2 89bd d32d 6f3e
00000200: 91a9 31bf cd68 2d3f 4e32 bb3f 140e 34bf
00000210: bfff 913b a5d6 09bf 6c7e 47bf edce 473f
00000220: 584a bb3e 4522 c33e 3ebb 213e 6630 0c3f
00000230: 6602 94bf 004c ff3e 2e8a c9bf 2761 353f
00000240: 1015 803e b605 623f c85d 7dbf f7a3 983f
00000250: 3ab4 073f 8912 013f cae8 4c3e 0203 c93f
00000260: 1803 91bf 2196 9e3f a8a1 99bf 1d9d b0bf
00000270: 2524 613f d3d1 073f 41c7 d83e dd6c afbf
00000280: a642 923f 5846 033f 441d 77bf cf76 83bf
00000290: 3efa dcbe 162b b43f 7137 69bf fde8 c2bf
000002a0: 1701 13bf 453d 67bf 8c3b 7c3e 36e2 0ebf
000002b0: 0971 6d3f c99c 0cbf 92d0 8f3f 4077 e8be
000002c0: 8231 18bf a8c8 6abf 94dd babe 4d23 61bf
000002d0: 8caa dc3e 5a5a 8d3f 992f ad3e b470 8c3f
000002e0: 1f1d 2e3f b3e1 a63f 0805 b2bf eb05 29bf
000002f0: d788 313f b8aa a9bf 213c 8dbf 0893 debf
00000300: ab05 b4be 7e5e 123f 7eb8 cb3e 3e80 d33f
00000310: 9ab5 19bd edda 41be b416 57bf 0cf3 cc3f
00000320: 9f24 0d3f b3e4 babe 95da cf3e 277f 473f
00000330: ae02 4bbf 3a83 293f 7a3a f7be 7684 683f
00000340: bfab 83bf ece7 d13e 9e9d 6d3f 405d 16bf
00000350: bddc 25bf c8a6 063f 8217 863e 155b b23e
00000360: 8c7d edbe 7c0e ab3f b0a8 a1bf b2e0 dabe
00000370: fb45 4b3f c98d 04c0 b895 083f 7ee8 eb3f
00000380: 83f4 0d3f e536 3ebf a308 99be 70d0 253f
00000390: 0b5c 3abf 260d 1e3e 9954 523e 59c5 c93e
000003a0: cfeb 8d3f 8a3e ea3e a81a 9e3e 8c95 edba
000003b0: 9d72 9c3e 55f6 993f e5fb b7bf 1123 2dbf
000003c0: 739b 58bf af21 d23e 1122 3fbf ed20 583f
000003d0: 3b04 1dbf 0b92 f43e 466e 873f 3e89 c93e
000003e0: 6d1b dbbe 340b 2a3f 458a 68be 0cb6 e33e
000003f0: b49b 853f 38e8 c2bf 40b5 52bf f5a2 a3bf
-0.04920498 -0.32581493 -0.016357124 -0.40246812 2.8633344 0.7429592 -0.15471144 -0.09873188
-0.036407296 0.6644044 -0.6555922 -0.08839529 -0.2814629 0.2819307 0.5536643 0.1309937
-0.8385587 -0.738242 -1.0410706 -0.07065277 0.2573245 0.25271317 0.10662293 0.074923
0.039885767 0.124940455 -0.5832377 0.024184624 0.25066188 -0.5031304 0.08847866 -0.1757385
0.23807572 0.26972228 -0.46008542 0.08325812 -0.03890341 0.22173788 -0.27151307 0.19086778
0.44402522 0.14384668 0.40217957 0.65224814 0.44823608 -0.50836545 0.15486868 -0.00048148155
0.38966036 -0.21366166 -0.28132844 -0.5985386 -0.8588579 -0.31059015 0.34526753 -0.28610188
0.17091367 -0.7558236 -0.24312834 0.7134615 0.4381979 0.14037548 0.24261057 -0.31722996
2.8477776 0.94229555 0.49230394 0.8126722 0.0010424353 -0.3965274 -0.03700099 0.25715217
0.07341219 -0.2844323 -0.699467 -0.8202478 -0.46213695 0.53634405 -0.11850736 1.4638796
0.635732 -0.8271252 0.30698413 -0.5344241 -0.2914867 -0.04316982 -0.69398797 -0.117103934
-0.19638234 0.5790184 -0.5045341 0.09817638 0.13650186 0.6447624 -0.48250124 0.05084036
0.34141022 1.5643489 0.48154458 0.4647645 -0.037973676 0.23642023 -0.0487994 0.5952966
0.845057 0.020939063 0.2720785 0.116577946 -0.0037602184 0.041452873 -0.010940958 -0.48772827
0.3770476 0.3544295 1.1664937 0.106758125 -0.47574914 -0.25571486 0.16335276 0.19594179
1.015401 0.49885842 -0.8991706 -0.040854573 0.30114016 0.27449712 -0.06729654 0.23357324
-0.6939936 0.6773804 1.4624727 -0.7033398 0.004455536 -0.53843147 -0.7792728 0.7805012
0.36580157 0.38112083 0.15794083 0.5476135 -1.1563232 0.4986267 -1.5745294 0.7085137
0.2501607 0.88289964 -0.98971224 1.1925038 0.5300938 0.5041891 0.20010677 1.5704043
-1.1329069 1.2389566 -1.2002459 -1.3797947 0.8794578 0.5305454 0.4233952 -1.3705097
1.142659 0.5127921 -0.9652903 -1.0270633 -0.4315967 1.4075649 -0.9110022 -1.5227352
-0.5742354 -0.90327865 0.2463209 -0.5581392 0.927506 -0.54926735 1.1235526 -0.4540348
-0.5945054 -0.9171243 -0.36497176 -0.8794449 0.43098867 1.1043198 0.33825377 1.0971894
0.68013185 1.3037628 -1.3907785 -0.66024655 0.69349426 -1.3255224 -1.1033975 -1.738862
-0.35160574 0.57175434 0.39789194 1.6523511 -0.037526704 -0.1893117 -0.8401902 1.6011672
0.55134004 -0.3650261 0.40596452 0.77928394 -0.79300964 0.6621586 -0.48286802 0.9082712
-1.0286788 0.40997255 0.9281863 -0.5873604 -0.64789945 0.5259824 0.2618981 0.34835115
-0.46384847 1.3363795 -1.2629604 -0.42749554 0.79403657 -2.0711539 0.5335345 1.8430326
0.5545122 -0.7430251 -0.29889402 0.64771175 -0.72796696 0.15434703 0.20540084 0.39408377
1.1087588 0.4575084 0.30879712 -0.0018126233 0.30556193 1.20283 -1.4373747 -0.6763163
-0.84612197 0.41041324 -0.74661356 0.8442524 -0.6133458 0.47767672 1.0580528 0.3936252
-0.42794362 0.66423345 -0.22708996 0.44474828 1.0438142 -1.5227118 -0.82307816 -1.2784106

decoder.4.bias f4 [79]
00000000: ae23 1bbf 5470 27be 53cb 123f 349b 593f
00000010: 9684 203e 3e2f 7c3f 3d54 f73d 5e19 babd
00000020: b730 673d b939 1b3f 051b 0c3f b3d0 ea3e
00000030: 640d ae3f a36f 4a3e 30bb 273f 795f 513f
00000040: 3fef 703e 3076 073f 4246 5b3f 0079 253f
00000050: cea0 54be 29a4 973e 360a ff3e b292 433f
00000060: 4fc7 1c3f ab7c 8abf bbfd 743f b947 453f
00000070: caa5 563f 902b 573f 1991 a53e 7ec7 0f2f
00000080: bab0 19b0 91be 2caf 1d32 b2bf 5eda 79bf
00000090: 5fb1 453f 6f68 d93f 0fae f2bd 6325 d33e
000000a0: 9428 2b3e b6f6 a23f fb3b c83f 695e 76af
000000b0: d264 683f d797 a63e eaaf 9fae a694 7b3f
000000c0: be45 e0be 9606 873f 8b2b baaf 30a9 d5be
000000d0: a388 95bd 76df 673d 5efa ad3f 5d0e b4bf
000000e0: e0bc 8530 4b1e b930 43c8 ebae 4582 f6af
000000f0: e9e1 97af 0c49 38b0 ddcc 0e3f 12eb 243e
00000100: 30aa 5a3f 02ad 7c3f d811 c43e a321 2cbf
00000110: e4bb e13e 64d9 85bf 4953 4e3f d611 0b40
00000120: 2cc6 b73f 0177 0c3e 1325 1a3f 6c91 743f
00000130: b536 3e3f 3e98 f03e e5f8 a63c
-0.6060132 -0.16351444 0.573415 0.85002446 0.15675578 0.98509586 0.12076614 -0.0908687
0.056442942 0.6063495 0.5472873 0.4586235 1.3597836 0.19769149 0.6552 0.81786305
0.23528765 0.52914715 0.8565408 0.64637756 -0.20764467 0.29617432 0.49812478 0.76395714
0.6124162 -1.0819296 0.9569966 0.77062565 0.83846724 0.84050846 0.32337263 1.3076648e-10
-5.591222e-10 -1.5711012e-10 -1.3921543 -0.97598827 0.7722377 1.6984996 -0.11849605 0.4123946
0.16714698 1.273154 1.5643305 -2.2407111e-10 0.9077884 0.3253772 -7.2617315e-11 0.98273695
-0.4380321 1.0548885 -3.3864142e-10 -0.41730642 -0.07301452 0.056609593 1.3592031 -1.4066883
9.730705e-10 1.3469131e-09 -1.07221364e-10 -4.4839701e-10 -2.762726e-10 -6.7042616e-10 0.55781347 0.16105297
0.85415936 0.9870149 0.38294864 -0.67238826 0.44088662 -1.0456967 0.80595833 2.1729636
1.4357352 0.13717271 0.6021282 0.95534396 0.74302226 0.46991152 0.020382354
