models/12-19-2022_12-39-27__anova_binary.model (torch, 737407 bytes, 10 tensors)

model.0.weight f4 [512, 20]
0	0xbe12db74	-0.14341527
1	0x3ebb0cf4	0.3653332
2	0xbe4e9072	-0.20172289
3	0x3da7c87e	0.08192538
4	0x3d522aff	0.051310536
5	0x3d9cfda8	0.076655686
6	0x3e3b6bbf	0.1830282
7	0xbe253fea	-0.16137663
8	0x3d59e66d	0.053198267
9	0xbe2eeef1	-0.17083336
10	0xbe472bab	-0.19450252
11	0xbe27064c	-0.16310996
12	0xbe011b60	-0.12608099
13	0xbd00fd4b	-0.03149156
14	0xbe08d425	-0.13362177
15	0x3db5651e	0.08857177
16	0xbe882ae0	-0.2659521
17	0x3e66db9e	0.22544715
18	0xbdbdfeb7	-0.092770986
19	0x3e8e6e5a	0.27818567
20	0xbe2a5906	-0.16635522
21	0x3e2bccc9	0.16777338
22	0xbe76d269	-0.24103703
23	0x3e358ef6	0.17730317
24	0xbe298f59	-0.16558589
25	0x3d001efc	0.03127955
26	0xbe0de212	-0.1385577
27	0x3e2e20a2	0.17004636
28	0xbd42c8d8	-0.04755482
29	0x3e23a826	0.15982112
30	0x3d1ffacf	0.03905755
31	0x3e5d43e4	0.2160793
32	0xbe18724a	-0.14887348
33	0xbd98a23d	-0.074528195
34	0x3e4f1fbd	0.20226951
35	0xbd20f690	-0.03929764
36	0xbde11f17	-0.10992258
37	0xbcbe3c30	-0.023222059
38	0xbd8403d0	-0.0644604
39	0x3e194a83	0.1496983
40	0x3ed72f90	0.42028475
41	0x3dc6c3b4	0.09705296
42	0xbcda22a7	-0.026627852
43	0x3c7f65c6	0.0155882295
44	0x3ef56b5a	0.47933465
45	0x3dbacc03	0.091209434
46	0xbdb0e784	-0.08637908
47	0x3e0d8fe9	0.13824429
48	0x3dda34b5	0.10654584
49	0x3e91b1aa	0.2845586
50	0xbe647b18	-0.22312582
51	0xbe2f86e0	-0.17141294
52	0x3e4c66f6	0.19961151
53	0xbe35d8ff	-0.17758559
54	0xbc72ffeb	-0.014831523
55	0xbe7ecac2	-0.24882033
56	0x3d3f365f	0.04668271
57	0x3dbaebc3	0.09126999
58	0xbcadd680	-0.021220446
59	0xbd097689	-0.03356031
60	0xbe3c0f39	-0.18365182
61	0x3e96600f	0.29370162
62	0xbd851386	-0.064978644
63	0x3df5e539	0.120066114
64	0x3e38208e	0.17981169
65	0x3e3851db	0.17999975
66	0x3e6a3d0f	0.22874855
67	0xbe83f0c6	-0.25769633
68	0x3cd23711	0.025661023
69	0x3e8b70ae	0.27234405
70	0xbe5fc48a	-0.21852317
71	0xbca4a8f9	-0.020100104
72	0xbb9327cc	-0.004490828
73	0xbd8ca73e	-0.068678364
74	0x3e171caa	0.14757028
75	0xbe12cc2e	-0.14335701
76	0xbe206e6d	-0.15667124
77	0x3e8a1872	0.26971775
78	0x3d3f7594	0.04674299
79	0x3eab18d9	0.33417395
80	0xbe1f240a	-0.15541092
81	0x3eb57a47	0.35444853
82	0x3dc0a279	0.09405989
83	0x3de1ce2b	0.110256515
84	0xbc82c5db	-0.015963485
85	0xbd0a5a43	-0.033777487
86	0x3d743e41	0.059629682
87	0x3e2c2d7c	0.16814226
88	0x3e7841ef	0.24243902
89	0x3cbeeb71	0.023305627
90	0xbe84392b	-0.25824866
91	0xbd442cff	-0.047894474
92	0xbe04d1f4	-0.12970716
93	0xbc391a90	-0.011297837
94	0xbcbb7d3f	-0.02288687
95	0xbdeebcdb	-0.11657115
96	0xbca0ca64	-0.019627757
97	0x3dfd711b	0.12375089
98	0xbe80eb58	-0.25179553
99	0x3eb8d792	0.36101967
100	0x3d9909b3	0.07472553
101	0xbdba7a85	-0.091054
102	0x3d1dc3d2	0.038516827
103	0x3df315a3	0.11869361
104	0x3c2b3b25	0.010451113
105	0xbe41ddf8	-0.1893233
106	0x3e51da90	0.20493531
107	0x3cfb65eb	0.030688247
108	0xbdc8aaec	-0.09798226
109	0xbe433dbc	-0.19066519
110	0x3ed0898f	0.4072995
111	0x3e60970c	0.2193262
112	0xbe50146b	-0.20320289
113	0xbd943c82	-0.072381034
114	0xbd971d02	-0.0737858
115	0x3e88ed3b	0.26743492
116	0x3d8e520b	0.06949242
117	0xbe30600a	-0.17224136
118	0xbd45c6d0	-0.048285306
119	0xbe212de4	-0.15740162
120	0x3d2aa775	0.041663606
121	0xbd8fea36	-0.07027094
122	0x3cc4b6dc	0.024012975
123	0xbe8f147f	-0.27945325
124	0xbe76e1df	-0.241096
125	0xbe504ffe	-0.20343015
126	0x3e023be5	0.1271816
127	0xbe4f35b5	-0.20235331
128	0xbdea36bb	-0.1143622
129	0x3dd5b3bb	0.104346715
130	0xbdf024fc	-0.11725804
131	0xbc31ffd3	-0.010864216
132	0xbd064abd	-0.03278612
133	0x3e83acc9	0.25717762
134	0x3e5ddeb4	0.21666986
135	0x3e72258c	0.23647135
136	0x3c4e5a57	0.012594781
137	0xbe0b3f38	-0.13598335
138	0xbcd41541	-0.02588904
139	0x3d23636a	0.03988973
140	0xbe1027a3	-0.1407762
141	0x3e6d21a0	0.23157358
142	0x3caa3ebc	0.020781867
143	0xbcaf26c2	-0.021380786
144	0xbe479c65	-0.19493254
145	0x3e4fbb9d	0.20286413
146	0xbe404966	-0.18778
147	0xbe259b2e	-0.16172478
148	0x3e5f9f97	0.21838222
149	0x3da8dc1e	0.08245109
150	0x3dcf87a0	0.1013329
151	0xbdc653c9	-0.096839495
152	0x3cf59890	0.029979974
153	0xbe2d6b71	-0.16935517
154	0x3d5b2463	0.053501498
155	0xbda0fc32	-0.078606024
156	0x3e4e1b7c	0.20127672
157	0x3e30fe77	0.1728457
158	0x3d7072db	0.058703285
159	0x3dbcaad2	0.09212269
160	0xbe547204	-0.20746619
161	0x3e376e15	0.17913087
162	0xbde1e845	-0.1103063
163	0xbe03df28	-0.12878096
164	0x3eb8f04b	0.3612083
165	0x3d460366	0.048343085
166	0x3e4e3b62	0.2013984
167	0xbdfc9221	-0.123325594
168	0x3d894ec0	0.067044735
169	0xbd4b895a	-0.049691536
170	0xbeb8b00e	-0.3607182
171	0x3da08b59	0.078390785
172	0xbdcbf403	-0.09958651
173	0xbe4fcce8	-0.2029301
174	0xbe4ae990	-0.1981566
175	0x3e3287d4	0.17434627
176	0xbe5c9a64	-0.2154327
177	0xbe625936	-0.22104344
178	0xbe8b5837	-0.2721574
179	0x3e750925	0.2392927
180	0x3eb4b547	0.35294554
181	0xbe037e6e	-0.12841198
182	0xbe0d03bc	-0.13770956
183	0x3e4420c9	0.19153132
184	0x3ec165a4	0.37772858
185	0xbd8d4065	-0.06897048
186	0xbc8a5d8a	-0.016890306
187	0x3e8ce835	0.2752091
188	0x3e5c2fae	0.21502563
189	0x3e045976	0.12924752
190	0xbe11197c	-0.14169878
191	0xbe4f6e73	-0.20256977
192	0x3df7be24	0.12096813
193	0xbdf78b58	-0.120871246
194	0xbeaea902	-0.34113318
195	0xbe9d5a6e	-0.30733055
196	0xbdce972a	-0.10087426
197	0xbcaa1035	-0.020759681
198	0x3d2c761c	0.042104825
199	0x3e8fb290	0.2806592
200	0xbd1360ac	-0.035980865
201	0x3d0233cb	0.031787675
202	0xbd1b0bf1	-0.037853185
203	0x3e0f7cb5	0.14012416
204	0xbd10698e	-0.035256915
205	0xbdf10cfa	-0.11770053
206	0x3e6fc0b4	0.23413354
207	0x3cf56858	0.029956982
208	0xbdbc4f14	-0.091947705
209	0xbdd49665	-0.10380248
210	0x3eaf2959	0.34211233
211	0x3deb16a0	0.11478925
212	0xbd4bd50d	-0.049763728
213	0x3c7db700	0.015485525
214	0x3e28115a	0.16412869
215	0x3e60266b	0.21889655
216	0x3d9e8a2e	0.077411994
217	0xbb85ce23	-0.0040834113
218	0xbd9d6c8b	-0.076867186
219	0xbd9644a3	-0.0733731
220	0x3e911861	0.28338912
221	0x3e860b00	0.26180267
222	0x3c7182e3	0.0147406785
223	0x3d3385a9	0.04382864
224	0x3efeea9b	0.49788365
225	0xbcd35d66	-0.025801372
226	0xbe32cb58	-0.17460382
227	0x3e1d597e	0.1536617
228	0xbe3b32a1	-0.18281032
229	0x3deaff78	0.11474508
230	0xbdf77523	-0.12082889
231	0xbe2d1163	-0.16901164
232	0x3e5600b7	0.2089871
233	0xbc66f460	-0.0140963495
234	0x3dc78b8b	0.097434126
235	0x3ad54fc7	0.0016274386
236	0xbe7d29e1	-0.24723007
237	0xbe008943	-0.12552361
238	0xbc246f03	-0.010036233
239	0x3d0b7ed7	0.03405651
240	0xbde4b4f9	-0.1116733
241	0x3dcf44af	0.10120522
242	0x39795b3b	0.00023780476
243	0x3b849700	0.004046321
244	0xbdf74aa2	-0.12074782
245	0xbd8d3df3	-0.068965815
246	0x3e209e1b	0.15685312
247	0xbe2d277f	-0.16909598
248	0x3ddd273c	0.10798499
249	0x3d529612	0.05141265
250	0xbd87df76	-0.06634419
251	0x3d691152	0.056901284
252	0xbd414826	-0.047187947
253	0xbe342890	-0.17593598
254	0x3e98b791	0.2982755
255	0x3de3922d	0.11111865

model.0.bias f4 [512]
0	0xbdcd31aa	-0.10019238
1	0xbdb1cb44	-0.08681348
2	0x3c543bbd	0.012953696
3	0x3e78d649	0.24300493
4	0xbde4cec4	-0.1117225
5	0xbe398a2e	-0.18119118
6	0xbd2290cb	-0.039688867
7	0xbd5c1b94	-0.053737238
8	0xbd45087a	-0.048103787
9	0x3ea96aed	0.3308939
10	0xbe6a1639	-0.2286004
11	0x3e1b3461	0.151567
12	0xbe417635	-0.18892749
13	0xbe8c031a	-0.27346116
14	0xbe365147	-0.17804442
15	0xbd8b9fb3	-0.068175696
16	0xbcc1f694	-0.023677148
17	0xbe76e96d	-0.24112482
18	0xbe36e108	-0.1785928
19	0xbe60ddd8	-0.21959627
20	0xbd5d148f	-0.053974684
21	0xbe501571	-0.20320679
22	0xbe1cddad	-0.15318938
23	0x3d86370f	0.0655347
24	0xbd6317db	-0.055442672
25	0x3d66e18d	0.056367446
26	0xbd5b3691	-0.053518835
27	0xbe296f51	-0.1654637
28	0x3e4de81e	0.20108077
29	0x3d4851c0	0.048906088
30	0xbd7da19e	-0.06192171
31	0x3db80e64	0.0898712
32	0x3d26cef6	0.040724717
33	0x3df7d7e7	0.12101727
34	0x3e1cdfed	0.15319796
35	0x3dfb6ada	0.1227624
36	0xbe5ee08c	-0.21765345
37	0x3c871657	0.016490145
38	0x3c90b061	0.017662229
39	0x3dfaafb6	0.122405455
40	0x3e079d02	0.13243487
41	0x3d69d5d5	0.05708869
42	0xba98d6a0	-0.0011660643
43	0xbe1020a9	-0.14074959
44	0x3dee2b17	0.116293125
45	0x3e9100a1	0.28320792
46	0x3de6d8fe	0.11271857
47	0xbda9ca3d	-0.08290527
48	0xbdb07773	-0.08616533
49	0xbe81de5e	-0.25364965
50	0x3e4493cc	0.19197005
51	0x3d9bab20	0.07600999
52	0xbe110ed0	-0.14165807
53	0xbe831f4b	-0.25609812
54	0x3d25b9df	0.040460464
55	0x3db20bdb	0.086936675
56	0xbde25ec5	-0.11053232
57	0xbe27108a	-0.16314903
58	0xbd0f2154	-0.034943894
59	0xbe1f9f5f	-0.15588139
60	0xbdda7bc1	-0.106681354
61	0xbe62b8d7	-0.22140823
62	0xbd3c0b95	-0.045909483
63	0x3d40bd0a	0.04705528
64	0xbe2f423c	-0.1711511
65	0xbe9c21e0	-0.30494595
66	0xbe716efd	-0.23577495
67	0xbe6106a3	-0.21975188
68	0xbe2303f2	-0.15919474
69	0xbd260619	-0.04053316
70	0xbdfed218	-0.12442416
71	0xbddb7173	-0.10714998
72	0x3e58e249	0.21180071
73	0x3dd38b43	0.103292964
74	0x3e0c9afa	0.13730994
75	0xbe8266f7	-0.2546918
76	0xbd2f98a0	-0.042870164
77	0x3e4373b2	0.19087103
78	0x3df55070	0.11978233
79	0x3e6e34c4	0.23262316
80	0xbe41425e	-0.18872973
81	0x3e1bf49d	0.15230031
82	0x3c96b705	0.018397817
83	0xbe06accd	-0.13151856
84	0xbcbc2969	-0.022968965
85	0x3d39ae77	0.0453324
86	0x3e42d55a	0.190267
87	0x3e1b116e	0.15143368
88	0xbe5a4446	-0.21315107
89	0xbce66715	-0.028125325
90	0xbe0e7e0e	-0.13915274
91	0xbdc2adaf	-0.09505784
92	0x3dd28fd8	0.10281342
93	0xbe244183	-0.16040616
94	0x3e378b9f	0.17924355
95	0x3cbf332e	0.023339834
96	0xbb00be1f	-0.001964457
97	0xbe2023c4	-0.15638644
98	0x3ba433a0	0.005011037
99	0xbdf9bb49	-0.12193925
100	0xbe49b2b1	-0.19697072
101	0xbe6c2d11	-0.23064066
102	0x3cf65f19	0.030074643
103	0xbdaca8b5	-0.08430616
104	0xbe4a094c	-0.19730109
105	0xbc3853b1	-0.011250422
106	0x3e1645f4	0.14675122
107	0xbc051b9f	-0.008124261
108	0xbe3f39f2	-0.18674448
109	0xbddcc22f	-0.10779225
110	0xbe55ffc9	-0.20898356
111	0xbe5c419a	-0.215094
112	0xbe1d62dc	-0.15369743
113	0x3dcb7c64	0.09935835
114	0x3dc79ff5	0.09747306
115	0x3dcc6038	0.0997929
116	0xbd7e0025	-0.062011857
117	0x3dc723ac	0.09723601
118	0xbe14f0bb	-0.14544956
119	0xbcd3aca1	-0.025839152
120	0xbd88e29a	-0.06683846
121	0x3dbb2ea9	0.09139759
122	0x3d3e36fd	0.04643916
123	0x3e13db0f	0.14439033
124	0xbd38c3e0	-0.045108676
125	0xbe517969	-0.2045647
126	0xbd94c48a	-0.07264049
127	0xbd794ca3	-0.060864102
128	0xbe3845c7	-0.17995368
129	0xbcfbb7d2	-0.0307273
130	0x3e2612e3	0.16218142
131	0xbdd34dd7	-0.10317581
132	0x3d2dc9c3	0.042428743
133	0xbe602177	-0.21887766
134	0xbd2d0c48	-0.04224804
135	0x3e89548c	0.26822317
136	0x3e6d0a13	0.23148374
137	0x3d828a01	0.063739784
138	0x3d9527f7	0.07283013
139	0x3dade5f8	0.08491129
140	0x3c067bd8	0.008208238
141	0xbe07ea02	-0.1327286
142	0xbdd2b2d4	-0.10288015
143	0xbc9ddaed	-0.019269431
144	0xbe12230e	-0.14271185
145	0x3d3c8914	0.046029165
146	0x3e35a552	0.17738846
147	0xbe4f0530	-0.20216823
148	0x3e03f937	0.12888037
149	0x3e935f23	0.2878352
150	0xbe70fcf3	-0.23533992
151	0x3dda80fa	0.106691316
152	0x3e7b4d59	0.24541225
153	0xbd470f6b	-0.048598688
154	0x3dea59e2	0.11442925
155	0xbc96e4b3	-0.0184196
156	0xbe2ce6a5	-0.16884859
157	0x3d8aa55a	0.067698196
158	0xbdf4e48f	-0.119576566
159	0x3d9a1f77	0.07525533
160	0xbdb429ea	-0.08797057
161	0x3d891c2b	0.06694826
162	0x3e24f00c	0.16107196
163	0x3ba021b9	0.0048868326
164	0x3cfdc322	0.030976836
165	0x3d440fa9	0.047866497
166	0xbe7d3bcb	-0.2472984
167	0x3dd815ca	0.10551031
168	0xbd991ad8	-0.07475823
169	0xbdf8f28a	-0.12155636
170	0xbe55fc4b	-0.20897023
171	0xbe25d8f3	-0.16196041
172	0x3c0d1e1b	0.008613135
173	0xbe82e5ea	-0.25566036
174	0xbe170d64	-0.14751202
175	0x3d3225f9	0.043493245
176	0x3c6f6155	0.014610608
177	0xbde82582	-0.11335279
178	0xbe75d994	-0.2400878
179	0xbe007ab0	-0.12546802
180	0x3e2a43fe	0.166275
181	0xbcfb50bd	-0.030678147
182	0x3d0bc9c6	0.034127973
183	0x3e779c81	0.24180795
184	0x3da3bf2b	0.07995447
185	0xbdef6774	-0.11689654
186	0x3d7cbdf3	0.061704587
187	0xbe862ead	-0.26207486
188	0x3d91a63c	0.07111785
189	0x3e23d675	0.15999778
190	0xbe62c623	-0.22145896
191	0xbe416c00	-0.18888855
192	0xbe50411a	-0.20337334
193	0xbe194915	-0.14969285
194	0x3dadcd97	0.08486479
195	0xbccd19d4	-0.02503673
196	0xbcea107b	-0.028572312
197	0xbe528a5e	-0.20560595
198	0x3af6c062	0.0018825645
199	0xbe947e27	-0.29002497
200	0xbda46abf	-0.08028173
201	0xbc99fc3f	-0.018797038
202	0xbd37a377	-0.044833627
203	0xbdee21ed	-0.116275646
204	0xbdab0327	-0.08350211
205	0x3e13f7cf	0.1445
206	0xbe43f353	-0.1913579
207	0xbe18f996	-0.1493896
208	0xbd8944cd	-0.06702576
209	0xbd6b336c	-0.057422087
210	0xbda67eb7	-0.08129638
211	0x3d569210	0.05238539
212	0x3e3c8131	0.18408658
213	0xbd4f0a0a	-0.050546683
214	0x3cfeb648	0.031092778
215	0x3dada334	0.08478394
216	0xbd8e407e	-0.06945895
217	0xbe09d6bd	-0.13460822
218	0x3e0ebfb6	0.1394032
219	0x3ca5324e	0.020165589
220	0xbe069661	-0.13143303
221	0x3d1150b7	0.035477366
222	0xbe30e1d3	-0.17273645
223	0xbe18361c	-0.14864391
224	0x3b4577c0	0.003013119
225	0x3d35424e	0.044252686
226	0x3d098276	0.033571683
227	0xbe0f9735	-0.14022525
228	0x3da2b003	0.07943728
229	0x3ce61ac4	0.028088935
230	0x3db8a611	0.0901605
231	0xbe3363f3	-0.17518596
232	0xbdbb9321	-0.09158922
233	0x3e1098a5	0.1412073
234	0xbdeaa0a4	-0.11456421
235	0x3dca0322	0.09863879
236	0x3ce22271	0.027604314
237	0x3e614391	0.21998431
238	0xbe5a91c9	-0.21344675
239	0x3e047f32	0.12939146
240	0xbe6085ae	-0.21925995
241	0xbe121365	-0.14265211
242	0x3c6ec83a	0.014574105
243	0x3aea501e	0.001787666
244	0x3df1c5b5	0.11805288
245	0x3c8cf5d9	0.017207073
246	0xbd3578a5	-0.04430451
247	0x3dd4d633	0.10392418
248	0x3d393eaf	0.045225795
249	0x3d93f46b	0.072243534
250	0xbdbcec93	-0.092248105
251	0x3e46fdbf	0.19432734
252	0xbcc12012	-0.023574863
253	0x3c9fb037	0.019493205
254	0x3e50872a	0.20364061
255	0x3e560619	0.20900764

model.2.weight f4 [256, 512]
0	0x3d6323cf	0.05545407
1	0x3d5b5c02	0.053554542
2	0x3e06852e	0.13136742
3	0x3d080117	0.033204164
4	0x3d806ecc	0.06271133
5	0x3c8670d0	0.016411215
6	0xbc9c6039	-0.019088851
7	0xbd22a4ac	-0.039707825
8	0x3d9ca6a9	0.076489754
9	0x3e3cc7e2	0.18435624
10	0xbcb62ab0	-0.022237152
11	0x3dea3ff8	0.11437982
12	0x3d0cd63f	0.03438401
13	0xbc3b69e6	-0.011438822
14	0x3d0f9558	0.035054535
15	0xbdb5ea36	-0.08882563
16	0xbc1081be	-0.008819995
17	0x3daa4de4	0.08315638
18	0xbdb6bfe2	-0.089233175
19	0xbd533024	-0.051559582
20	0x3d74a0ee	0.059723787
21	0x3d08678f	0.033301886
22	0x3cd4fc58	0.025999233
23	0x3d85ee70	0.06539619
24	0x3d694f97	0.05696067
25	0xbd0d8f97	-0.034560766
26	0x3e084d3b	0.13310711
27	0x3c40eddf	0.011775463
28	0xbd1b7c60	-0.03796041
29	0x3d41161e	0.047140233
30	0x3cf9a723	0.030475205
31	0x3e053f26	0.1301237
32	0x3e11a3f5	0.14222701
33	0xbd6931de	-0.056932323
34	0xbbf5841a	-0.0074925544
35	0xbce3fa99	-0.027829455
36	0x3d4732f1	0.048632566
37	0xbdb0d5b2	-0.08634509
38	0x3d68ac9c	0.056805238
39	0x3d84fd8c	0.06493673
40	0x3d179f8c	0.03701739
41	0x3df52443	0.11969807
42	0x3d7a32a8	0.061083466
43	0xbd3af842	-0.045646913
44	0xbd96f92e	-0.07371746
45	0xbdf300e3	-0.118654035
46	0x3d2dcef8	0.04243371
47	0x3d613e17	0.054990854
48	0x3c961b0c	0.018323444
49	0xbd41fceb	-0.047360342
50	0xbd29d3df	-0.04146182
51	0x3d61b792	0.055106707
52	0x3d7feb92	0.062480517
53	0x3ce0bc84	0.027433641
54	0xbdbc956b	-0.09208187
55	0xbc6538b7	-0.013990573
56	0x3d81c337	0.063360624
57	0x3dd9ebf0	0.10640705
58	0xbcb7bf60	-0.022430122
59	0xbdfc24c1	-0.12311698
60	0xbd60d6da	-0.0548924
61	0xbc81f6cd	-0.015864754
62	0x3c8dd377	0.017312748
63	0x3d7d350f	0.06181818
64	0x3dda0631	0.10645712
65	0xbd034805	-0.032051105
66	0x3daee45c	0.0853965
67	0x3d7e9199	0.06215057
68	0xbe0d5479	-0.13801755
69	0xbc810bc9	-0.01575269
70	0x3c01f05c	0.007930841
71	0x3c26c435	0.010178615
72	0x3e559432	0.20857313
73	0xbc943def	-0.018095938
74	0xbcccde6e	-0.025008406
75	0xbb1c268b	-0.0023826684
76	0x3d6be9e3	0.0575961
77	0x3e017d29	0.12645401
78	0xbc3577be	-0.011075912
79	0x3e509dde	0.20372722
80	0x3dd8e145	0.10589842
81	0x3d96604d	0.07342587
82	0x3d6132cc	0.054980084
83	0xbd88031e	-0.066412196
84	0x3ccb0be0	0.024785936
85	0x3dcaae14	0.09896484
86	0x3da517f7	0.080612116
87	0x3d2370a7	0.039902356
88	0x3d8fc214	0.07019439
89	0xbcfd6926	-0.030933928
90	0xbb75a986	-0.0037485077
91	0x3da33bf6	0.07970421
92	0x3d41b756	0.047293983
93	0xbd48c11a	-0.04901228
94	0x3e20c358	0.15699518
95	0x3df7fc49	0.121086664
96	0x3d2911b8	0.041276664
97	0xb9d8593a	-0.0004126521
98	0x3da20078	0.07910246
99	0x3d667fe9	0.05627433
100	0x3d9c016d	0.076174594
101	0x3d7e8217	0.062135782
102	0x3d599ccc	0.05312805
103	0x3db733e5	0.08945445
104	0x3d7d67f7	0.061866727
105	0xbd6b8e71	-0.05750889
106	0x3d840eae	0.064481124
107	0x3d498e3d	0.049207915
108	0xbd8ce292	-0.06879152
109	0x3de85165	0.1134365
110	0xbca0ea89	-0.019643085
111	0x3be41597	0.0069605815
112	0x3d0e6aba	0.03476975
113	0x3e2bf9b3	0.16794471
114	0x3e25b0e3	0.16180758
115	0x3e02bd22	0.12767461
116	0xbb862644	-0.004093917
117	0xb9909355	-0.0002757559
118	0xbbf4011a	-0.0074464204
119	0x3e07e5b4	0.13271219
120	0x3d7cb8b8	0.0616996
121	0x3db41aee	0.08794199
122	0x3c76f760	0.015073627
123	0x3d1a9d7c	0.037747845
124	0x3d823ae4	0.06358889
125	0x3d7f55d3	0.062337708
126	0xbb092e84	-0.0020932266
127	0x3c73e1a8	0.014885344
128	0xbc839381	-0.016061546
129	0x3d9e9a32	0.07744254
130	0x3db595b3	0.088664435
131	0x3db30bba	0.08742471
132	0x3e0e801b	0.13916056
133	0xbd72da6e	-0.059290342
134	0x3d89adc2	0.06722595
135	0x3deb75b6	0.11497061
136	0xbda2c623	-0.07947948
137	0x3d19256f	0.037389215
138	0x3d52e4e5	0.051487822
139	0x3d52ba13	0.051446985
140	0x3e1ae08b	0.15124719
141	0x3d858b72	0.06520738
142	0xbd8060cf	-0.06268465
143	0xbe0a0442	-0.13478187
144	0xbd6701e5	-0.05639829
145	0x3cb65eef	0.022262065
146	0x3df918c7	0.12162929
147	0x3d54ae00	0.05192375
148	0x3b30c178	0.0026970785
149	0xbe1783f8	-0.14796436
150	0x3d824efe	0.06362723
151	0xbd8546c4	-0.06507638
152	0x3dbe25d8	0.09284562
153	0x3c4cc2e0	0.012497634
154	0x3e24d70f	0.16097663
155	0xbda9eeb3	-0.082974814
156	0xbbee12d5	-0.0072654285
157	0x3d960422	0.07325007
158	0x3d1ebb28	0.038752705
159	0x3dad2259	0.08453817
160	0x3d62f55b	0.05540977
161	0x3d628ddd	0.055311073
162	0x3c5e5aff	0.0135715
163	0x3d2e125d	0.04249798
164	0x3de119dc	0.109912604
165	0x3d8c07ba	0.06837411
166	0x3d8e2607	0.06940847
167	0xbcf5d027	-0.030006481
168	0x3da21aea	0.0791529
169	0xbd992482	-0.074776664
170	0xba6be2b0	-0.00089983176
171	0x3d357603	0.044301998
172	0x3db5e9d7	0.08882492
173	0xbd165f86	-0.036712192
174	0xbd0a2f19	-0.033736322
175	0x3dc35816	0.095382854
176	0x3d906003	0.07049563
177	0x3cd94571	0.02652237
178	0xbd43466e	-0.04767459
179	0xbd9683fd	-0.073493935
180	0xbd89a709	-0.067213126
181	0x3dd661a5	0.10467843
182	0xbdaa883b	-0.08326765
183	0xbda1f2c1	-0.0790763
184	0xbbb63736	-0.005560781
185	0x3d6a6283	0.057222854
186	0x3e183bc9	0.14866556
187	0x3d91643a	0.07099195
188	0x3cf0dd1f	0.029402314
189	0x3dd561a0	0.10419011
190	0xbc93334b	-0.017968794
191	0xbe0aee85	-0.1356755
192	0x3d49a3cb	0.04922847
193	0x3af7008d	0.0018844769
194	0x3d5c9fda	0.053863384
195	0xbd8f1e55	-0.06988207
196	0xbd299963	-0.041406047
197	0xbdf48cb6	-0.11940901
198	0xbdcb762b	-0.09934648
199	0x3d29e257	0.04147562
200	0xbc3d1ad1	-0.011542038
201	0xbe332119	-0.17493095
202	0x3d3a820e	0.045534186
203	0x3dc6eaf1	0.0971278
204	0x3de04513	0.10950675
205	0x3ce92863	0.02846164
206	0xbbc05cae	-0.0058704233
207	0x3da635b4	0.08115712
208	0xbd00b237	-0.03141996
209	0xbc36e9dc	-0.011164155
210	0xbd91b1dc	-0.07114002
211	0x3ce0d5be	0.02744567
212	0x3dd371d3	0.103244446
213	0x3e09e58e	0.13466474
214	0x3d69ce76	0.057081662
215	0xbcefbde0	-0.029265344
216	0x3c6aeae2	0.014338227
217	0x3cc6f8cb	0.024288556
218	0xbcb238ee	-0.021755662
219	0xba571583	-0.00082048046
220	0x3d5baa99	0.05362949
221	0x3d43f1bf	0.04783797
222	0x3d55ba6a	0.05217973
223	0x3d030f64	0.0319971
224	0x3d995445	0.07486776
225	0x3d9276a8	0.07151538
226	0xbcbb982e	-0.022899713
227	0xbdfb1e2c	-0.12261614
228	0x3dd523a6	0.1040719
229	0x3dbc6d15	0.09200493
230	0x3e1439c6	0.14475164
231	0xbd4886ef	-0.048956808
232	0xbd34b766	-0.044120215
233	0x3d1eb3e4	0.038745776
234	0x3df76342	0.12079479
235	0xbd0f532f	-0.03499144
236	0xbb5b44bb	-0.0033457715
237	0x3da617c2	0.0811
238	0xbd35980e	-0.044334464
239	0xb8e8755f	-0.00011084484
240	0x3d9130be	0.07089375
241	0x3d0f9d30	0.035062015
242	0x3d1f415e	0.0388807
243	0x3db3a55f	0.087717764
244	0x3d3aba26	0.04558768
245	0x3d81a384	0.06330016
246	0xbd293b39	-0.041316245
247	0x3dfc6514	0.123239666
248	0x3dfb3f37	0.12267917
249	0xbc31f01d	-0.01086047
250	0xbe0a64a6	-0.13514957
251	0xbd9ebe2a	-0.07751115
252	0xbd7e117d	-0.062028397
253	0x3ddfafc3	0.10922196
254	0xbd89fa71	-0.06737221
255	0xbdf3b371	-0.1189946

model.2.bias f4 [256]
0	0x3c6f1433	0.014592218
1	0x3cf63de8	0.030058816
2	0x3a90e0af	0.0011053289
3	0x3b2d7451	0.0026467035
4	0xbd257981	-0.04039908
5	0xbcc7be82	-0.024382833
6	0x3cec64fb	0.028856745
7	0xbcf927af	-0.03041443
8	0xbd071b73	-0.032985162
9	0x3c9e47c6	0.019321334
10	0xbd11f740	-0.035636187
11	0x3d65504e	0.055984788
12	0x3d5c7950	0.05382663
13	0xbc72c674	-0.014817823
14	0xbd79c462	-0.0609783
15	0xbd07f02e	-0.033188038
16	0xbc826e9c	-0.015921883
17	0x3bb88394	0.0056309197
18	0x3d4adee8	0.049528986
19	0xbd82e7b0	-0.06391847
20	0xbd50d96d	-0.050988603
21	0x3b469a1c	0.0030304259
22	0xbb810c5e	-0.003938242
23	0xbbab77fa	-0.005232808
24	0x3b5706f4	0.003281054
25	0x3ce686dc	0.028140478
26	0x3d1a840a	0.03772358
27	0x3c9ac519	0.018892812
28	0x3ca715d1	0.020396145
29	0x3d85f574	0.06540957
30	0xbc3932e6	-0.011303639
31	0x3d9d65ec	0.07685456
32	0x3d457bb6	0.048213683
33	0xbc20f792	-0.00982465
34	0xbcd77867	-0.02630253
35	0x3ca0d2b6	0.019631725
36	0x3d7df1d8	0.06199822
37	0xbd0d3ee7	-0.034483816
38	0xbd4b7959	-0.049676273
39	0xbc71c93c	-0.014757451
40	0x3bcc2d5d	0.0062309937
41	0x3d596c02	0.05308152
42	0x3d103e04	0.035215393
43	0x3c9d5ecd	0.019210244
44	0xbc67c827	-0.014146841
45	0x3d62ee7c	0.055403218
46	0xbd122fdf	-0.035690185
47	0xbd3292be	-0.043596976
48	0xbc96a4b0	-0.018389076
49	0x3d175742	0.03694845
50	0xbc84b97f	-0.016201733
51	0x3d06c2b0	0.032900512
52	0xbd1f1b65	-0.038844485
53	0xbd54c57c	-0.05194615
54	0x3cbf62d9	0.023362564
55	0x3be9f6d0	0.007140018
56	0xbafa922f	-0.0019117052
57	0xbb9fba1b	-0.0048744804
58	0x3c80a0f4	0.015701748
59	0x3c9e96f8	0.019359097
60	0x3cb611c5	0.02222527
61	0xbd183d4b	-0.03716783
62	0xbd217e34	-0.039426997
63	0x3c4ec7d8	0.012620889
64	0xbcc59f8f	-0.024123935
65	0x3d5f03db	0.054447036
66	0xbcdf37e6	-0.027248334
67	0x3caf4953	0.021397268
68	0x3d77f3ef	0.060535368
69	0x3d818a24	0.06325176
70	0x3c988ed2	0.01862279
71	0x3cb8d3e3	0.022561973
72	0x3d1cb770	0.038260877
73	0x3d1f4db7	0.038892474
74	0x3d0f1e73	0.034941148
75	0xbb645ac6	-0.0034844144
76	0xbb605e9c	-0.003423608
77	0x3d40ee54	0.047102287
78	0x3c11ca60	0.008898348
79	0x3d12f5d7	0.035878982
80	0x3d29312e	0.041306667
81	0x3d90ec43	0.07076313
82	0x3c62d7ec	0.013845425
83	0x3cb6806b	0.022278031
84	0x3d10755b	0.03526817
85	0xba75a8e4	-0.0009371175
86	0x3c4a4d9f	0.012347608
87	0x3cc3dff2	0.023910496
88	0x3b54f3cc	0.0032493947
89	0x3cd220e5	0.025650451
90	0x3b8e2e78	0.0043390356
91	0x3d18f572	0.03734345
92	0xbcd3976f	-0.025829045
93	0xbcf3305b	-0.029686144
94	0x3c054aec	0.008135539
95	0xbbffd5a1	-0.007807449
96	0x3cd8de18	0.02647309
97	0x3d5888e8	0.05286494
98	0x3d19b440	0.037525415
99	0x3c83431e	0.016023215
100	0xbd2dd17f	-0.04243612
101	0x3d21b1de	0.039476268
102	0x3cf435fb	0.029810896
103	0x3c40954f	0.011754348
104	0x3d2873c7	0.04112604
105	0x3a4d88e5	0.0007840528
106	0xbd470194	-0.04858549
107	0x3d95e6dd	0.07319424
108	0x3d00f1de	0.031480663
109	0x3aea7865	0.0017888664
110	0xbaa0ff4b	-0.0012283114
111	0x3cdf482e	0.027256098
112	0xbd1a0489	-0.03760198
113	0xbd4b8a1b	-0.049692255
114	0xbc2e33e9	-0.0106324935
115	0xbcacb000	-0.021080017
116	0x3d30aacc	0.043131635
117	0x3d004a3c	0.031320795
118	0x3cba9ce1	0.022779884
119	0x3c929e24	0.017897673
120	0xbc231713	-0.009954232
121	0xbbfab37b	-0.0076507903
122	0x3d3890e4	0.045060053
123	0xbd6c92d3	-0.05775721
124	0x3c803b8a	0.01565339
125	0x3d86eb80	0.06587887
126	0xbc7547fc	-0.014970776
127	0x3aefa7f1	0.0018284303
128	0x3cb1fff6	0.021728497
129	0xbd58d7d1	-0.052940194
130	0x3d230fc2	0.03980995
131	0x3b4663ed	0.0030271963
132	0xbd5a9df6	-0.0533733
133	0xbb51f8f3	-0.0032039254
134	0xbca50e75	-0.020148495
135	0xbc0236fe	-0.0079476815
136	0xbd23a195	-0.03994902
137	0x3d95c986	0.07313828
138	0xbc34d9f1	-0.011038289
139	0xbba7b474	-0.0051179472
140	0x3d254a5c	0.040354118
141	0x3d23a60a	0.03995327
142	0xbbfb0bec	-0.0076613333
143	0xbab39a76	-0.0013702649
144	0x3d181df9	0.03713796
145	0xbb3d4e91	-0.002888594
146	0xbcf35da0	-0.02970773
147	0x3d26e000	0.040740967
148	0x3c6d54b2	0.014485525
149	0x3d6e53ba	0.058185317
150	0x3c406900	0.011743784
151	0xbc26677b	-0.010156508
152	0xbbb089f8	-0.005387541
153	0xbd1f21f1	-0.03885073
154	0x3c4c4fc1	0.012470187
155	0x3cd0e1b1	0.025498243
156	0xbcb6ecb2	-0.022329662
157	0x3d1b5b1b	0.03792868
158	0x391e14e6	0.0001507584
159	0x3d0de00a	0.03463749
160	0xbd605acc	-0.05477409
161	0x3c8740fa	0.016510475
162	0x3c1c5a8c	0.009543072
163	0xbb78b3bd	-0.003794893
164	0x3d4f5551	0.050618473
165	0x3baa484d	0.005196607
166	0xbd315000	-0.043289185
167	0xbc48369d	-0.012220052
168	0x3cc35b58	0.023847267
169	0x3af4edbe	0.0018686575
170	0x3d7f08e2	0.06226433
171	0xbd2d7cd9	-0.042355392
172	0xbccb6f48	-0.024833336
173	0xbd1f35ad	-0.03886955
174	0x3c0d0725	0.00860766
175	0x3da38fe2	0.07986428
176	0xbd1903a6	-0.037356995
177	0x3d5bd788	0.053672343
178	0x3d16e90b	0.03684334
179	0x3d904266	0.070439145
180	0xbc80bd4a	-0.01571526
181	0x3d17d353	0.03706677
182	0x3cba254c	0.022722863
183	0xbc807e77	-0.015685303
184	0x3d119a5f	0.03554761
185	0xbc8667e5	-0.016406963
186	0x3d17b0dc	0.0370339
187	0xbd3e8c7a	-0.046520688
188	0x3c45e816	0.012079259
189	0x3d808122	0.0627463
190	0xbc847c36	-0.01617251
191	0x3c4f9ac1	0.012671174
192	0xbc22830c	-0.009918939
193	0x3d28190d	0.041039515
194	0xbd3e5406	-0.04646685
195	0xbacbc157	-0.0015545291
196	0xbc161bc3	-0.009161892
197	0xbc8503b9	-0.016237127
198	0xbce1e4b7	-0.02757488
199	0x3d13e094	0.036102846
200	0x3d868687	0.06568628
201	0x3d5138fb	0.05107973
202	0x3d2f4bbe	0.042796843
203	0xbdaebc99	-0.08532066
204	0x3c3a83e5	0.011383985
205	0x3c8245f3	0.015902495
206	0x3b9e3022	0.004827515
207	0x3d05d04d	0.032669354
208	0x3ca2755d	0.019831354
209	0xbd7d746e	-0.061878614
210	0x3c3f1498	0.011662625
211	0xbcdb9d8f	-0.026808528
212	0xbb8051ca	-0.003916
213	0x3c8de501	0.017321112
214	0x3c55552e	0.013020797
215	0x3ca8f66f	0.020625321
216	0x3b61e09b	0.003446615
217	0xbbe8d3e1	-0.007105336
218	0x3c87ffe1	0.016601505
219	0xbc0d8f2b	-0.008640091
220	0x3d7cd51a	0.061726667
221	0x3c62d16e	0.013843877
222	0xbc02506e	-0.007953746
223	0x3cb3035f	0.021852193
224	0x3c809df6	0.015700322
225	0x3d2a2722	0.041541226
226	0x3c8015bb	0.015635362
227	0x3a068302	0.0005131216
228	0x3caa0706	0.020755302
229	0xbb7dc18f	-0.0038720106
230	0xbcc21859	-0.02369325
231	0x3c8f2af3	0.017476534
232	0x3c78340b	0.015149127
233	0x3d6d6562	0.057958014
234	0xbbead566	-0.0071665524
235	0x3c9df9a2	0.019284073
236	0x3c9dedb7	0.01927839
237	0x3cc3162c	0.023814283
238	0x3cbd476a	0.023105342
239	0x3c72ea32	0.014826344
240	0x3d30fe59	0.043211315
241	0x3cbac330	0.02279815
242	0x3c9aeb7b	0.018911114
243	0x3ca445ff	0.020052908
244	0xbc4b4591	-0.012406723
245	0x3bf0023b	0.0073244846
246	0xbbd17b0a	-0.006392841
247	0x3bb27996	0.005446623
248	0xba57bbb5	-0.00082295696
249	0x3c7149ca	0.014727065
250	0x3d8ef4e2	0.069803014
251	0x3d410412	0.047123022
252	0xbcabc3da	-0.020967413
253	0xbcbf2d2e	-0.023336973
254	0x3bb1cd99	0.0054261205
255	0x3c922599	0.017840194

model.4.weight f4 [128, 256]
0	0x3af7e260	0.001891207
1	0x3c87c956	0.016575497
2	0x3e014946	0.12625608
3	0x3d587f62	0.052855857
4	0x3cb94306	0.022614967
5	0x3dc4b690	0.096051335
6	0x3e0228a2	0.12710813
7	0x3db73706	0.08946042
8	0xbd11d959	-0.03560767
9	0xbd23feba	-0.040037848
10	0xbd58f22c	-0.052965328
11	0x3e147184	0.14496428
12	0x3d35e3aa	0.04440657
13	0x3d25f161	0.0405134
14	0xbce4ff9e	-0.027953919
15	0xbb5f5901	-0.003408015
16	0xbceca446	-0.028886925
17	0xbd9e0ca2	-0.07717253
18	0xbbdd8c69	-0.006761123
19	0xbd1ef907	-0.03881171
20	0xbcecd139	-0.028908359
21	0x3c7e0e97	0.015506408
22	0x3c2aae4a	0.01041753
23	0x3dee4442	0.11634113
24	0x3d5d3f56	0.05401548
25	0x3ddd43cb	0.10803946
26	0xbd92939a	-0.07157059
27	0x3dfe17a9	0.124068566
28	0xbd256372	-0.04037804
29	0x3d5f7c00	0.054561615
30	0xbcd4cfb5	-0.025977949
31	0xbd50af5f	-0.050948497
32	0xbdd58cd5	-0.10427252
33	0x3c145a69	0.009054759
34	0x3d0f4501	0.034977917
35	0xbdb3beb6	-0.087766096
36	0x3da39429	0.07987244
37	0xbd1d1581	-0.038350586
38	0x3b00298d	0.0019556016
39	0xbbd8229c	-0.0065959226
40	0xbdb4c873	-0.08827295
41	0xbd7c04ba	-0.061527945
42	0xbd7f0549	-0.0622609
43	0xbd3029d3	-0.043008637
44	0xbcf16932	-0.029469106
45	0x3db7d5f1	0.08976353
46	0xbd06e779	-0.032935593
47	0xbc0aa00a	-0.008461008
48	0x3c44f50c	0.012021314
49	0x3caef26c	0.02135583
50	0x3dc5f69e	0.09666179
51	0x3d95bbca	0.073112085
52	0x3bfcd75e	0.0077161035
53	0x3d100aad	0.03516643
54	0x3cf537bb	0.0299338
55	0x3d5f5ed4	0.054533795
56	0x3d4a55d6	0.049398266
57	0xbbe15438	-0.0068764947
58	0xbba78ba8	-0.005113084
59	0x3c0f5d42	0.008750262
60	0x3d429818	0.04750833
61	0x3dd0ffa7	0.10205012
62	0xbc26b437	-0.0101748025
63	0x3d4bd9dc	0.049768314
64	0x3d53ab7d	0.051677216
65	0x3ddfc4a9	0.10926182
66	0x3de6ca7b	0.11269089
67	0x3e12c976	0.14334664
68	0x3e01d284	0.12677962
69	0x3da9fa4f	0.08299696
70	0xbc706a4a	-0.014673779
71	0x3e332945	0.17496212
72	0x3d848991	0.06471551
73	0x3d8ea0b8	0.069642484
74	0x3dac1724	0.08402851
75	0x3e1d73bd	0.15376182
76	0xbd2fc428	-0.04291168
77	0xbde8c1e4	-0.11365107
78	0xbde045ed	-0.10950837
79	0x3d921109	0.071321554
80	0xbe04a345	-0.12952907
81	0x3e0c721d	0.13715406
82	0x3da0d2cd	0.07852707
83	0xbd1f412b	-0.03888051
84	0xbdf2eb8e	-0.11861335
85	0xbd5c2aab	-0.05375163
86	0x3d29922e	0.041399173
87	0x3c98b792	0.01864222
88	0xbd7ea4b3	-0.06216879
89	0xbd040dd0	-0.032239735
90	0x3d2f9278	0.042864293
91	0xbe00f186	-0.12592134
92	0x3d61cd5b	0.055127483
93	0x3c06d11a	0.008228565
94	0x3da5a2c6	0.08087687
95	0x3e0b2be4	0.13590962
96	0x3dd2981a	0.10282917
97	0xbd13df91	-0.03610188
98	0xbcc72909	-0.02431156
99	0xbdbaa690	-0.091138005
100	0x3cc365c4	0.023852237
101	0xbd5dd450	-0.054157555
102	0xbd761313	-0.060076784
103	0x3df9d7a1	0.12199331
104	0x3d17c5f9	0.037054036
105	0x3d4bebe1	0.0497855
106	0xbd0ca9f7	-0.03434178
107	0x3deaf7a1	0.11473013
108	0x3db1043b	0.08643385
109	0xbd60fc50	-0.054928124
110	0x3d946232	0.07245292
111	0xbd74fb17	-0.05980977
112	0x3c0a4ab7	0.008440665
113	0x3d6b760e	0.057485633
114	0x3dc104c9	0.09424741
115	0x3d870f06	0.06594662
116	0x3d9d77da	0.076888755
117	0x3d809044	0.062775165
118	0xbdf25fe1	-0.11834694
119	0x3d26f3d0	0.04075986
120	0xbda7f379	-0.082007356
121	0xbc729971	-0.014807091
122	0xbcbc26e5	-0.022967765
123	0xbd44580d	-0.047935534
124	0x3de90c82	0.11379339
125	0x3d522c8e	0.051312022
126	0x3c31d4c3	0.010853949
127	0x3d85e926	0.0653861
128	0xbd946437	-0.07245677
129	0xbca6c4bf	-0.020357488
130	0xbdc3a451	-0.09552825
131	0xbd0fa351	-0.03506786
132	0x3dfa178b	0.12211522
133	0xbc73d869	-0.014883139
134	0x3d9e27b1	0.07722414
135	0xbd2d167e	-0.04225778
136	0xbc86ded3	-0.016463673
137	0xbd3daa16	-0.046304785
138	0xbbdbcaf6	-0.0067075444
139	0xbd32449f	-0.043522473
140	0xbdac1fc8	-0.08404499
141	0x3c9342a3	0.01797611
142	0x3dd73db5	0.105098166
143	0x3bf5138d	0.0074791373
144	0x3de2ed08	0.110803664
145	0x3db37ca7	0.0876401
146	0xbdc0542c	-0.093910545
147	0xbd55cdf5	-0.05219837
148	0xbbe079e0	-0.006850466
149	0x3db2fca0	0.08739591
150	0x3cc25eb5	0.0237268
151	0x3be47c8e	0.006972856
152	0xbd1f8667	-0.038946535
153	0xbd688356	-0.056765877
154	0x3cf9b530	0.030481905
155	0x3cf601c9	0.030030148
156	0x3ddd80f6	0.10815613
157	0x3d595c1d	0.05306636
158	0x3d863a8c	0.06554136
159	0x3e081637	0.13289724
160	0x3cd808e8	0.026371434
161	0xbe0ce9cb	-0.1376106
162	0x3d8c0761	0.06837345
163	0x3b90dbe7	0.0044207457
164	0x3de326f3	0.11091413
165	0xbd02998f	-0.031884726
166	0xbddc35b6	-0.10752432
167	0xbc5dce72	-0.01353799
168	0xbd0b2f85	-0.033980865
169	0xbc7fb78f	-0.015607729
170	0xbb89bb25	-0.0042032176
171	0xbc4ee40c	-0.012627613
172	0x3d2aaba0	0.04166758
173	0x3d8206f4	0.063489825
174	0xbd1233cc	-0.03569393
175	0x3d6c644a	0.05771283
176	0xbd62f970	-0.055413663
177	0x3daa1582	0.083048835
178	0x3d0761e0	0.033052325
179	0x3da9e7e2	0.08296181
180	0x3db4245a	0.08795996
181	0x3dc995fa	0.09843059
182	0x3ca9a457	0.020708246
183	0xbdf27daa	-0.11840375
184	0x3d097b51	0.03356487
185	0x3d27041e	0.04077541
186	0x3d24a90a	0.04020027
187	0x3cff8c11	0.031194719
188	0x3d8dfa72	0.06932534
189	0x3d2cb128	0.042161137
190	0x3c99731e	0.01873165
191	0x3da181bd	0.07886074
192	0xbda0d55a	-0.078531936
193	0x3dde445d	0.10852883
194	0x3ce5a03b	0.028030505
195	0x3dde0b2c	0.108419746
196	0x3bd80e00	0.006593466
197	0x3a70cd45	0.0009185861
198	0xbd94cf6f	-0.07266127
199	0x3ce8c8dd	0.028416092
200	0x3d53745c	0.05162464
201	0x3cc1f24d	0.023675108
202	0xbd33f75d	-0.043937076
203	0xbc28a293	-0.010292667
204	0x3dcdec23	0.10054805
205	0xbd6bc36b	-0.057559412
206	0x3de5765b	0.11204215
207	0x3e0e6f73	0.13909702
208	0xbd5c9b60	-0.053859115
209	0x3ba0ad8b	0.0049035004
210	0x3e0a228d	0.13489743
211	0x3bc1e61c	0.0059173238
212	0xbb1f899f	-0.0024343503
213	0x3d0dfd4a	0.034665383
214	0x3d8f9c70	0.0701226
215	0x3bed7c5e	0.0072474917
216	0xbdea37fc	-0.114364594
217	0x3d0bba59	0.03411326
218	0x3cc4549f	0.023966132
219	0x3e021ed6	0.12707075
220	0xbe05930f	-0.1304438
221	0x3cac22cf	0.021012692
222	0xbd2f7a19	-0.04284105
223	0x3d047b83	0.032344352
224	0x3d7b06eb	0.061285894
225	0x3c0a6e8a	0.008449206
226	0xbd795c97	-0.060879316
227	0x3d7e7a6f	0.06212848
228	0x3da59bd7	0.08086365
229	0xbd82a47b	-0.063790284
230	0xbdb10d61	-0.0864513
231	0x3d7e4657	0.0620788
232	0x3d849611	0.064739354
233	0xbd62a0dc	-0.05532919
234	0xbce8054b	-0.028322836
235	0xbce94812	-0.028476749
236	0x3db6f1a6	0.089328095
237	0x3c417d44	0.011809651
238	0x3d9966e4	0.07490328
239	0xbca5919e	-0.020211037
240	0xbd3c687d	-0.045998085
241	0x3d8f345c	0.06992409
242	0x3d849623	0.06473949
243	0xbbad2bfd	-0.005284785
244	0x3dfe4691	0.12415803
245	0x3de23acc	0.11046371
246	0xbbf7a72c	-0.0075577702
247	0xbd499ca6	-0.049221657
248	0xbbdbc914	-0.00670732
249	0xbca084aa	-0.01959451
250	0x3d946c5e	0.07247232
251	0x3d7311fc	0.059343323
252	0xbb3b4d3c	-0.002857997
253	0x3bcf397c	0.0063239913
254	0x3bff7ab6	0.0077966107
255	0x3e075c52	0.13218811

model.4.bias f4 [128]
0	0x3d80c2a0	0.06287122
1	0xbce844f4	-0.028353192
2	0xbc26564c	-0.010152411
3	0xbc5e35a0	-0.01356259
4	0xbd50d2b3	-0.05098219
5	0xbce5ad43	-0.02803672
6	0xbd5b118e	-0.05348354
7	0x3d80f53e	0.06296776
8	0xbd34e5dd	-0.044164527
9	0x3d1d13f0	0.038349092
10	0x3cd30f45	0.025764117
11	0x3d46b3af	0.048511203
12	0xbd4aa04a	-0.04946927
13	0x3d4d03c1	0.050052408
14	0xbd3c98f1	-0.046044294
15	0xbd6f5cb4	-0.058438018
16	0x3b2f4b5d	0.00267478
17	0xbd3a8f40	-0.04554677
18	0x3d6fe842	0.058571108
19	0x3d4214a9	0.047382984
20	0xbbf4ec02	-0.0074744234
21	0xbc08f805	-0.008359914
22	0x3d7c4c63	0.061596286
23	0x3d5ed409	0.05440143
24	0x3c9a7668	0.018855289
25	0xbd495ef2	-0.049162813
26	0x3d39cc61	0.045360927
27	0xbd140871	-0.036140863
28	0x3d53f1ba	0.0517442
29	0xbc7cf9a6	-0.01544038
30	0xbc5d60d1	-0.013511852
31	0x3d5c1251	0.053728405
32	0xbd21d0c5	-0.03950574
33	0x3d4a96cb	0.049460214
34	0xbc83c083	-0.016083008
35	0xbd398c58	-0.045299858
36	0x3cc3af6c	0.023887359
37	0xbbf86fa7	-0.0075816694
38	0xbb391a5a	-0.0028244467
39	0xbd1b493e	-0.037911646
40	0xbd103283	-0.03520442
41	0x3d099abe	0.03359484
42	0x3be3a4b4	0.0069471244
43	0xbd56bd0f	-0.052426394
44	0x3ccbcb2b	0.024877151
45	0xbcf2d4b1	-0.029642435
46	0x3d3148c4	0.043282285
47	0x3d3d143c	0.046161875
48	0x3d35cb9a	0.044383623
49	0x3db9bddd	0.09069417
50	0x3cf71d34	0.030165292
51	0x3d4ba284	0.049715534
52	0x3b64ed48	0.003493147
53	0x3dca0f1f	0.09866165
54	0x3d73d7ec	0.05953209
55	0x3d542d9e	0.051801316
56	0xbd5491f6	-0.05189701
57	0x3c114c51	0.008868293
58	0x3c650ee0	0.013980597
59	0x3d4a8403	0.049442302
60	0xbd4983cc	-0.049197957
61	0xbd9e6fd7	-0.077361755
62	0x3cbd9e11	0.023146661
63	0xbd2bb5c3	-0.04192139
64	0x3dbe7646	0.092999026
65	0xbd6d8175	-0.057984788
66	0xbcebc6a5	-0.028781245
67	0x3d32cfbf	0.043655153
68	0x3cd1aa33	0.025593853
69	0x3c88cd5a	0.016699482
70	0xbb0eb0a0	-0.0021772757
71	0x3d161eea	0.036650576
72	0x39ee745b	0.0004548159
73	0x3ce1c30e	0.02755883
74	0x3d6ef0eb	0.058335226
75	0x3d74e590	0.05978924
76	0xbd7c359d	-0.061574567
77	0x3d75af16	0.059981428
78	0xb9e66dc6	-0.00043950806
79	0x3d361e9a	0.044462778
80	0xbd072913	-0.032998156
81	0xbd087ec2	-0.03332401
82	0xbc52b5e5	-0.01286075
83	0xbc2019d6	-0.009771785
84	0xbd05a0ea	-0.032624163
85	0x3d5d8bfa	0.05408857
86	0xbd3669d8	-0.044534534
87	0xbdaf5b06	-0.08562283
88	0x3cd28803	0.025699621
89	0xbd2feb9d	-0.042949308
90	0x3a80aa1f	0.0009816325
91	0x3c312cbc	0.010813888
92	0xbdb78def	-0.089626186
93	0xbd31bc34	-0.043392375
94	0x3cccea2e	0.02501401
95	0xbcb9973f	-0.022655128
96	0x3d461355	0.04835828
97	0xbd5dc4a5	-0.054142613
98	0x3c207f0c	0.009795915
99	0xbcbe7cd6	-0.023252886
100	0x3d1867bd	0.037208308
101	0xbb1c7c00	-0.002387762
102	0xbd39ff7a	-0.045409657
103	0x3db5ad6c	0.08870968
104	0x3cdd57f7	0.027019484
105	0x3d30166e	0.04299014
106	0xbd796b4a	-0.060893334
107	0x3dbbdd28	0.091730416
108	0x3d99a340	0.075018406
109	0xbc97af1e	-0.01851612
110	0x3d31b015	0.043380816
111	0x3b9238e8	0.00446235
112	0xbba22844	-0.0049486477
113	0x3cd36ad8	0.025807783
114	0x3d65fee5	0.05615129
115	0xbc12e82b	-0.008966486
116	0x3b99ffcf	0.004699684
117	0x3d0734d7	0.033009376
118	0xbd2ed977	-0.04268786
119	0x3c96a86c	0.018390857
120	0xbc83e6b7	-0.016101224
121	0x3c7e9dfd	0.015540597
122	0xbc104047	-0.008804387
123	0xbc614e80	-0.013751626
124	0x3ca5069e	0.020144757
125	0xbd021812	-0.031761236
126	0xbcb8bbd2	-0.022550497
127	0x3da029da	0.078204826

model.6.weight f4 [64, 128]
0	0x3d6d58e9	0.05794612
1	0x3e0ca206	0.13733682
2	0xbd1c2f17	-0.038130846
3	0x3d16a010	0.03677374
4	0xbde3fc70	-0.11132133
5	0x3b861a24	0.0040924717
6	0x3cc05f56	0.02348296
7	0xbd1e5a00	-0.03866005
8	0xbd5c75e8	-0.05382338
9	0x3d6291af	0.055314716
10	0xbc8223aa	-0.015886147
11	0x3e063ded	0.1310956
12	0x3dccdc79	0.10002989
13	0xbc038061	-0.008026213
14	0xbde23b41	-0.11046458
15	0xbdd2c7ab	-0.1029199
16	0x3d1322c9	0.035921846
17	0x3d4fedd2	0.050763912
18	0xbe145371	-0.14484955
19	0x3cc1a28f	0.023637084
20	0xbde31d1e	-0.11089538
21	0x3c93ceb5	0.018042902
22	0xbdfaf9ab	-0.12254652
23	0xbc62ab30	-0.01383476
24	0x3d8bbc40	0.06823015
25	0x3c894ae4	0.016759343
26	0x3e13bb27	0.14426862
27	0x3e1588b1	0.14602925
28	0xbdbdf90b	-0.09276017
29	0xbca14f55	-0.019691149
30	0xbd644499	-0.055729482
31	0xbd1214cf	-0.035664376
32	0x3c9476b7	0.018123014
33	0xbd653f18	-0.055968374
34	0xbd9a97af	-0.075484626
35	0x3c17f452	0.009274559
36	0x3dd69efb	0.10479542
37	0xbdeb9958	-0.115038574
38	0x3d7a4de6	0.061109446
39	0x3d9d0f52	0.07668938
40	0x3d0cdaa6	0.034388207
41	0x3dcddfae	0.10052429
42	0xbe1431ba	-0.14472094
43	0xbe16a1a7	-0.14710103
44	0x3c15911f	0.009128838
45	0x3e216a4c	0.15763205
46	0x3cbaabcc	0.022786997
47	0xbda5a7fd	-0.08088682
48	0xbd0f1dc5	-0.0349405
49	0x3d496c19	0.049175356
50	0x3bec639d	0.0072140233
51	0x3d0fb143	0.03508116
52	0x3dbda1a9	0.0925935
53	0xbbbb8a86	-0.0057233004
54	0xbe11e77b	-0.14248459
55	0xbcf57a80	-0.02996564
56	0x3d513785	0.05107834
57	0xbe2b092a	-0.16702715
58	0x3d6fe60f	0.05856901
59	0xbda005ac	-0.07813582
60	0xbcd213d1	-0.025644215
61	0xbd6d0c47	-0.057873037
62	0xbdd6e02f	-0.104919784
63	0x3e0dd8d7	0.13852249
64	0xbd83ce05	-0.064357795
65	0xbd626339	-0.055270407
66	0x3d1f6d82	0.038922794
67	0x3cf0083a	0.029300798
68	0xbdc3fcff	-0.095697396
69	0xbe31da94	-0.17368537
70	0xbc9ac1ad	-0.01889118
71	0x3d05eafb	0.032694798
72	0xbd30d301	-0.04316998
73	0xbc12f2da	-0.008969033
74	0xbc38e5fb	-0.0112853
75	0xbd5b888c	-0.053597018
76	0xbde9427a	-0.113896325
77	0x3cd0e65d	0.02550047
78	0x3d81571c	0.06315443
79	0x3cddf9f1	0.02709672
80	0xbdebf6aa	-0.11521657
81	0xbd99da0a	-0.07512291
82	0x3dc91cb9	0.098199315
83	0xbd254b59	-0.04035506
84	0xbd5d546b	-0.054035585
85	0xbd98c326	-0.074590966
86	0x3cfeeb36	0.031118017
87	0x3d3b84d8	0.045780987
88	0x3e245e8e	0.16051695
89	0x3cb8e419	0.022569703
90	0xbd925019	-0.07144184
91	0x3d5ac33f	0.053408857
92	0x3decc760	0.11561465
93	0x3e1b890d	0.15189
94	0xbda059f0	-0.07829654
95	0xbdb6cacc	-0.08925399
96	0x3dfc3148	0.12314087
97	0xbc7d0048	-0.015441962
98	0xbc5a8e8f	-0.013339653
99	0xbdb810f7	-0.08987611
100	0x3d0136a8	0.031546265
101	0xbc98c3e8	-0.018648103
102	0x3cac80b9	0.021057473
103	0x3d835102	0.064119354
104	0x3d09be16	0.033628546
105	0xbc1a1dcc	-0.009406518
106	0xbcda8cdd	-0.026678497
107	0x3d26b5af	0.04070061
108	0x3d434b33	0.047679137
109	0x3d0da675	0.034582574
110	0x3c39010a	0.011291752
111	0x3c000b56	0.007815203
112	0x3cb5d4ca	0.022196192
113	0x3c0c3cc6	0.008559411
114	0xbca79130	-0.020454973
115	0xbc3f67c7	-0.011682457
116	0xbdefd518	-0.11710566
117	0xbdc5a213	-0.09650054
118	0xbe01b739	-0.1266755
119	0xbd0bb85c	-0.034111366
120	0xbcc47715	-0.023982564
121	0xbdc7566e	-0.09733282
122	0xbccb9767	-0.024852468
123	0xbcc2d3d5	-0.02378265
124	0x3d861966	0.06547813
125	0xbdff8ff1	-0.124786265
126	0x3d279f5b	0.040923458
127	0xbd9b0aa1	-0.07570387
128	0xbddfb60f	-0.10923397
129	0xbdfb7738	-0.122785985
130	0x3dc6f78a	0.09715183
131	0x3d52eaff	0.05149364
132	0xbd014b28	-0.031565815
133	0xbca78cac	-0.02045282
134	0xbdfd2fae	-0.1236261
135	0x3c73cdb5	0.014880587
136	0x3d227602	0.039663322
137	0xbdd880f9	-0.105714746
138	0x3c1fd1b6	0.009754589
139	0xbd77da00	-0.060510635
140	0xbe05ae73	-0.13054828
141	0x3c892d4d	0.016745234
142	0x3e0d3dde	0.13793132
143	0x3d51694c	0.05112581
144	0x3d1e47ad	0.038642574
145	0xbd8063c3	-0.06269028
146	0x3e3c35f3	0.18379955
147	0xbd628f1e	-0.05531227
148	0x3d0873fb	0.033313733
149	0xbe2cd6d4	-0.16878825
150	0x3dd8ff5c	0.10595581
151	0x3cc7de9e	0.024398144
152	0xbb7b9837	-0.0038390288
153	0xbda507bb	-0.08058115
154	0xbe39a43f	-0.18129061
155	0xbd837aee	-0.06419931
156	0x3d9e94aa	0.07743199
157	0xbdf34842	-0.118790165
158	0x38d5699e	0.00010176304
159	0x3d341362	0.043963797
160	0xbcb18ca0	-0.0216735
161	0xbcb3607b	-0.021896591
162	0xbd730e0f	-0.05933958
163	0xbdb7563e	-0.08951996
164	0xbd16f228	-0.036852032
165	0x3d922ab4	0.07137051
166	0xbddbbe0f	-0.1072961
167	0x3baeb019	0.005331051
168	0x3d4c3590	0.04985577
169	0xbd1884ba	-0.037235953
170	0x3d782a08	0.06058696
171	0x3dd78cd6	0.10524909
172	0xbc8e8699	-0.017398166
173	0xbe33b4cd	-0.17549439
174	0x3caab5dc	0.02083867
175	0x3d268a03	0.040658962
176	0x3e072b15	0.13200028
177	0xbd4e9791	-0.050437514
178	0xbd313a96	-0.043268763
179	0x3d15aa20	0.036539197
180	0xbe2d7c5e	-0.16941974
181	0x3ddb9e1f	0.107235186
182	0x3d4cb81b	0.049980264
183	0xbdcfaa0d	-0.101398565
184	0xbd8d3944	-0.06895688
185	0x3e36b47a	0.17842284
186	0xbd2b0344	-0.04175116
187	0x3d8b2d5c	0.06795761
188	0x3b792fc1	0.0038022848
189	0x3d486114	0.048920706
190	0x3d915ecf	0.070981614
191	0xbda37595	-0.07981411
192	0x3e0def97	0.13860928
193	0x3a3a575b	0.0007108354
194	0xbcb61ec0	-0.02223146
195	0xbd00af2b	-0.031417053
196	0xbd42e6e6	-0.047583483
197	0x3e299790	0.16561723
198	0x3d359c1b	0.044338327
199	0x3d6f3393	0.058398794
200	0x3d7c3e31	0.061582748
201	0x3dbf1f3d	0.0933213
202	0x3d247e8a	0.04015974
203	0x3e2c8f46	0.1685153
204	0x3e3810e9	0.179752
205	0x3dc899a2	0.09794928
206	0xbdda8747	-0.10670333
207	0xbdbe2423	-0.09284236
208	0x3d959a38	0.073048055
209	0x3dabac62	0.08382489
210	0xbdc2c053	-0.09509339
211	0x3d3392d9	0.043841217
212	0x3d304542	0.0430348
213	0x3c74c01c	0.014938381
214	0xbd90be28	-0.070675194
215	0xbdab12b7	-0.08353179
216	0xbd23022a	-0.039796986
217	0xbddd709b	-0.108124934
218	0x3c71a191	0.014747993
219	0x3cc41a69	0.023938375
220	0xbd4a9d96	-0.049466692
221	0xbd5c8afb	-0.05384348
222	0xbd426398	-0.04745826
223	0x3db2098e	0.08693229
224	0xbd6a4c4a	-0.05720166
225	0xbe2dd039	-0.16973962
226	0xbc9aeba4	-0.01891119
227	0x3d8e8799	0.06959457
228	0xbd9c7c35	-0.07640878
229	0xbce962a1	-0.028489413
230	0x3d958996	0.07301633
231	0x3d06da9d	0.03292333
232	0xbd9d23fc	-0.07672879
233	0x3de51869	0.111862965
234	0xbaa1c217	-0.0012341168
235	0x3ca2ecb1	0.019888254
236	0x3d883321	0.06650377
237	0x3d8d05a0	0.068858385
238	0x3c2b4992	0.010454552
239	0xbd8f0ebf	-0.069852345
240	0xbd2c9d8d	-0.04214244
241	0xbd9645bd	-0.0733752
242	0xbd646702	-0.0557623
243	0x3bc4e266	0.006008434
244	0x3e1cfce6	0.15330848
245	0x3de5762f	0.11204182
246	0x3cda5507	0.026651872
247	0x3d93efbd	0.07223461
248	0x3d9621aa	0.0733064
249	0xbb86ffd2	-0.0041198516
250	0xbc5d18a7	-0.013494647
251	0xbd747378	-0.059680432
252	0xbde69173	-0.11258211
253	0x3dbe400d	0.092895605
254	0xbbd311ee	-0.0064413464
255	0x3c4fa527	0.012673653

model.6.bias f4 [64]
0	0xbcaf7949	-0.021420138
1	0xbda8d6f5	-0.08244125
2	0xba09c5a4	-0.0005255586
3	0x3d77b828	0.06047836
4	0xbb5118a3	-0.0031905554
5	0x3dc13ac0	0.09435034
6	0x3d9b5ea2	0.07586409
7	0xbd8b678d	-0.0680686
8	0x3c5b8238	0.013397746
9	0xbd403e41	-0.04693437
10	0x3d66802c	0.056274578
11	0xbdc86b1d	-0.09786055
12	0xbcaa4329	-0.020783978
13	0xbdad20ec	-0.08453545
14	0xbd56c465	-0.05243339
15	0x3dbd66f0	0.092481494
16	0x3d9f6a5a	0.07783957
17	0xbcf26892	-0.029590879
18	0xbd04d741	-0.032431845
19	0x3d5ee57e	0.05441808
20	0x3d593a12	0.053033896
21	0xbc30b175	-0.010784497
22	0x3b90691e	0.004407062
23	0x3b051b19	0.002031034
24	0xbddcf4a8	-0.10788852
25	0xbcde8ec7	-0.02716769
26	0xbd0df5c6	-0.034658216
27	0xbd841a4d	-0.06450329
28	0x3d9da95d	0.07698319
29	0x3d9bd1c1	0.07608367
30	0xbd6532b8	-0.055956572
31	0x3ce523a4	0.027971096
32	0xbb92b17a	-0.0044767233
33	0xbd10c692	-0.03534562
34	0x3d80abdb	0.06282779
35	0xbd23ac56	-0.039959274
36	0x3c9792df	0.01850265
37	0x3c221994	0.009893794
38	0x3cc689f0	0.024235696
39	0x3d70f831	0.058830444
40	0xbd8470fd	-0.06466863
41	0x3c2ecb50	0.010668591
42	0x3d41ca81	0.047312263
43	0x3d493c6b	0.049129885
44	0x3db87678	0.09006971
45	0x3daefe37	0.085445814
46	0x3d7e64c6	0.062107824
47	0x3d70393b	0.05864833
48	0xbd88b6e1	-0.066755064
49	0xbcb4d4c7	-0.022074116
50	0x3d38c26d	0.045107294
51	0xbd4ea58d	-0.05045085
52	0x3ca9461d	0.020663315
53	0xbd73d8d4	-0.059532955
54	0xbc46b692	-0.012128489
55	0x3d5886d8	0.052862972
56	0x3d0810ed	0.033219267
57	0xbdd0cf09	-0.10195739
58	0xbdd0de07	-0.10198598
59	0x3d8113d7	0.06302612
60	0xbdbcc2af	-0.092168204
61	0x3bb0b827	0.0053930464
62	0x3d561257	0.052263584
63	0xbcb55af4	-0.022138096

model.8.weight f4 [2, 64]
0	0xbea970c2	-0.3309384
1	0x3ea60e97	0.32433006
2	0x3e5e9b5f	0.21738957
3	0xbe4910f3	-0.19635372
4	0x3ea941a8	0.33057904
5	0xbef998e1	-0.4874945
6	0x3ea23602	0.3168183
7	0x3eeeb73c	0.46624172
8	0x3ebbb125	0.36658588
9	0xbe38cd22	-0.18047002
10	0x3e993bdf	0.2992849
11	0x3e95fad1	0.2929292
12	0x3eb374c8	0.35050035
13	0x3eb46cd9	0.35239294
14	0xbeb4cd7c	-0.35313022
15	0xbe85ff11	-0.26171163
16	0xbe7817c3	-0.24227814
17	0xbe8b3d97	-0.27195427
18	0x3e9b4062	0.30322558
19	0x3e76efdf	0.24114941
20	0xbeae1e3a	-0.34007436
21	0xbee8ea07	-0.4549105
22	0x3e833777	0.25628254
23	0xbeba780a	-0.36419708
24	0x3e9c2f73	0.3050495
25	0xbee0d0c9	-0.4390929
26	0x3e9a8c40	0.30185127
27	0xbebe7a25	-0.37202564
28	0xbeb025b8	-0.34403777
29	0xbe89fab7	-0.26949093
30	0xbeb0cc59	-0.34530905
31	0x3ecaf039	0.396364
32	0xbe9e2942	-0.30890852
33	0xbe816c84	-0.25278103
34	0xbf060311	-0.5234843
35	0x3ec4ae6f	0.38414332
36	0xbe9fc989	-0.31208447
37	0xbe96f9ba	-0.294874
38	0xbed6f832	-0.41986233
39	0x3ed040c7	0.4067442
40	0x3e6adba5	0.2293535
41	0x3eb13e22	0.34617716
42	0x3e9f4d09	0.3111346
43	0x3e8a7701	0.27043918
44	0xbe9d2563	-0.30692586
45	0xbe9ae73c	-0.30254543
46	0xbe9dacb7	-0.30795833
47	0xbf0f939d	-0.56084615
48	0xbe99ba76	-0.3002507
49	0xbe98a454	-0.29812872
50	0x3e64ed12	0.2235606
51	0x3e461668	0.19344485
52	0xbe9cede4	-0.30650246
53	0x3ece4185	0.40284362
54	0x3ebcf135	0.36902776
55	0x3e97484a	0.2954734
56	0xbea70df9	-0.32627848
57	0x3eb9086e	0.36139244
58	0x3f04048d	0.51569444
59	0x3ea0e97f	0.31428143
60	0x3ed65730	0.41863394
61	0x3e17577e	0.1477947
62	0xbef33f4a	-0.47509223
63	0xbe926470	-0.28592253
64	0x3ea17ec2	0.3154202
65	0xbeda1322	-0.42592722
66	0xbe99c12e	-0.30030197
67	0x3e9acbdb	0.30233654
68	0xbed735a8	-0.42033124
69	0x3ee22375	0.44167677
70	0xbe8681fd	-0.26271048
71	0xbe6abf4f	-0.22924541
72	0xbed6d00c	-0.41955602
73	0x3ec41ce3	0.3830329
74	0xbeaebb55	-0.34127298
75	0xbeba686d	-0.36407796
76	0xbe3f84d2	-0.1870301
77	0xbea93850	-0.33050776
78	0x3ebe9d76	0.37229508
79	0x3eaa1ce6	0.33225173
80	0x3eb50d7c	0.3536185
81	0x3ef752ac	0.4830526
82	0xbee74c18	-0.45175242
83	0xbe787865	-0.24264677
84	0x3eb2f922	0.34955698
85	0x3e94a158	0.29029346
86	0xbe96f725	-0.2948543
87	0x3e9b0591	0.30277684
88	0xbea463bf	-0.3210735
89	0x3ea1363d	0.31486693
90	0xbeb922c2	-0.3615933
91	0x3eafe274	0.34352458
92	0x3eabb4cd	0.33536378
93	0x3ed1afe4	0.40954506
94	0x3e6e4742	0.2326937
95	0xbe5ed95c	-0.21762604
96	0x3e65ec40	0.22453403
97	0x3e951bd5	0.29122797
98	0x3f0d7b9d	0.55266744
99	0xbe9faa51	-0.3118463
100	0x3ea230cf	0.31677863
101	0x3eb74db0	0.35801458
102	0x3ee3e635	0.44511572
103	0xbeeb9f29	-0.46019867
104	0xbed84bd1	-0.42245343
105	0xbe77985e	-0.24179217
106	0xbe6eb536	-0.23311314
107	0xbeac1e5d	-0.33616915
108	0x3eb1f6d6	0.34758633
109	0x3ea6fbec	0.32614076
110	0x3e8a2de5	0.2698814
111	0x3eabae16	0.33531255
112	0x3e9165c3	0.2839795
113	0x3eae3f4f	0.34032676
114	0xbeaf0aa7	-0.34187815
115	0xbebc39c3	-0.3676282
116	0x3eb2405b	0.34814724
117	0xbe74b11d	-0.23895688
118	0xbec0f7f4	-0.37689173
119	0xbe8a6618	-0.27031016
120	0x3e40afdf	0.1881709
121	0xbea99879	-0.3312414
122	0xbe9e58e2	-0.30927187
123	0xbeb6fe0d	-0.357407
124	0xbe874cb7	-0.26425716
125	0xbe90b81a	-0.28265458
126	0x3ee86433	0.45388946
127	0x3e9622c6	0.29323405

model.8.bias f4 [2]
0	0xbd9b25c8	-0.075755656
1	0xbdaae2b5	-0.08344022
