models/12-19-2022_21-02-10__anova_binary.model (torch, 737343 bytes, 10 tensors)

model.0.weight f4 [512, 20]
000000 45 ec ce 3d ed 4f 87 3e 0a 6a c9 be e9 ad f2 3c
       0.101036586 0.26428166 -0.39338714 0.029623942
000010 13 94 ae 3e 56 09 72 3e 1a 1c 80 3e e0 98 5e 3e
       0.34097347 0.23636374 0.2502144 0.21738005
000020 a7 a6 36 bc 0f 0c cd 3d 40 c1 83 be 5d ff dd 3b
       -0.011148131 0.100120656 -0.25733376 0.0067748264
000030 fe 17 1d 3e e5 bd 5f 3e f2 98 84 3e e9 eb cf 3d
       0.15341184 0.21849783 0.25897938 0.10152418
000040 1c a5 e2 3e 6d 21 13 3e b0 45 e2 bd 05 0a 10 be
       0.44266593 0.1436822 -0.11048448 -0.14066322
000050 0a 7f 33 bd eb dc 04 bd 4f b6 58 bd ba 31 c2 3d
       -0.043822326 -0.032437246 -0.052908238 0.09482141
000060 92 f3 a4 3e 34 f2 8f bd d3 47 70 3e 0f 91 6b 3d
       0.3221708 -0.070286185 0.23464899 0.057511386
000070 13 3c dc 3d 06 fe 17 3f 1f 89 99 be 40 06 a1 3e
       0.10753646 0.59371984 -0.29987428 0.3145008
000080 27 2b 38 be 22 14 9d 3d 2f ab 8c 3e 87 c5 0a 3f
       -0.17985211 0.07669856 0.27474353 0.5420765
000090 55 a7 f3 3e 08 27 41 3e 02 ef c9 3d f6 84 4e 3e
       0.47588602 0.18862545 0.0986004 0.20167908
0000a0 17 4e 06 3c 3d 8d ce 3e b3 43 fc be 2c fb 1d 3e
       0.008197329 0.4034213 -0.492704 0.15427846
0000b0 24 72 21 bd d8 0b 84 3d ec d4 56 3e 5d 18 f8 3b
       -0.039415494 0.064475715 0.20979661 0.0075712637
0000c0 ce 13 93 3e 3b 51 5c 3e 46 a0 4d 3e af 8a c5 3e
       0.28726047 0.21515362 0.2008067 0.3858237
0000d0 55 4c 31 bc b6 10 09 bd ac 4e 46 3d 96 6e 8f bd
       -0.010821422 -0.033463202 0.04841487 -0.070035145
0000e0 9a 5c 87 be 11 2f 88 3e 50 98 0f 3f de 5e 87 3e
       -0.26437837 0.2659841 0.56091785 0.26439565
0000f0 c7 78 e2 be 73 ed 2d 3e 29 3c c7 bc 74 1d ab 3e
       -0.4423277 0.16985111 -0.024320679 0.33420908
000100 d7 4b f1 3d ff e7 10 3e a8 31 09 3e 2d e9 35 bd
       0.117820434 0.14151 0.13397849 -0.044411827
000110 cf 32 5f 3e 17 f0 b6 3e d2 1a dc be b8 b2 2c 3e
       0.21796726 0.3573005 -0.42989212 0.16865051
000120 2c 10 56 3e 8f 8b f7 be 0f ca 97 3e 30 21 c9 3e
       0.20904607 -0.48348662 0.29646346 0.39283133
000130 b1 e5 68 be 98 b5 d4 3e 7b 45 af bd b4 80 ff 3e
       -0.2274387 0.41544795 -0.08558174 0.4990288
000140 20 b5 a2 be 1e 9a 16 3e 53 42 97 ba 6d 44 11 3e
       -0.31778812 0.14707229 -0.0011540152 0.14186259
000150 6a a1 a3 3e aa cb 37 3e df 7d ae be 0e 91 4e 3e
       0.31959087 0.17948785 -0.34080407 0.20172521
000160 44 dc 91 3e 4e 31 31 be 2f a4 0c be 47 28 5a 3e
       0.28488362 -0.17303964 -0.13734506 0.21304427
000170 11 86 90 bd 53 e3 0c be 96 8a 37 3e 12 a3 b6 bd
       -0.07056821 -0.13758592 0.1792396 -0.08917822
000180 de 68 bd bd 64 0b ab 3d 42 6e 35 bf 81 68 44 3d
       -0.092485175 0.08351782 -0.70871365 0.047951225
000190 2b 96 94 be 9c 73 a4 3e 6d 75 69 be 77 b2 47 3e
       -0.2902082 0.32119453 -0.227987 0.19501673
0001a0 b2 80 1e 3e 67 de f4 bd 23 fc 94 3d 56 62 60 3e
       0.15478781 -0.119564824 0.07274654 0.21912512
0001b0 09 60 b5 bd c5 04 c0 3d f6 eb 19 3e 10 67 d5 3e
       -0.08856208 0.0937591 0.15031418 0.41680193
0001c0 6d 1e 97 3d 66 89 b0 3d de ec 29 3e 00 e1 33 3e
       0.0737885 0.08619957 0.16594264 0.175663
0001d0 50 36 93 3d 72 00 d2 3d 88 6d 7c bf 32 69 a8 3e
       0.07188094 0.10253991 -0.9860463 0.32892758
0001e0 df d1 98 bc 83 8a 86 3f 0e 2c 7d bf 04 8f b2 bd
       -0.018654762 1.051102 -0.9889535 -0.08718684
0001f0 52 68 88 3e fc 48 f6 3d 78 43 5b be 99 c5 55 be
       0.2664209 0.120256394 -0.21412456 -0.20876159
000200 bd f2 2f 3e 96 4a 58 be 1f cd 04 3e 1d 4e 9f 3e
       0.17182441 -0.21122202 0.12968872 0.31114283
000210 22 23 69 bd cb 73 82 3c 11 48 98 3d ef ea 68 bc
       -0.05691827 0.015924355 0.074356206 -0.014216169
000220 af 93 d7 bd 28 84 f3 bd 3c 29 71 3d ce 28 11 be
       -0.10526215 -0.11890441 0.058877215 -0.14175722
000230 3e 8d ba 3b ea 33 3d 3e fb 20 da be 5b 74 e2 3d
       0.005693107 0.18476835 -0.42603287 0.11057349
000240 15 56 0a 3e 5e c0 cd 3d 87 c8 10 3e 63 8b 24 be
       0.135094 0.10046457 0.14138995 -0.16068797
000250 5b 58 34 3d 0a e5 50 3d 56 70 68 bd 87 59 19 3e
       0.044029575 0.05099968 -0.056747757 0.14975558
000260 7f c5 42 3e fd 88 03 3e ca 0f 26 3c fd bf 9c 3e
       0.19020651 0.12845226 0.0101356 0.30615225
000270 d9 05 97 3e 1a 99 3d 3e c4 d6 72 bc 08 0a 98 3e
       0.2949665 0.18515435 -0.014821712 0.29695153
000280 0c 86 23 3f b3 34 02 3f 9d 7a 72 be c0 45 90 be
       0.63876414 0.5086166 -0.23679586 -0.28178215
000290 7e 63 13 3c 7c 78 b6 bd ec 1c 9f 3e 2c 84 40 3c
       0.008995889 -0.08909699 0.31076753 0.011750262
0002a0 42 83 1f be d2 80 79 3d ea 40 3e be 52 e1 05 3e
       -0.15577415 0.06091387 -0.1857945 0.13074234
0002b0 50 06 04 3d 38 2f 00 3d 4f 73 9d 3e 14 35 d8 3d
       0.032232583 0.03129503 0.30752036 0.10556999
0002c0 59 04 0f bf 7a f1 d4 3d 3e df e8 bd 2e e1 9f 3e
       -0.5586601 0.103976205 -0.11370705 0.31226486
0002d0 87 ed 50 3f f6 53 77 3e f7 ac cf 3d 73 67 65 3e
       0.8161244 0.24153122 0.10140412 0.22402744
0002e0 4b cc 0f 3e 50 eb bc 3d 0e f9 ea be e6 57 3b be
       0.14042775 0.0922457 -0.4589314 -0.1829525
0002f0 74 74 24 3e 5a 93 8a 3e cb 7e d3 bd de d2 45 3e
       0.16060048 0.27065545 -0.10326918 0.1931872
000300 3a 1b 97 bd 2d c4 1b be 5f f7 9d 3e 9d 56 84 3d
       -0.0737824 -0.15211554 0.30852792 0.06461833
000310 8f 0c 6c 3d 11 81 cd 3e df e8 34 bd 55 ed 57 3e
       0.057629164 0.40137532 -0.044167396 0.21086629
000320 27 80 30 be ca 81 f7 bd a8 31 15 be af bc 52 3d
       -0.17236386 -0.12085302 -0.14569724 0.051449474
000330 13 9f ec 3e 83 0b e9 3d 2d 33 80 3e 6a d1 76 3d
       0.46215114 0.11379149 0.25039044 0.060258307
000340 e1 f5 05 3e 2d 23 9e 3d 06 e5 03 3c 60 12 37 3e
       0.13082077 0.07721553 0.008050209 0.17878103
000350 cf ff 01 be 0a aa 88 3e cc 24 df 3e c7 7f 58 3e
       -0.1269524 0.2669223 0.4358276 0.21142493
000360 ea 62 e0 3e d1 56 05 3f 7b 01 3c 3e ac 91 93 3e
       0.43825465 0.52085596 0.1835994 0.28822076
000370 e5 ec 83 be 3b fc f4 3c e3 f5 58 be aa 0d c3 3e
       -0.25766674 0.02990543 -0.21187548 0.38096362
000380 1e 03 01 3e d6 93 a9 bd 28 be ae 3e f8 ac 2b 3e
       0.12598845 -0.082801506 0.34129453 0.16765201
000390 48 64 cd 3e 25 2e f4 3d 80 cb 9f bd 28 41 01 3f
       0.4011557 0.11922864 -0.078024864 0.50490046
0003a0 e3 0d 6f 3d 3a 76 c0 3d 48 80 6c 3e 6b 71 71 3e
       0.058362853 0.0939755 0.2309581 0.23578422
0003b0 a0 d3 83 be e6 ee 79 3e 47 6c e3 3e f6 4d a5 3d
       -0.25747395 0.24407539 0.44418547 0.080715105
0003c0 ef ad 86 bc c1 7d de 3e ff b5 b6 3e 05 07 f1 bc
       -0.01644036 0.43455318 0.35685727 -0.029422292
0003d0 37 fe 18 3d 10 e4 de bd df 7b 86 3c 83 0b d5 bd
       0.037351813 -0.10883343 0.016416488 -0.10402586
0003e0 4b b8 79 3e e3 03 34 3e 2d 4f e1 be 89 c9 4d 3e
       0.24386708 0.17579608 -0.4400572 0.20096411
0003f0 57 5c 1f be 65 90 1b 3c 43 54 ae bb d8 b3 01 be
       -0.15562569 0.009494876 -0.0053201034 -0.12666261

model.0.bias f4 [512]
000000 98 e9 60 be 7a 0e 8c bd 3f 5f a4 be 85 c0 9c be
       -0.21964109 -0.06838699 -0.32103917 -0.3061563
000010 9b 75 9c be d3 02 22 bd f9 a6 95 3c ee 37 a0 be
       -0.30558476 -0.039553475 0.018268095 -0.3129267
000020 d3 20 f6 bc d3 cf 0f bd 30 86 a0 be 67 ac 05 bf
       -0.030044949 -0.035110306 -0.31352377 -0.5221619
000030 eb d7 4d be 8f af b9 be 90 4a 34 be 13 12 21 bd
       -0.20101897 -0.36266753 -0.17606568 -0.039323878
000040 b6 7a 1f be da 62 0c 3c f1 96 9c be 18 ec 98 be
       -0.15574154 0.00856849 -0.3058391 -0.29867625
000050 2d 18 b0 be 58 c6 e1 bd ad 4f c0 bd 21 a1 79 3d
       -0.34393445 -0.11024159 -0.09390197 0.06094468
000060 17 e0 99 be 0b 8b da be b0 80 bb 3c 44 ac 68 bd
       -0.3005378 -0.42684206 0.022888511 -0.05680491
000070 cc bc 20 be 11 76 35 bc cd 00 b9 be 1e 1b 53 be
       -0.1569702 -0.0110755125 -0.36133423 -0.20615813
000080 57 ac 47 bd be bf 32 be 88 d6 20 be 7c b8 9c bd
       -0.04874834 -0.17455956 -0.15706837 -0.07652375
000090 5a 2f 8a be ae d7 87 be a0 44 27 bd 9f de 03 bf
       -0.2698925 -0.26531738 -0.04083693 -0.5151157
0000a0 9e 1f 9e be e2 76 ee 3c 3a a4 2d bc 0d 83 77 bd
       -0.30883497 0.029109422 -0.010598237 -0.060427714
0000b0 bd 37 50 be 82 5e 51 be 7d 5b 43 be a4 11 34 be
       -0.20333762 -0.20446208 -0.19077869 -0.17584854
0000c0 8c 9c 7a be 3d c4 77 bd 49 2f d7 bd 73 08 bc 3d
       -0.2447378 -0.06048988 -0.10507066 0.09181299
0000d0 96 e3 a2 bd 05 46 2f be a5 4c 85 bc 5c 1e 28 be
       -0.07953565 -0.17116554 -0.016271899 -0.16417831
0000e0 7a 8f 51 be 43 b2 8f be 59 0e e5 bd 3b 9f 88 be
       -0.20464888 -0.2806569 -0.11184377 -0.26683983
0000f0 7f 98 46 bc 79 9a 21 be 45 87 13 3c 53 de 12 bd
       -0.012121319 -0.15781583 0.009004419 -0.035856556
000100 28 e1 fc bd 5b e6 9c bd 61 6c 00 be 3f d3 ea be
       -0.12347633 -0.07661124 -0.12541343 -0.45864293
000110 ce ff 4f bd 7a 83 e8 be 15 1d be bd 99 b5 8e bd
       -0.050781064 -0.4541281 -0.09282891 -0.06968231
000120 7d 31 28 be d2 44 63 3b 00 67 a3 be 26 60 99 be
       -0.16425128 0.0034678471 -0.3191452 -0.29956168
000130 88 2b c1 be b6 f3 35 be 3a 19 57 be 7b b4 2b be
       -0.37728524 -0.1776875 -0.21005717 -0.16768067
000140 8e e3 a9 bd 90 2f cd 3c f6 03 b9 be 02 06 82 be
       -0.08295356 0.025047094 -0.36135834 -0.2539521
000150 d3 7e a4 bd 88 c0 e2 bd 73 b1 45 be 30 25 5d be
       -0.08032002 -0.11071879 -0.19305973 -0.21596217
000160 a8 57 d3 be 72 43 68 bd 50 ce 0a bd 6e 98 95 be
       -0.41277814 -0.056704946 -0.03388816 -0.29217857
000170 b0 dd 45 be 4c 7b 3d bd e6 b7 00 3e 29 9c 8a be
       -0.19322848 -0.046260163 0.12570152 -0.27072266
000180 69 72 11 3d 1e 78 ab be ea bc 6d bd cc 6e d2 3a
       0.0355095 -0.3349008 -0.05804149 0.0016054749
000190 41 3f 68 3c 78 6b 61 be eb 22 7f be c3 14 e7 bd
       0.014175237 -0.22013652 -0.24915664 -0.11283257
0001a0 3f 3c 95 3d 12 55 7d be 87 6d 0f be 84 bf e1 be
       0.07286882 -0.24739483 -0.14006625 -0.44091427
0001b0 f1 15 88 be d9 b1 f8 3b e4 ba 0b 3e f9 ef 6d be
       -0.2657924 0.0075895605 0.13645512 -0.23236074
0001c0 60 4d b6 3b c2 60 c7 bc fa 40 33 be db 04 94 be
       0.005563423 -0.02433813 -0.17505255 -0.28909954
0001d0 d8 92 de 3d 79 cc 3b be 4c 1e 5e be 8e 84 bd be
       0.10867852 -0.18339719 -0.21691245 -0.37015194
0001e0 14 f9 b7 be a6 be d0 3d 5c aa ce be ff ab 51 be
       -0.3593222 0.10192613 -0.4036435 -0.20475768
0001f0 8f 4c 43 be 6a bc 81 be 92 61 0a bd 91 6a 8c 3d
       -0.19072174 -0.2533906 -0.033784457 0.068562634
000200 88 1a a1 bd 3c 8a 35 be b3 f1 1e 3e 6a dc f2 bb
       -0.078663886 -0.17728513 0.15521888 -0.0074115293
000210 0b 26 9c be 68 77 b9 3d c2 0f 9a be b4 fb d9 be
       -0.30497774 0.09055978 -0.30090147 -0.42574847
000220 0f d3 b7 be 97 a0 f4 3a 82 8b 08 bd 56 f3 9e bd
       -0.35903212 0.0018663582 -0.03333617 -0.077612564
000230 43 c4 59 be c4 15 93 be 8d a5 cd 3d ca fe a4 be
       -0.21266274 -0.28727543 0.10041342 -0.3222564
000240 68 47 5e be 67 1f 96 be 21 3b a5 be 32 de db ba
       -0.21706927 -0.29320833 -0.32271674 -0.0016774593
000250 52 ab e0 bd 45 19 7b bd f9 f7 b2 3d 23 1a 4f be
       -0.10970177 -0.061303396 0.08738703 -0.20224814
000260 0a 93 42 be 57 75 32 bd 29 aa 04 3e 9a 8c 37 be
       -0.19001403 -0.043568935 0.12955536 -0.17924729
000270 fd f0 e4 3c 2e 9f a1 be 34 10 82 bc 13 f2 1a be
       0.027946943 -0.31566757 -0.015876867 -0.15131406
000280 d5 03 d9 be 47 4c 89 bd 85 9d ac be e6 67 cd be
       -0.42385736 -0.06704002 -0.33713928 -0.4011833
000290 b0 58 2c be ef 7b 5f be b8 1a a9 be bc 2d dd bd
       -0.16830707 -0.2182462 -0.33028197 -0.10799739
0002a0 94 c9 64 3d 90 20 f0 bd d3 d8 0a 3d 1c 6d d4 be
       0.055856302 -0.11724961 0.033898186 -0.41489494
0002b0 a6 71 58 be ca a9 6d be 66 2f 50 be a8 de f7 be
       -0.21137103 -0.232093 -0.20330581 -0.4841206
0002c0 bc 31 7f 3d d4 43 41 be 6e 23 70 be 4a e7 64 be
       0.06230329 -0.1887353 -0.23451015 -0.22353855
0002d0 98 47 27 be e3 f3 18 be 86 f0 bf be f4 ce a9 be
       -0.16335905 -0.14936785 -0.37488192 -0.33165705
0002e0 f3 de 01 3d fa cf a1 bd d3 66 d8 bd af ab 4e bd
       0.03170676 -0.079009965 -0.10566487 -0.0504567
0002f0 61 15 8b bd 26 c7 09 be 34 49 ef bc 94 b1 59 be
       -0.06791187 -0.13454875 -0.02920971 -0.21259147
000300 dc b8 36 bd ee 82 89 be ef df 45 bd d0 93 24 be
       -0.04460989 -0.26857704 -0.048309263 -0.16072011
000310 6e 87 95 be 45 45 f1 bc 9c 08 61 be 23 e5 c3 be
       -0.29204887 -0.029451976 -0.2197594 -0.38260755
000320 60 a9 aa 3d b7 9f 9b be c3 1f 19 3e b8 5a d1 bd
       0.08333087 -0.3039529 0.14953522 -0.10222381
000330 9d 2d 08 be 3f 79 e4 3c 75 4f 2f be e8 16 00 3d
       -0.1329865 0.027889846 -0.17120154 0.031271845
000340 4b e1 ab bd 9f f7 4a bc d8 aa 6e bc b2 74 3c be
       -0.083925806 -0.012388139 -0.0145670995 -0.1840389
000350 ae 32 7b be d0 f1 f6 bd ef b5 7e 3c 1e 5f ed be
       -0.24531052 -0.12057841 0.015546306 -0.4636163
000360 d4 c6 b4 be af 2f 4a bd 84 ae 07 3d 95 12 d5 be
       -0.35307944 -0.04936188 0.033125415 -0.4161574
000370 bd 2e 07 bc 4c 88 02 3d 5c 12 9d be 50 ff ea bd
       -0.008250889 0.031868264 -0.3067807 -0.11474478
000380 b3 08 88 be 43 ef 70 be aa 79 c4 bd 9a cd 9c be
       -0.26569137 -0.23528771 -0.09593518 -0.30625612
000390 93 63 09 be e1 73 85 be 04 ca 9b 3d 85 cc fa bd
       -0.13416891 -0.2606497 0.07606891 -0.1224604
0003a0 9f a4 f5 bb 24 ad d6 be 68 c3 22 be 8e 25 95 bd
       -0.007496431 -0.4192897 -0.15894854 -0.072825536
0003b0 11 2c d0 3c 52 fe 90 bd aa 11 54 be 7f 7a e6 3c
       0.025411637 -0.07079758 -0.20709863 0.028134583
0003c0 01 9d a7 be 50 9d ae bd 1e d6 f0 3c fb a4 8f be
       -0.32736972 -0.08526099 0.029398974 -0.28055558
0003d0 12 6f d1 be ec 8b 98 be c6 3c d2 3d 1d 3d e4 bd
       -0.40905052 -0.29794252 0.10265498 -0.11144469
0003e0 18 f1 1d be 27 91 9a 3d c5 42 83 be 2b 33 86 bc
       -0.15424001 0.07547217 -0.2563688 -0.01638182
0003f0 45 97 86 be 81 1e c7 bd 02 19 4f be d9 7e 30 bc
       -0.26287284 -0.09722615 -0.20224383 -0.01077243

model.2.weight f4 [256, 512]
000000 28 82 ca 3c 49 48 ad 3c 95 28 f5 3c ad dd fb 3c
       0.024720266 0.021152632 0.029926578 0.030745352
000010 4f 4b 8b 3c fa 1d 91 3b 0b 16 ca 3c ef f6 0c bd
       0.017003683 0.0044286223 0.024668714 -0.03441518
000020 39 a6 36 bd 64 7a 7b 3c f8 f8 c5 3c 31 d5 f3 bc
       -0.044592116 0.015349004 0.02416657 -0.029764744
000030 00 7f ed 3c 7f 81 43 bd 78 91 18 bd 20 b2 6e bb
       0.028991222 -0.04773092 -0.037248105 -0.0036422089
000040 1a 82 ec bc 40 f2 12 bd 67 5f 73 3c b1 1c a5 3c
       -0.028870631 -0.03587556 0.014854289 0.020155283
000050 35 bc 05 3c da d3 10 3d 70 5a ae bc b9 16 a2 3b
       0.008162548 0.035358287 -0.021283358 0.0049465564
000060 cd 02 f6 bb fa 05 23 3d 93 a9 41 bd 4b 00 50 bd
       -0.007507658 0.03980062 -0.04728086 -0.05078153
000070 af 02 53 bc b6 ec e1 3b a0 d7 c5 bb 54 b1 eb bb
       -0.012879058 0.006894673 -0.0060376674 -0.00719277
000080 15 6b 69 3b 59 3b 80 bb a1 b3 4d 3c 27 e3 0d bd
       0.0035616804 -0.003913325 0.012555034 -0.034640457
000090 df f4 f2 bb 6c e6 33 3c a6 60 8c bc be 46 8e bb
       -0.007414445 0.01098023 -0.01713593 -0.004341929
0000a0 81 8d ae bc 02 61 e3 bc 4a 67 b4 3b 21 3f 36 3c
       -0.021307709 -0.027756218 0.005505477 0.01112345
0000b0 21 1f 23 3c 4d e0 ef 3c 76 34 7d 3c 16 f9 08 bd
       0.009956152 0.02928176 0.015454402 -0.03344067
0000c0 06 d6 a3 3c 29 0c 92 3c 94 ac 70 3c e9 bb 9f 3c
       0.019999515 0.017828064 0.014689583 0.019498782
0000d0 76 3e 08 bd 82 b5 d3 3c 8b 79 00 3d cb 6a 2b bc
       -0.033262692 0.025843386 0.031365912 -0.010462473
0000e0 90 b3 eb 3b bc ce b3 3c d1 86 ea ba 77 d5 89 3c
       0.0071930364 0.021949165 -0.0017892962 0.01682542
0000f0 ea 73 c6 bc 8c 77 0a bd e2 87 0a ba 97 57 ad 3c
       -0.024225194 -0.033805415 -0.00052845303 0.02115993
000100 72 4a df 3c 6f 92 71 3c a6 e3 13 ba a2 71 9f 3b
       0.027257178 0.014744385 -0.0005641527 0.004865841
000110 62 ff af 3c 9f f8 04 bd 3f 74 09 bb 0e 84 10 3d
       0.02148408 -0.032463666 -0.002097383 0.035282187
000120 23 ce 24 bd 79 60 11 bd 3e 70 8b bc 9e 36 6d 3c
       -0.04023565 -0.035492394 -0.017021295 0.014478354
000130 6b 55 b7 3c 30 39 13 bd 4f 71 b8 3c 5e ff e4 3c
       0.022379598 -0.03594321 0.022514967 0.0279538
000140 7d f5 36 b9 24 6b 05 bd 31 ec 9b ba 25 7d 37 bd
       -0.00017448324 -0.03257288 -0.0011895952 -0.04479708
000150 bd 21 84 bc 3b ae 15 3d 95 18 ca bc f0 f8 d8 bc
       -0.016129369 0.036543112 -0.024669925 -0.02648589
000160 db df 97 bb 7f d2 23 bc 5e de 31 bc 62 bd 9a 3b
       -0.00463484 -0.009998917 -0.010856239 0.004722283
000170 35 a1 ad 3c 28 8e 06 bd 60 ca e1 3c 8d ec dd bc
       0.021195034 -0.032850415 0.02756232 -0.027090335
000180 dd 15 d6 bc 4e c8 98 3b 6b ec 8a 3c 83 32 89 bc
       -0.026133472 0.00466255 0.016958436 -0.016747719
000190 6e a9 4a bd 5d 5c f9 3c 2f ed 0d 3a d2 00 3d bd
       -0.049477987 0.03043955 0.0005414066 -0.04614336
0001a0 6a b8 08 3b 0f 27 1a 3d 9e 51 9a 3c e8 2c 3e bc
       0.0020861872 0.037634905 0.018837746 -0.011607386
0001b0 9b 59 41 bc f4 03 7e 3c be d6 ee 3c d0 2c 12 3c
       -0.011801149 0.015503872 0.029155131 0.008921817
0001c0 b8 8e 84 bc 3f a6 3c bd 29 ad fb bb 09 4a b9 bc
       -0.016181335 -0.046056982 -0.0076805544 -0.02261831
0001d0 31 3b 3d bd b7 75 0c 3d 22 e8 e1 bb d7 c1 4b bc
       -0.046199027 0.03429195 -0.0068941275 -0.012436352
0001e0 fa ce 32 bd 3a e3 90 ba 6a 28 89 bc 66 57 c1 3c
       -0.04365442 -0.0011054047 -0.016742904 0.023601245
0001f0 96 32 46 bd 2d cb 03 3d 39 e1 e3 3c da aa 0a bb
       -0.048388086 0.032176185 0.027817355 -0.0021158964
000200 2f 2d 33 bd f1 de b6 3c 92 a2 93 3c 13 57 11 3d
       -0.043744262 0.022323104 0.018021856 0.03548343
000210 22 cc e0 bc bd 3a bb 3b e3 af 4b 3b 6e 79 4a bc
       -0.027441088 0.0057137893 0.0031080178 -0.012358053
000220 4a 74 04 3c 26 68 d8 ba 1c ae 50 bd a2 e1 f7 bb
       0.008084366 -0.0016510531 -0.050947294 -0.0075647393
000230 6d 7d f7 3c 92 e3 7a 3b 0f 38 f3 3b b7 61 b0 3c
       0.030211175 0.0038282615 0.007422454 0.021530969
000240 37 d6 ff 3b f9 76 0b bc 17 2e cc bc 6c 01 7e bc
       0.007807519 -0.008512252 -0.024924321 -0.015503269
000250 b1 97 6c 3c db 51 19 bd ff 7a 68 bc 2b 9b f4 bc
       0.014440463 -0.03743158 -0.014189481 -0.029859146
000260 fe 47 d1 3c e0 a7 0b 3c 48 79 0f 3d 61 4e 80 3b
       0.025547024 0.008523911 0.035027772 0.0039155935
000270 45 66 1a bd a9 1f 97 3b 11 46 3a bd 46 30 c4 bc
       -0.037695188 0.0046119285 -0.045476977 -0.0239488
000280 33 6e 28 3a 77 52 80 bc 88 12 4d bd 99 0e 1b bc
       0.00064251124 -0.015664322 -0.0500665 -0.00946393
000290 4c c3 1e bc 36 93 ae 3c b9 0a 1f bd 93 8c 43 bd
       -0.009690117 0.02131043 -0.038828585 -0.047741484
0002a0 cc 1e 9f 39 ba 42 f4 3c a8 aa 1c bd 1f 95 dd 3c
       0.0003034979 0.029816974 -0.038248688 0.027048646
0002b0 36 88 08 3d 6d 9b 1d 3b 33 d4 c4 b9 ac 04 3c bd
       0.033333026 0.002404894 -0.00037542134 -0.045902893
0002c0 1e 01 3c bd fb f3 c9 3c 39 f5 ee 3a 37 06 97 3c
       -0.045899503 0.024652472 0.0018231041 0.01843558
0002d0 59 05 5f bc 0a d1 75 3c 6b 1d 43 bb 2a e6 0e bd
       -0.013612115 0.015003452 -0.0029772173 -0.03488747
0002e0 41 c4 fb 3c 40 5f fe bc a6 d7 c7 bc 5c 2c 0e 3d
       0.03073323 -0.031051278 -0.024394821 0.034710273
0002f0 d7 ac e4 3b c8 d3 90 bb a8 d1 b9 bc bf 44 81 3b
       0.006978612 -0.0044197775 -0.02268298 0.0039449628
000300 f3 0a 68 bc 2a 0d 89 3c 8f 7c 37 bd 11 2a 53 3c
       -0.014162767 0.01672991 -0.044796523 0.012888447
000310 fd cb 8d bc c8 98 87 3c 94 c1 6a 3b c8 67 fc bc
       -0.017309183 0.016552344 0.0035820948 -0.030811206
000320 9d a4 9a 3c e7 5d c8 bc b8 11 e8 3c 56 d4 2f bd
       0.018877322 -0.024458839 0.028328761 -0.04292711
000330 bc 34 1f 3d f8 eb e2 bc fe f4 66 3c 7c 14 b8 bc
       0.03886865 -0.02770041 0.014096497 -0.022470705
000340 b8 ed c0 3c 8a 36 3d bb 5e 1b 9e 3b dc dc 1e bd
       0.023550853 -0.002887162 0.0048250398 -0.038784847
000350 12 ef 9f 3c 97 66 e8 3c 2e f9 98 3b ea 81 80 3c
       0.019523177 0.028369231 0.0046683764 0.015686948
000360 2a 32 e2 bc dc 6c 23 bd 77 2f 3e bd 0d b0 eb 3c
       -0.02761181 -0.03989874 -0.046431985 0.028770471
000370 04 4a 14 bd b6 e9 c6 3c 6c 8b ff bc 90 a2 3a bd
       -0.0362034 0.024281364 -0.031194411 -0.045565188
000380 99 47 49 bd ab 63 44 bc ae 0c 3f 3d e9 4a d7 3c
       -0.049140546 -0.011986653 0.04664295 0.026280837
000390 42 28 8a 3b c2 5a bd 3c 2a a4 1a 3c c9 e9 68 3c
       0.004216225 0.023114566 0.009438554 0.014215895
0003a0 d0 ff b6 bc 7e a1 ad 3c b9 cb c8 bb 64 6d 99 3c
       -0.022338778 0.02119517 -0.0061278013 0.01872892
0003b0 3e 59 8b bc 85 bd a9 bc a7 68 da ba 12 e7 97 bb
       -0.017010327 -0.020720253 -0.0016663269 -0.0046357
0003c0 98 5b 32 bd 12 75 1d bd a9 7c df 3b 5f 95 bd bc
       -0.04354438 -0.038441725 0.0068202806 -0.023142515
0003d0 b7 91 4a bc a2 4c 95 bc 38 d2 09 bd 68 02 33 bd
       -0.012363843 -0.018225018 -0.033647746 -0.043703467
0003e0 81 3f 3e 3c 96 5e 50 bd a6 05 3c bb 44 5d 28 bc
       0.01161182 -0.050871454 -0.002868989 -0.0102761425
0003f0 b3 0e 18 bd e4 0e 05 3d ef 17 b6 bc fd b1 21 3c
       -0.037123393 0.032484904 -0.02222821 0.009869096

model.2.bias f4 [256]
000000 d6 6a 43 bd 89 e3 c1 bd da ae a0 bb 74 5d 83 bb
       -0.04770931 -0.09467227 -0.0049036564 -0.004008943
000010 3e 0e 49 bd 78 b3 55 be 34 7f 99 be 29 5e 82 3d
       -0.049085848 -0.20869243 -0.2997986 0.06365616
000020 0b b1 b1 bd 62 44 92 be 26 ed 9f be 91 20 3c 3c
       -0.086763464 -0.28567797 -0.31235617 0.011482374
000030 ae 84 17 3e e4 10 77 be 3d dc 35 be 22 b0 ea be
       0.14796707 -0.24127537 -0.17759795 -0.45837504
000040 c9 b2 37 bd 4e 70 48 be 8b 6b 52 bd 15 5b 71 bc
       -0.044848237 -0.19574091 -0.051372092 -0.014731188
000050 b6 d1 25 be ea 4e 98 bb 54 e5 87 bc 8c dc 61 be
       -0.1619328 -0.004648079 -0.016588844 -0.22056788
000060 3f 78 e4 be 53 21 2f bd 7c 4e 17 bf 98 bd ee bc
       -0.4462299 -0.04275639 -0.5910413 -0.02914314
000070 d8 ee 8b 3c 7c a3 67 be 81 85 ed 3b 69 98 da bd
       0.017081663 -0.22620958 0.007248581 -0.10673601
000080 d4 42 94 bd b4 a1 91 3d 16 3e 02 be 85 5c 24 be
       -0.07239309 0.071109205 -0.12718996 -0.16050918
000090 f0 54 c4 bd e8 08 30 be 33 2f b1 be 7b bd 61 be
       -0.09586513 -0.17190897 -0.34606323 -0.22044937
0000a0 94 57 e7 bc a4 55 8b bd 0d 3f af be 5b 14 43 be
       -0.028240003 -0.06803444 -0.3422779 -0.19050734
0000b0 24 57 49 bd 1a 31 7c be df 81 79 bd e8 85 b1 3d
       -0.04915537 -0.24628106 -0.06091487 0.08668119
0000c0 c4 80 4a be 39 7a 06 be c2 5a 85 be 93 d3 0e be
       -0.19775683 -0.13132562 -0.26045805 -0.13947897
0000d0 c0 17 41 be 92 01 20 bf 63 8f ba 3d ab ff 9e bd
       -0.18856716 -0.62502396 0.0910938 -0.077636085
0000e0 ae bd ac be 80 d5 35 be 43 3f a9 be a4 97 c8 3d
       -0.33738464 -0.17757225 -0.33056077 0.09794548
0000f0 62 10 40 3d ff 93 ce bd c4 47 90 be 6c 7d b8 3d
       0.046890624 -0.10086822 -0.28179753 0.09008297
000100 48 56 84 bd eb 6a 49 be 80 b1 cf 3b 97 0e 68 be
       -0.06461769 -0.19669692 0.0063382983 -0.22661816
000110 68 fb d5 bc 23 d9 f0 be b2 e0 5b be 8d 40 2a be
       -0.026120856 -0.47040662 -0.21472433 -0.16626187
000120 4f 5d 4c be 24 fc a3 be 66 1e 15 be f1 45 83 3b
       -0.1995747 -0.32028306 -0.14562377 0.0040061404
000130 fa ca aa be 49 86 91 be d6 35 28 3e 80 05 ee bd
       -0.33357984 -0.28422764 0.16426787 -0.11622143
000140 96 ae 77 be 3c ea 99 be bd 49 06 be ec 99 bd 3d
       -0.24187693 -0.3006152 -0.13114066 0.09257874
000150 ef 4c 1f be e3 d5 29 be fb f6 93 3d a3 72 e5 bd
       -0.15556692 -0.16585498 0.07224842 -0.11203506
000160 81 77 ed be bc ae 1f be 64 f0 d7 3d 42 b9 8c be
       -0.46380237 -0.15594 0.10543898 -0.2748509
000170 c6 e1 a6 be e2 c6 d2 3d e5 de ba bd 48 54 86 be
       -0.32594126 0.1029184 -0.09124545 -0.26236176
000180 5c fc 17 3d 8a 57 ac bc 51 c9 c0 bc 46 5a 5a be
       0.037105903 -0.021037836 -0.023533495 -0.21323499
000190 9f e5 39 be 04 b2 a8 3d 87 af de bd bc 25 98 bd
       -0.18154 0.08237079 -0.10873323 -0.07429072
0001a0 e5 aa 96 be a1 bb 85 be 8f 91 8e be ee 53 38 be
       -0.29427257 -0.26119712 -0.27845427 -0.18000767
0001b0 56 7a 9c 3e 01 8c 8f bd eb d4 a4 be 19 4b 8f 3e
       0.30562085 -0.070091255 -0.32193694 0.27986982
0001c0 cd c4 4e be 56 f6 8a bd 71 2f bc be 1a d4 32 be
       -0.20192261 -0.06785266 -0.36754945 -0.17463723
0001d0 3f e1 bb bd 1e bf 83 be 55 5d a2 be 78 7f 44 bd
       -0.09173822 -0.25731748 -0.31711832 -0.047973126
0001e0 27 1e d0 bc b5 ce 12 3d c3 d6 b2 be 35 03 c0 be
       -0.025405003 0.035841662 -0.34929475 -0.37502447
0001f0 ff ae ae bd 34 a0 88 bd 71 be 8c be 15 00 9d 3a
       -0.085294716 -0.06671181 -0.27489045 0.0011978174
000200 c2 29 e9 be 3d 10 54 be 46 91 9e 3d 3b 06 cd bb
       -0.4553967 -0.2070932 0.077425525 -0.0062568462
000210 87 55 78 bd 7c b8 b8 be 1e 73 d2 bd ed 41 2b 3e
       -0.06062844 -0.3607825 -0.10275863 0.16724367
000220 65 46 28 be 48 9f df be 74 ba e9 be f9 54 92 bd
       -0.16433103 -0.4367621 -0.45650065 -0.071451135
000230 4e 99 84 bd 59 0f 5d bd 66 af 20 3e c0 28 7b 3d
       -0.06474553 -0.053969715 0.15691909 0.06131816
000240 90 5c 9c be fa 1c dc bd 82 4c 05 be 1e 2a 83 be
       -0.3053937 -0.10747714 -0.13017467 -0.2561807
000250 43 2e 98 bd 22 63 93 bb 99 87 96 bd 4c 64 34 bd
       -0.07430699 -0.0044979015 -0.07350082 -0.044040963
000260 57 51 69 3d f4 ef d7 bd 3e 88 f1 3d 79 0b 96 be
       0.056962337 -0.10543814 0.11793564 -0.29305628
000270 e2 09 e7 be e7 2c 03 be 35 34 99 bd d5 2a 95 be
       -0.45124727 -0.12810098 -0.07480661 -0.2913424
000280 b8 e7 d2 be 61 be 8a be 11 ce 36 be a6 2f d3 bd
       -0.41192412 -0.27098373 -0.17852046 -0.103118226
000290 0b 13 2e bd a3 24 02 3e db b2 c7 be b8 d2 5e 3d
       -0.04249863 0.12709288 -0.39003643 0.054400176
0002a0 c9 d2 d8 bd 25 ae 99 be 7b 45 64 bd b6 30 d3 3c
       -0.10587079 -0.30015674 -0.055730324 0.025780063
0002b0 bf 77 1a bd 09 bb a0 3d e0 d0 59 bd 1f ab f8 bc
       -0.037711855 0.07848174 -0.053177714 -0.030355034
0002c0 b7 03 cd be 94 01 f2 bb f6 0b 4f be bf 14 90 be
       -0.40041897 -0.007385442 -0.20219406 -0.28140828
0002d0 cf b8 86 3d bb 76 68 be 6e 80 85 3c 58 1c 04 bd
       0.06578218 -0.22701542 0.016296592 -0.032253593
0002e0 11 76 0a bd fd 4d 71 be 3b 96 49 be 1f e8 9a bc
       -0.033804003 -0.23564906 -0.19686215 -0.018909512
0002f0 e0 db 79 be 29 c5 12 bc 10 0c 12 be 34 14 79 be
       -0.24400282 -0.008958139 -0.14262414 -0.24324113
000300 41 e2 69 bd ed c8 02 bf bb 90 c9 be c8 83 b8 bc
       -0.05710054 -0.5108784 -0.39368233 -0.022523776
000310 a7 1a 6f be b5 1e da be 21 80 8f bd 69 bf 05 3e
       -0.23350011 -0.42601553 -0.070068605 0.13061298
000320 f6 46 9c bd ac dc 97 be b1 1c bd 3e 41 0e 1d be
       -0.07630722 -0.29660547 0.36935952 -0.15337469
000330 73 45 3c be 3b 7f a5 3e a1 0a 9b be c4 18 46 bd
       -0.18385868 0.32323632 -0.30281547 -0.048363462
000340 77 fa ac bc 5d 6c 88 be 74 24 7b be 04 c3 93 bd
       -0.021115525 -0.26645175 -0.24525625 -0.07214931
000350 51 70 e1 bd 56 93 a0 bb 68 6e 9d 3c f8 2d 41 3d
       -0.11007751 -0.0049003763 0.019217685 0.04716298
000360 a0 90 22 be b6 da 0b be 88 6f 8d be 0d 39 11 bf
       -0.15875483 -0.1365765 -0.27624154 -0.5672768
000370 88 0c 25 bd 85 5b 6b be 0d ce f5 bc 7e c4 13 be
       -0.040295154 -0.2298413 -0.03000548 -0.14430425
000380 ac 0e bb be ee 83 da bd 4b bf 68 be 0a d4 0c be
       -0.3653463 -0.10669695 -0.22729222 -0.13752761
000390 1b 3c b7 be 18 33 34 be 85 78 74 bc 94 47 4c be
       -0.35788044 -0.17597616 -0.014921312 -0.1994918
0003a0 e1 61 b6 be a5 75 c4 be b8 9b 54 be eb c4 0a be
       -0.3562155 -0.38371006 -0.20762527 -0.1355168
0003b0 90 8d 74 bd 7d 0c 82 be 37 49 2d bd 31 67 17 bd
       -0.059705317 -0.25400153 -0.04230615 -0.036963645
0003c0 f8 b5 34 3d 9c af 94 bd 6b 07 ff be e2 63 78 bd
       0.04411885 -0.07260057 -0.49810347 -0.06064213
0003d0 5c 34 73 be 3e f6 1a 3e 69 e9 24 be 03 83 a9 be
       -0.23750442 0.15132996 -0.16104664 -0.33107767
0003e0 bb 85 bd be 6c 86 0e be 97 2e 7d bd 51 d6 ac bd
       -0.3701609 -0.13918465 -0.06181201 -0.08439315
0003f0 c0 ba 82 3d 24 9e c0 bd 35 fd c5 bd 4e ab d4 bd
       0.06383276 -0.09405163 -0.09667436 -0.10384236

model.4.weight f4 [128, 256]
000000 da b2 04 bc 33 46 7d 3d 46 6d c4 bc 72 fe b2 3c
       -0.008099282 0.061834525 -0.023977887 0.021849845
000010 a6 df 3e 3e 94 5b ec 3c b0 20 5d bd bb 74 04 bb
       0.18640003 0.028852262 -0.05398625 -0.0020211178
000020 2c 8c 5c 3d e2 c1 5e 3e ff 7e 80 bc b5 88 ec 3e
       0.053844616 0.21753648 -0.015685556 0.4619805
000030 ff d7 50 bd 7d cc 89 be d4 2c b1 3d e6 d7 3b bd
       -0.05098724 -0.26913825 0.086511284 -0.045860194
000040 8d cf f4 3d e3 8b ec bd 10 70 7e 3d e0 31 fe bd
       0.1195365 -0.11550119 0.06211859 -0.12411857
000050 a0 0c 39 3e 5c 65 f2 3c 03 a6 ad 3c c7 0d 49 be
       0.18071222 0.029589348 0.021197325 -0.19634162
000060 7e a8 38 bc c8 82 03 bd 7d 9c 78 3e 27 68 a5 bd
       -0.01127064 -0.032107145 0.24278446 -0.08076506
000070 b0 55 3c be e2 ae 5f 3d 1f 09 0a be 0a dd 88 3e
       -0.18392062 0.05461014 -0.13480042 0.2673114
000080 2b 25 b4 3e d1 f8 33 bd 5f e4 45 3e 6f 3b d8 bd
       0.35184607 -0.04393846 0.19325398 -0.10558211
000090 12 b1 86 3e 04 1b cf bd e4 80 d0 3c ff e4 a7 be
       0.2630697 -0.10112575 0.025452085 -0.32791898
0000a0 d4 af 97 3d 5c cd 94 b9 a6 51 0d be c8 60 3a bb
       0.074065834 -0.00028381764 -0.13800678 -0.0028439034
0000b0 41 b4 46 3e 76 37 67 3e 27 ee 8e 3e 1c aa 8d be
       0.19404699 0.2257975 0.2791607 -0.27668846
0000c0 85 50 53 bc 38 e6 56 bd 7b 6a 42 3d 41 07 17 bd
       -0.012897615 -0.052465647 0.04746483 -0.036872152
0000d0 b0 57 87 bd 92 07 8c 3d e5 9d 1e be 16 4a 31 bd
       -0.06608522 0.068373814 -0.1548992 -0.043283544
0000e0 42 ac fd bd 46 b1 9c bd 09 9c 84 bd 98 6c df bd
       -0.12386371 -0.07651 -0.06475074 -0.109093845
0000f0 6d 8e e4 bc e2 1b 2e 3c fb 7d fe 3c e0 3e 17 be
       -0.027899945 0.010626765 0.031065932 -0.14770079
000100 bd 5a 55 be 6c fc 7c be 2b a8 b4 3b 3d cd 81 be
       -0.20835395 -0.24705666 0.0055132112 -0.25351897
000110 db 62 8d be 84 30 c0 bd dc 66 5f be dc 96 ba 3d
       -0.27614483 -0.093842536 -0.21816581 0.091108054
000120 68 96 03 3b 83 e9 5e 3e d9 ba 04 bf 93 91 5b 3d
       0.0020078663 0.21768765 -0.51847607 0.053605627
000130 72 d4 aa 3e d8 d5 09 be 7c fa e2 bd 9d a7 ee 3d
       0.33365208 -0.13460481 -0.11082932 0.116530634
000140 15 f5 fa bd ec cd 04 be d3 cd db 3d 3b e9 6f be
       -0.12253777 -0.12969178 0.10732617 -0.23428814
000150 1a 3a a0 bd 73 d3 c2 bd 0a c0 9d be db 75 dd 3d
       -0.07823582 -0.09512987 -0.30810577 0.10813495
000160 f6 ca 49 3d 85 41 52 be bf 6b 7f be d3 ee 6a 3d
       0.049265824 -0.20532806 -0.24943446 0.057356667
000170 24 51 f7 bd 54 70 80 be d8 d4 e6 bd 25 11 9e be
       -0.12076023 -0.250857 -0.112710655 -0.30872455
000180 95 a6 05 be 86 36 d3 bc 8d f7 8e be c1 70 9c 3e
       -0.13051827 -0.025782835 -0.2792324 0.30554774
000190 4a 7d df bd 0a 4b 82 be 0e 2d 05 be 6a ec 2c bd
       -0.10912569 -0.25447875 -0.13005468 -0.04221765
0001a0 60 63 9b 3d fd a1 a9 3e 76 91 a2 bd 17 4f 24 3e
       0.07587314 0.331314 -0.07937901 0.16045795
0001b0 58 d3 58 bc b6 be 3a be e2 07 8d 3e 91 b5 c0 be
       -0.013233982 -0.18236813 0.27545077 -0.37638524
0001c0 67 02 87 bc c3 2b 59 bd a9 a6 66 3d dc 73 5a 3d
       -0.016480638 -0.05302025 0.056311283 0.05333315
0001d0 77 be 2e 3e 39 0a c3 bd 21 10 36 bd 08 79 9e 3e
       0.17064844 -0.09523434 -0.044448975 0.30951715
0001e0 ab 06 27 3d 1b 5a 6d bd 1f 2c 38 3e b6 80 87 3d
       0.040777843 -0.05794726 0.17985581 0.066163465
0001f0 fa 2d ea bd 38 b2 be 3c a4 a7 18 3e 34 a9 a2 3e
       -0.114345506 0.02327834 0.149077 0.31769717
000200 7d bb e4 3c da 7c 18 3e 04 b5 e2 bd 13 fe 1f bd
       0.027921433 0.14891377 -0.11069682 -0.039060663
000210 ec fd b8 be c9 2a f1 ba d6 f8 80 3d 43 a0 bf bd
       -0.36131227 -0.0018399592 0.06297462 -0.09356739
000220 af bd 34 be 18 1a aa 3c c4 4b 07 be 05 aa fd 3e
       -0.17650484 0.020764396 -0.13212496 0.49543777
000230 b0 56 7c 3d 7f 23 17 be 2d bf a9 3e e2 d1 9f 3c
       0.06160611 -0.14759634 0.33153668 0.01950926
000240 62 56 2c be 81 ea 2b 3d b2 b2 eb bd 8c 6f 1f 3e
       -0.16829827 0.041971687 -0.11508693 0.15569896
000250 de cd 81 3d 6e 6d d7 bd 72 3c 7b 3e 39 4b 58 3d
       0.06338094 -0.10518919 0.24534777 0.052806113
000260 c3 f7 8a bd 2e 83 6f 3a c8 cd 67 be 32 0b 11 bd
       -0.06785538 0.0009136674 -0.22637093 -0.035411067
000270 43 26 94 3c 32 65 10 3e 90 84 2a bd dd 66 9a 3d
       0.01808465 0.14101103 -0.041630328 0.07539151
000280 e0 87 a4 bd e1 35 27 3e f2 f9 4e be a4 fe 3f be
       -0.080337286 0.16329147 -0.20212534 -0.18749481
000290 d4 cf 9a bc 33 22 e6 bd 4f 39 30 bd 39 e8 05 be
       -0.018897928 -0.11236992 -0.043023404 -0.13076867
0002a0 1f 1c c5 bd 4f 65 3b 3e 47 e6 29 3d de 8a a3 bd
       -0.09624504 0.18300365 0.041479375 -0.07985471
0002b0 bb 43 b6 bb 92 79 87 bd b3 3b a4 bc 69 b3 80 bd
       -0.0055622733 -0.066149846 -0.020047998 -0.0628422
0002c0 11 8e 00 3d 25 4b bd bc ec d4 5b be 42 e8 b0 3c
       0.031385485 -0.02310712 -0.21467942 0.021595124
0002d0 ab ba 37 be a6 f5 7d be ef 43 93 3e 5c f8 bb be
       -0.17942302 -0.24800739 0.28762767 -0.3671292
0002e0 a7 8f 06 bd 96 ba 19 3e 2f 1c 1f be 32 9d 2d 3d
       -0.03285184 0.15012583 -0.15538095 0.04238624
0002f0 86 66 3f 3d 91 fa 23 3a de 1b 70 3d fc 30 9e be
       0.046728633 0.0006255294 0.058620326 -0.30896747
000300 34 e6 a9 bd ef 2a 47 bc 04 f1 cd be ef 2c 1e 3d
       -0.08295861 -0.012156232 -0.40222943 0.03861707
000310 b1 6f 02 bd 54 4a d7 3d 35 d0 34 be 79 61 b2 be
       -0.0318448 0.10512224 -0.1765755 -0.3483999
000320 90 20 8d bd 1b 1b 08 be 3b fd 95 be d7 10 49 3c
       -0.068909764 -0.1329159 -0.29294762 0.012272081
000330 77 7a 63 3d 91 f3 d9 bd 3a b8 46 be 90 7e 61 be
       0.055536713 -0.1064216 -0.19406214 -0.22020936
000340 e1 50 ae 3d 8c f4 6b be 81 d9 09 be aa af ee 3d
       0.0851152 -0.23042506 -0.13461877 0.11654599
000350 33 f3 a8 3d be 70 1a 3d a2 5b 83 be 78 1b e5 bc
       0.082495116 0.037705176 -0.25655848 -0.0279672
000360 3a 35 88 3d d9 79 87 3c 45 c5 82 be 5d 64 91 3d
       0.06650777 0.016537594 -0.2554113 0.07099221
000370 cf 2f fd 3d ea 90 00 be 10 22 85 3d bf 26 cc bd
       0.123626344 -0.1255528 0.065006375 -0.09968328
000380 07 91 b1 bd 77 4c 65 bc 37 f2 6e bd 12 12 65 3e
       -0.0867024 -0.013995281 -0.058336463 0.22370175
000390 19 4b 1d be e7 a7 a4 3c 1b f8 94 3c b5 61 a4 3d
       -0.15360679 0.020099593 0.018184712 0.08026449
0003a0 ac e7 d0 3e 30 f7 57 3d 70 71 70 3d e9 ec cf bc
       0.40801752 0.05272597 0.058701932 -0.025381522
0003b0 3f 05 26 bd 4f e8 50 3e e2 cf 5a bd fd 0d 72 bd
       -0.040532347 0.20401119 -0.05342091 -0.05909537
0003c0 09 48 18 3f 8e 4b 00 3e f2 3d 91 be b0 51 28 3d
       0.59484917 0.12528822 -0.28367573 0.04109353
0003d0 6f 24 8f bd 4c 30 0d bd 8f ab 24 be ca e7 89 be
       -0.06989371 -0.034469888 -0.1608107 -0.26934654
0003e0 6e 72 0c bb 4c c6 73 3d 79 b8 52 3c ec 10 4d be
       -0.002143051 0.059515283 0.0128613645 -0.20025986
0003f0 d5 5b cb 3d 24 1c 50 3e e7 3b 90 be a2 52 48 3e
       0.09929625 0.20323235 -0.28170702 0.19562772

model.4.bias f4 [128]
000000 5d c5 96 3b bd 02 f1 3c 5d a2 07 be 66 33 ab be
       0.0046011643 0.029420251 -0.1324553 -0.3343765
000010 6d 92 ad 3d 07 b0 59 3d ff 22 ff 3c ec 60 ec bd
       0.08475194 0.05314639 0.031144617 -0.11541924
000020 4e 92 cf bd e8 58 22 be fb aa 38 3e 65 d3 88 3e
       -0.10135327 -0.15854228 0.18033974 0.2672378
000030 e3 97 56 bd 8e 89 12 be 9c d7 56 3e 3e db a8 bb
       -0.052390944 -0.14310285 0.20980686 -0.005153089
000040 01 8d cf 3d 90 97 c2 3d 2f 01 08 bd 6d 4e 18 be
       0.10134316 0.095015645 -0.033204254 -0.14873667
000050 9b 1d f9 bd 97 0a ad bb 6c 85 0e be 10 16 bf 3d
       -0.1216385 -0.0052808034 -0.13918084 0.0933038
000060 3c 04 4f 3d 00 75 94 3e 25 05 84 be c6 af 08 be
       0.050541148 0.28995514 -0.25785175 -0.13348302
000070 b8 ad 89 3e a4 b7 67 3e cf 13 6d 3b 63 40 e1 3c
       0.2689035 0.22628647 0.0036175137 0.027496522
000080 0e 7f 6d bd fe 9c 0f 3d 5c fb 15 3d 5c ef b7 bb
       -0.057982497 0.03506183 0.036616668 -0.0056132507
000090 d6 8f 97 be b8 8f 8e 3b bc 0b 05 be bd 98 39 3e
       -0.29601926 0.0043506287 -0.12992758 0.18124671
0000a0 a1 7f b9 bc 2e 42 0b bd dd 5b 83 3d 5b 65 be bd
       -0.022643866 -0.03399866 0.06414006 -0.09296676
0000b0 8e 50 8a 3b e4 ac 73 bd a3 00 6f bd 0f 11 23 3e
       0.0042210286 -0.059491053 -0.058350217 0.15924476
0000c0 58 86 22 bd 20 21 59 3d c4 20 cb 3c 99 b9 ae 3d
       -0.0396789 0.053010106 0.024795897 0.08531494
0000d0 04 b9 62 3c 7b ab 2e be 8a 9f f2 bd bc 60 7c 3d
       0.0138380565 -0.17057602 -0.11846836 0.06161569
0000e0 37 78 69 be 29 e4 ca 3d d9 e1 23 3c 40 89 14 3d
       -0.22799765 0.09906799 0.010002577 0.036263704
0000f0 d8 dc a1 bd 01 90 52 3e c0 7e 72 be 6f 1e f0 be
       -0.07903451 0.20562746 -0.23681164 -0.4689822
000100 6e 8a d5 3d eb 24 34 bd 14 20 bf 3d e8 c5 20 3d
       0.10426794 -0.04398052 0.0933229 0.039251238
000110 0c d2 76 3d 95 27 7e 3e ed ed fb 3c 8a 9a 98 bd
       0.06025891 0.24819787 0.0307531 -0.07451351
000120 5f 5d b8 3d a1 99 d4 3c b8 f4 de bc 90 3f 83 be
       0.09002184 0.025952162 -0.0272163 -0.25634432
000130 56 5f 1d 3e 3f 0f 0d be 4c d2 1d 3d 3f be 31 3e
       0.15368399 -0.13775347 0.038530633 0.1735773
000140 f0 18 9d 3d f0 c0 54 be c0 a5 90 3d 08 9b f5 bd
       0.07670772 -0.20776725 0.07062864 -0.119924605
000150 bb 98 98 3d 96 b6 3f 3e ad 33 c5 bc 98 60 3e bc
       0.07451006 0.18721995 -0.024072492 -0.011619709
000160 7b b6 0c 3d b9 fc 08 bc 79 73 55 3d 32 6d 56 3e
       0.034353714 -0.008361035 0.052112076 0.20940092
000170 6d 8c 69 be ec d8 dc be 1c 79 11 bd 5c db 8a 3d
       -0.22807474 -0.43134248 -0.03551589 0.06780121
000180 66 ef 82 bd d3 ae a1 bc 41 f4 62 3e 7d 9c 8f bc
       -0.06393318 -0.019736683 0.22163488 -0.017530674
000190 80 80 54 3d f8 76 21 3e 05 c5 df 3c 2d 46 e5 3d
       0.05188036 0.15768039 0.027315626 0.111950256
0001a0 64 c3 57 be bc 35 7d 3d fc dc 05 3e 2b 41 9e bd
       -0.2107063 0.061818823 0.1307258 -0.077272736
0001b0 6a 20 3c bd 78 3f 98 3b 36 a8 65 be c5 73 5d 3c
       -0.04592935 0.004646238 -0.22427449 0.013516371
0001c0 a6 ad 34 3b cc 20 31 3e 2f 83 c9 bd ae 26 a0 3d
       0.0027569323 0.17297667 -0.098394744 0.078198776
0001d0 ad 51 10 3e 82 17 a1 3d a3 7f 27 be b7 00 cd be
       0.14093657 0.07865812 -0.16357283 -0.40039608
0001e0 8e 85 aa 3d 82 20 89 be 71 7e 99 3d 00 64 17 be
       0.08326255 -0.26782614 0.0749482 -0.1478424
0001f0 8a 74 28 3c 54 cc 53 3d a7 06 25 bd b7 0f 99 3d
       0.010281691 0.051708534 -0.040289547 0.074737005

model.6.weight f4 [64, 128]
000000 97 ad 22 3e b1 12 04 be 4c 93 6f 3e 12 19 48 3f
       0.15886532 -0.12897755 0.23396033 0.78163254
000010 ab 3b d2 3b 48 e3 ce 3c ed 83 49 be ed e0 42 bd
       0.0064158044 0.02525486 -0.19679232 -0.047577787
000020 40 5b 2f 3a 5b a2 b4 3e bc 90 04 be 2f f7 ae bd
       0.00066893175 0.35280117 -0.12945837 -0.0854324
000030 ec 79 2a bd be 79 de 3e 6a 42 cd bd 19 44 9d bc
       -0.04162018 0.43452257 -0.10022433 -0.01919751
000040 17 2c 87 bc 59 8a 80 be cc 6b ae bc 00 e7 52 3d
       -0.016500516 -0.2510555 -0.021291636 0.05148983
000050 01 5c a7 be 08 64 9a 3e 52 ae cf 3d f5 e0 8e be
       -0.3268738 0.30154443 0.10140671 -0.27906004
000060 08 4b eb 3c 7a fc 9c bd 88 6f 83 3e 3d c9 62 be
       0.028722301 -0.076653436 0.2567103 -0.22147079
000070 f4 4e c5 be 5a 44 cf be 37 15 b0 bd 04 37 61 bc
       -0.385368 -0.40481836 -0.085977964 -0.013746027
000080 e7 18 1e be f3 d8 bb bd bb 3b 2d be bd ce 36 3e
       -0.15439187 -0.09172239 -0.16917317 0.17852302
000090 4a 74 8c 3e 84 a7 2d be c2 3b b5 3d 75 6d 4c be
       0.27432472 -0.16958433 0.088492885 -0.1996363
0000a0 a4 e3 13 3f 1a 01 bb 3d 20 49 ba 3e 01 21 34 be
       0.5776923 0.091310695 0.36383915 -0.17590715
0000b0 8b 4a 83 3d 8c 13 09 be 67 08 1d 3d 3d 78 79 bb
       0.06410702 -0.13386363 0.03833809 -0.0038066052
0000c0 e6 37 11 3e 57 ce 9b 3e 02 fd 52 be cf 80 87 3d
       0.1418148 0.30430862 -0.20604327 0.06616365
0000d0 f2 e4 d8 3c 04 74 40 bd 0a 3e ae bd 31 67 57 3e
       0.026476357 -0.04698564 -0.08507927 0.21035458
0000e0 97 fc a3 3e b7 e4 cb 3d d9 26 ee bd 03 b9 14 3d
       0.32028648 0.09955733 -0.11628503 0.036309253
0000f0 cb 8f 11 3e f9 32 42 bc 6c f2 aa 3e 8a 97 1e 3f
       0.14215009 -0.011852973 0.33388078 0.6194998
000100 2d 65 c7 bc b8 68 ec 3d fd 75 98 be aa ca 69 3d
       -0.024340237 0.11543411 -0.29777518 0.05707804
000110 92 a5 16 be ac a0 8b be 64 5e fa bd a5 cd 3d 3e
       -0.14711598 -0.2727102 -0.12225035 0.18535478
000120 40 7f 89 3e 00 cd 94 3e 66 a6 87 bd 2c e7 d5 3e
       0.26854897 0.29062653 -0.06623535 0.41777933
000130 56 7d e3 bd 2d 45 bb 3d 6a 5e bc bd dc 79 52 be
       -0.1110789 0.091440536 -0.091976956 -0.20554298
000140 f6 77 d0 bd 98 55 fc ba 7d b7 ad 3c 5e 4a 00 3c
       -0.10179131 -0.0019251583 0.021205658 0.0078302305
000150 d4 8d 62 3d 4e b3 80 be 76 e8 8a 3e 07 3a bb bd
       0.05531104 -0.251368 0.2713048 -0.09141927
000160 e2 72 5e be db 2a 8c 3e 41 d2 54 3e bd 77 eb bd
       -0.21723512 0.27376446 0.2078333 -0.11497448
000170 14 a1 95 3d 19 66 d3 3e 1f 72 87 3d 5f e3 5a 3e
       0.07306114 0.41288832 0.06613564 0.21375798
000180 7d 98 ee be 96 eb 52 be fd 45 4f be e7 08 e0 bd
       -0.46600714 -0.20597681 -0.20241542 -0.10939198
000190 44 87 97 bd 26 d1 c4 3d 05 09 07 ba ac 68 a1 be
       -0.07398847 0.096102044 -0.00051511853 -0.3152517
0001a0 cf d5 61 be 48 a4 8f 3e 52 fd 43 bd a2 7b 90 3e
       -0.22054218 0.28055024 -0.047849007 0.28219324
0001b0 08 eb 87 3d a8 2e 90 be d8 ad d3 3c 0c a6 cf be
       0.066366255 -0.28160596 0.025839731 -0.4055637
0001c0 39 19 23 be 32 c0 97 be 9d 05 06 3d d8 31 ce be
       -0.1592759 -0.2963882 0.032720197 -0.40272403
0001d0 1d e4 28 3e 71 f0 54 be 10 d8 5a 3e fd ad 0e be
       0.16493268 -0.20794846 0.21371484 -0.13933559
0001e0 c8 09 42 3c 5b 22 f2 3d be 47 1b be e5 c0 d4 3d
       0.011843152 0.11822959 -0.15164086 0.10388354
0001f0 21 e4 3b be 27 c3 4b be cf e0 db be a8 5c e2 bc
       -0.18348743 -0.19898663 -0.42944953 -0.027632073
000200 61 51 b5 bc 03 12 69 3d 1a 32 41 3e eb 02 d3 3b
       -0.022133531 0.056901943 0.18866768 0.006439557
000210 df 99 e7 3d b6 83 7d be f3 8b 9d 3e 11 05 4b bc
       0.113086455 -0.24757275 0.30770835 -0.012391345
000220 09 fe 8e be 30 89 1d bc 06 0a d3 bd bc fb ac 3d
       -0.27928188 -0.009615228 -0.10304646 0.08446452
000230 c9 17 24 be f2 33 8a 3c 8b 8c fe bd c1 73 9b 3d
       -0.16024698 0.016870473 -0.1242915 0.07590438
000240 6a 6f ff bc 1e ec 80 bd 3c b5 55 be 8a 1d 22 3d
       -0.031181056 -0.06295036 -0.20869917 0.039578952
000250 34 51 bb bd 6d 9a 43 be 21 69 cf bd 84 50 72 bc
       -0.09146348 -0.19101878 -0.101274736 -0.014789704
000260 64 bd 1b 3e 03 36 e2 bd 95 d6 3d bd 2f 8a 41 3e
       0.15208966 -0.11045458 -0.04634722 0.18900369
000270 a3 9b da 3d fa f5 f7 bd 1c 81 66 3d a3 77 1f 3e
       0.106742166 -0.12107463 0.056275472 0.15572982
000280 13 bf aa 3e ef c4 27 3e f3 6a 9a 3e 5d a0 19 3e
       0.33348903 0.16383718 0.3015972 0.1500258
000290 19 9b 51 3d c8 5f 33 3e a0 0b 6d 3d 3b 59 a3 3e
       0.051173303 0.17517006 0.057872415 0.31904015
0002a0 de 92 ec bd 13 d9 0d 3e 79 a5 80 bd a9 c4 91 bd
       -0.1155145 0.13852338 -0.062815614 -0.07117588
0002b0 2d 1f 9e 3d 1b 17 cb bd e7 4e 17 bd c8 1a 83 bd
       0.0772079 -0.099165164 -0.03694048 -0.064015925
0002c0 cc dc ab 3d fa 5f 94 be ad 7f 90 be b1 f0 7e be
       0.08391723 -0.28979474 -0.2822241 -0.24896504
0002d0 29 09 7f bb 0f 03 22 be 2f c7 a9 be ef c2 04 be
       -0.0038915372 -0.1582148 -0.33159778 -0.12964986
0002e0 63 1d ab bd e4 36 b4 be ef ab 90 bd 4c 8f 7b 3e
       -0.083552144 -0.35198128 -0.07064044 0.24566382
0002f0 66 53 28 3d ca f2 d1 3d 29 42 88 bd e9 c8 16 bd
       0.04109516 0.102513865 -0.06653244 -0.036812697
000300 fd 87 e8 be ec b3 87 be 55 00 ba bd 74 56 15 3e
       -0.4541625 -0.26504457 -0.090820946 0.1458376
000310 8e f2 f0 bb e7 32 47 3c 1a dd af be 68 61 c1 be
       -0.0073531335 0.012158132 -0.34348375 -0.37769628
000320 7b 43 7e bb f9 47 80 bd 88 64 d0 bd 26 3b 9d 3b
       -0.0038797546 -0.06263728 -0.10175425 0.004798311
000330 ae 1d db bb eb 0d a8 3d 77 2b 28 be df 81 91 bc
       -0.0066868877 0.0820578 -0.1642283 -0.017762123
000340 58 a7 4c 3c 25 77 ac 3e 39 16 6b bd e8 b1 b7 3b
       0.01249107 0.3368465 -0.05739424 0.005605925
000350 98 3e ae 3e 65 3c 01 3e 6e 2b 10 bd 08 36 ba 3c
       0.3403213 0.12620695 -0.035197668 0.022730842
000360 95 ee 0a 3e cb 6d 73 be 73 b5 43 be 77 1d b1 3e
       0.13567574 -0.23772351 -0.19112186 0.34592792
000370 9f 62 72 be 1c aa 96 bd 72 79 6c 3e 53 63 39 bc
       -0.23670433 -0.073566645 0.23093203 -0.011315185
000380 3e 69 3d bd fa 84 c5 3e d8 23 af bd 18 71 5a 3d
       -0.046242945 0.38578016 -0.085517585 0.05333051
000390 67 de 86 3e fd de 5e 3d d7 21 8e bd 59 a6 50 bd
       0.26341555 0.054411877 -0.06940048 -0.05093989
0003a0 df 78 24 3e db 2e 6c bd 91 b0 c1 3e 84 1a 4d bd
       0.16061734 -0.057661872 0.37830022 -0.050074115
0003b0 45 fc 32 be 83 b4 2e 3e 13 04 85 3e 68 f2 a4 3d
       -0.17479046 0.17061047 0.2597967 0.08054048
0003c0 87 ef 9c be 60 a9 32 3d 67 8e 87 bd b8 5d be bd
       -0.30651495 0.04361856 -0.06618958 -0.09295219
0003d0 f0 ee 52 3e 34 f1 0b 3e 16 ba 69 bd 53 c6 79 be
       0.2059896 0.1366623 -0.05706223 -0.24392061
0003e0 09 25 08 3e 06 26 8d bd 36 99 90 bd cd 49 9c bd
       0.13295378 -0.06892018 -0.07060473 -0.07631264
0003f0 e2 56 97 3e 32 e5 d3 3d 1f 4f 61 3e 8b b9 80 3e
       0.29558474 0.1034645 0.22002839 0.25141558

model.6.bias f4 [64]
000000 2c 0e 96 be 78 46 5f bc df 54 ef be 8f 6e 98 3d
       -0.29307687 -0.013627641 -0.4674444 0.074429624
000010 86 14 ff bd 74 60 ae bc d1 0a 28 3e f2 66 44 3e
       -0.124550864 -0.021286227 0.16410376 0.19179896
000020 60 89 13 3e d7 b0 c4 bc 34 30 86 3e b3 9f 22 be
       0.14407873 -0.024010105 0.2620865 -0.15881233
000030 e0 51 a7 bc 96 80 29 be 82 a2 d8 bd be 69 c3 3c
       -0.020424783 -0.16552958 -0.10577871 0.023854133
000040 be e2 6e bd 9d 7b a5 be 47 e0 0a bc a6 3f 94 be
       -0.058321707 -0.32320872 -0.008476323 -0.2895481
000050 02 2d 72 be 5c c7 3a 3e 85 39 0a 3b 53 6c eb be
       -0.23649982 0.18240112 0.0021091413 -0.45981082
000060 15 83 7c 3a 9e d8 61 3e e9 00 6d 3e 03 b0 0d bf
       0.000963257 0.22055289 0.23144878 -0.553467
000070 fc 67 a4 bc 8e 98 01 3d 7c 77 1d 3e 8b ab 68 be
       -0.020069115 0.031639628 0.15377611 -0.22721688
000080 aa ed 4c 3d 60 c4 64 3e e4 f4 5d bc 61 0f 7a 3e
       0.05003134 0.22340536 -0.013547156 0.24419929
000090 91 9c 02 be 68 93 24 3c fb e4 ed 3d 29 82 dc bd
       -0.12755038 0.01004491 0.1161594 -0.107670136
0000a0 8f 39 4e 3e 8c 35 65 3d 96 58 b0 bd 66 b7 cb 3e
       0.20139144 0.05595927 -0.086106464 0.3978836
0000b0 6e c2 ad 3c b9 98 00 bd e2 b5 ce 3c a7 bf 88 3e
       0.021210875 -0.031395648 0.025233213 0.2670872
0000c0 6a c3 55 be f8 c0 bb bd 3a 0f 9d bc 70 30 28 be
       -0.20875326 -0.09167665 -0.0191723 -0.16424727
0000d0 94 f5 8a be 1d e4 c9 bd 6e f8 10 bd d4 28 40 3e
       -0.27140486 -0.09857962 -0.03539317 0.18765575
0000e0 7c 87 2f 3e b4 00 b4 be 93 3a a8 3e f9 c3 26 3d
       0.17141527 -0.35156786 0.3285719 0.040714238
0000f0 1e 95 12 3d b4 0c 8e bc a8 33 86 3e 04 a2 37 bd
       0.03578674 -0.017340042 0.26211286 -0.044832245
