models/12-21-2022_15-54-25__anova_binary_opt_sched.model (torch, 737463 bytes, 10 tensors)

model.0.weight f4 [512, 20]
00000000: 98e4 983e 16fd 043f 2923 74be b61f c33c
00000010: 2bda bf3d b5af a6bd 1672 ac3d 3347 223e
00000020: ab68 9abc 1ca8 80bd 9906 4bbe cc50 143e
00000030: 8d56 c03b 0281 263e 4d17 793d b4e8 5dbd
00000040: 2e14 903e 4a5d 62bd 6efa 0b3f 1b98 363e
00000050: 28c0 c9bd 21fb 5fbe d5bf 753e e526 133e
00000060: 6f53 41be 76c0 f2be d3e8 80bd e8db bf3e
00000070: 22ba 81bd 754d 1e3d 3442 0bbe 2238 283d
00000080: 954f c73d 4f29 3d3e 0ced 413d d1e6 a4bd
00000090: 6019 0c3f a219 babd 8b2f 49be 567c 85bd
000000a0: 5c4d 86be ea43 7fbe 9f8b 50bd 9ae0 c8bd
000000b0: 77f0 303e 4d1e c93c 6c3c 523e 77c2 213e
000000c0: a8b5 203d 1705 b93c 3df0 1dbe 5715 003e
000000d0: a944 3e3e d23f a83e 5045 4a3e b8f5 8d3e
000000e0: dde1 023f ea7c 483e a8b2 023f ca8e bd3d
000000f0: 355d 803e d57f aa3d e571 34bd 8be5 113e
00000100: f8c5 81bd cbee 4c3b c677 9a3e bb7a 093d
00000110: abdb 703e dd41 1b3e 2688 84bd c5d3 523e
00000120: c54b bb3d 4ae0 e0bb bd32 e13d eebb 663e
00000130: da54 843e ce27 5c3e 758b 563e 6999 2a3e
00000140: 03bc 4cbe 4351 913e 1da2 013e 242f 043e
00000150: 2431 b53d 05fe 11bc 0c76 403e a13c 94bd
00000160: b86c ca3e 2c5b 9b3e 02ea 8dbe 837a bb3e
00000170: 6779 353e 6b3f c9bd 8a34 963d 0115 6b3e
00000180: 5e9c 18bf 994d 3b3e 081d 953d 62ee 5f3f
00000190: ddb8 6a3f e6c8 1f3e 852d 433d 6dc0 40bd
000001a0: 8686 a03d cd29 d53d 0e6a 51bf 019f 843e
000001b0: 6924 903d 6cc7 af3d 9006 d8bd 4c15 e53d
000001c0: 0e58 13be 86cf bf3d 35c2 e23d b72a d73d
000001d0: 6b08 59be 569f 8fbd ed7e 52be 44ef b9bd
000001e0: c0c7 20be cc0f 893e a8c3 033e b866 4a3e
000001f0: 09b5 91b9 5e34 f13d 8615 1c3e 86e6 c4bd
00000200: 0ac4 893e 465c 733e 5a7b d3bd ac2c e53e
00000210: b988 103e d080 a9bd 7482 d63e f908 d83e
00000220: 146c dcbe c573 d03e c172 c53d 8d14 913e
00000230: 1ae9 e4bd 4d4b 1abc ee39 8f3c 65ab 313d
00000240: 98d1 e63b 879f f73d 1f05 f53d eff1 933d
00000250: a4f9 443e 373a 653e c630 73be 22ce 8b3e
00000260: 99d6 96bd 39b5 8c3e 291b c13e 94d6 873e
00000270: 52bb 3fbe 2979 453e e9d4 093f 35e0 6f3e
00000280: 425f 58bc 3a8b 783d 0302 7fbd 2ef4 4a3e
00000290: 0363 0b3e b123 003e 3f94 063e 720a 96bd
000002a0: cc37 983e b2fd 023e bc26 32be 78ab 8c3e
000002b0: b6f9 b13e 566e 02b9 2627 823e 87a3 5a3e
000002c0: ebe6 aabe 5247 493e e74a d0bd ce3c 8f3e
000002d0: 576f a63f f291 ac3e 94f5 2c3d 5b5f da3b
000002e0: 7132 0a3e 22b6 423d 187a 16be c36b 453e
000002f0: 23fe a33e 80c5 3f3d 53a2 0cbe d50f 893e
00000300: 18bd 5f3e d3b1 2dbd 3b70 743e 483f 973e
00000310: 0ea3 f33c a80f 4c3e b71b 323e 827a 1d3e
00000320: 5cc1 0fbe 45cd ce3e 510f 46bc 693f bb3d
00000330: c365 753d d11a 503d 0c9d d93d 6dd2 c5bd
00000340: 11a4 0d3e 5e37 513e 1603 a53d eec9 3a3e
00000350: c86f fe3d 8891 93bd 8caa 1d3e 39a1 5f3e
00000360: 9193 33bd b2b5 9f3e a2f0 083f c407 933e
00000370: 8ea4 113d f9ae 953e 2af6 873c ad4b 0d3e
00000380: f386 ef3b 6101 903c 747c a3bd 5ab0 98bd
00000390: a16e 843e b7d8 083e ca09 68bc 1a43 6f3e
000003a0: 0f30 7a3d 9d36 1f3d dd2b 9f3e 0e10 913e
000003b0: defc 84be 1371 ac3e 5b83 943e 5164 543e
000003c0: 2101 833e bd1f 48be aeaf af3d eb37 e13d
000003d0: e448 283e e21f 8b3d 88f5 53be ef49 d0be
000003e0: 4cb6 0c3e 9334 843e 45ce ba3d 79f7 aa3d
000003f0: db95 e33d 53a2 ed3b ca78 a03d b5f0 7a3e
0.29861903 0.5194868 -0.23841538 0.023818832 0.09367784 -0.08138982 0.08420198 0.15847473
-0.018848738 -0.06282064 -0.19826736 0.14483947 0.0058696927 0.1626015 0.060813237 -0.054177
0.28140396 -0.05526475 0.54679 0.17831461 -0.09851104 -0.21873142 0.2399896 0.14370306
-0.18879484 -0.4741246 -0.06294408 0.37472463 -0.0633433 0.038648088 -0.13599473 0.041069157
0.09731976 0.18472789 0.047345206 -0.08051837 0.5472622 -0.0908692 -0.19647042 -0.06517856
-0.26230896 -0.24928251 -0.050914403 -0.09808464 0.1727923 0.024550581 0.20530862 0.15796839
0.03923574 0.022585435 -0.15423675 0.1250814 0.1858088 0.3286119 0.19753003 0.2772653
0.5112589 0.19578901 0.5105386 0.092557505 0.2507111 0.08325163 -0.04405393 0.1424772
-0.06336588 0.0031270261 0.30169505 0.03356431 0.23521297 0.15161844 -0.06471281 0.20588596
0.09145311 -0.006862675 0.10996006 0.22532627 0.25845987 0.2149956 0.20951636 0.16660084
-0.19993596 0.2838231 0.12659498 0.12908608 0.088472635 -0.008910661 0.18795031 -0.072381265
0.3953607 0.30342996 -0.27717596 0.36616907 0.17722093 -0.09826549 0.0733424 0.22957231
-0.596136 0.1829132 0.07280928 0.8747312 0.9168833 0.1560398 0.047650833 -0.04705851
0.07838158 0.104083635 -0.8180245 0.2590256 0.07038195 0.085829586 -0.10548127 0.11185703
-0.14389059 0.09365754 0.11072198 0.10506194 -0.21194617 -0.07012813 -0.20556231 -0.090788394
-0.15701199 0.26769865 0.12867606 0.19765747 -0.00027791437 0.117775664 0.15242586 -0.09614281
0.26907378 0.23765668 -0.10326262 0.44760644 0.14114656 -0.08276522 0.41896403 0.42194346
-0.43051207 0.40713325 0.09641028 0.28335992 -0.11177273 -0.009417367 0.017483678 0.043376345
0.0070440285 0.12090974 0.119638674 0.072238795 0.19235855 0.22385488 -0.23749074 0.27305704
-0.0736515 0.27482012 0.37716034 0.26530898 -0.18723801 0.192845 0.538405 0.23425372
-0.013206305 0.06067965 -0.062257778 0.1981971 0.13611989 0.12513615 0.13142489 -0.07326211
0.2973007 0.1279209 -0.17397588 0.2747457 0.34760827 -0.0001243887 0.25420493 0.21351443
-0.333793 0.19656113 -0.101705365 0.27976078 1.3002728 0.33705097 0.04222639 0.0066641993
0.13495804 0.047536977 -0.14695013 0.19279389 0.32029828 0.04681921 -0.13733797 0.2676989
0.21849477 -0.042405915 0.23870938 0.29540467 0.029740836 0.19927847 0.17393385 0.15378764
-0.14038604 0.40390983 -0.012088613 0.09142954 0.0599115 0.050806824 0.106256574 -0.09659276
0.13832118 0.20431277 0.08057229 0.18241093 0.12423664 -0.07205492 0.1539709 0.21838845
-0.043841902 0.3119331 0.53492177 0.28716862 0.035557322 0.29235056 0.016596872 0.137984
0.0073097884 0.017578783 -0.07982722 -0.074555114 0.25865653 0.1336392 -0.01416249 0.23365441
0.06108099 0.038870443 0.31088153 0.2833256 -0.25974172 0.3368002 0.29006466 0.20741393
0.255868 -0.19543357 0.0857843 0.10996994 0.16434056 0.067931905 -0.20699131 -0.40681407
0.13741416 0.2582136 0.09121374 0.08347983 0.11112567 0.0072520166 0.07835539 0.24505885

model.0.bias f4 [512]
00000000: a139 2abd c1ad 88bc e656 68be df3d 4ebe
00000010: 943c 2fbe 4574 fabb b32e 91be ec79 83be
00000020: 6e07 75be 5b94 65be 9931 85be 5c6d 87be
00000030: bf9d 1cbe bf26 0ebe 5364 aabe 70b7 88be
00000040: b2d3 9ebe c624 85be 7b35 6bbd ad35 53be
00000050: 2e75 913d 2402 a9be 259b 6bbe c5cf c73b
00000060: bf3d 2fbd 1600 c0bd bde6 04be 3949 c7bd
00000070: 22c2 4cbe 7e48 98be 03d3 90bc 895f c5bd
00000080: eeb6 a1bd 9c51 58be 9cbe cbbd 08e1 99be
00000090: f84d 0dbe 3823 f2bd a089 bbbd 33ce b3be
000000a0: 4fb6 83be cab8 9cbe f1e8 33be e858 17be
000000b0: 1531 863d 0c1a 74be 428a 9dbc 4fff f7bd
000000c0: 3c4e d4bd 5959 95bc 7979 f0bd 5fd7 40be
000000d0: 6333 f4bd 2887 81be 9b93 f7bd 1ec6 adbd
000000e0: ecb1 5dbe f714 80bd 12d0 32be 39c5 d5bd
000000f0: da2c 65be 3ca2 7dbe c758 15bc 0779 66be
00000100: ff18 a1be 1d15 093d 25ce e5bd adff d5bd
00000110: 1061 bdbd d3cf 3ebe 236c cfbd fb95 93be
00000120: 1e03 44be a6f2 74be aa3a 3abe 3807 aabe
00000130: 8b29 7ebe 6c32 9cbd a97c c9be e1ce 57be
00000140: f174 4fbe 5808 64be 0727 893c 2a67 66be
00000150: 2bd6 a7be 339f 61be 58b5 17be 658b 82be
00000160: 4945 d7bd 2fbf b5bd 9dbe 56be c6a3 99be
00000170: 846c 87bd da2e 0e3d ed7b 04be e2f8 8ebe
00000180: 47f1 74be 6faf 0abe e7a7 bebe 508d 75be
00000190: 68f7 c1bd ee35 a6be 3744 4bbe 78e9 81be
000001a0: 6d35 24be 9342 1ebe 4f81 94be 3958 3dbe
000001b0: 581d 24be 94cc 84be e127 61be a071 85be
000001c0: 37d1 5cbe 7859 b5bc 0efe febd 1911 56be
000001d0: 90bb 95bd fce8 9abe 7093 40be c9ce a1bc
000001e0: 94ca 06be 56cf b6be 68fc a2bd bdea 51be
000001f0: cc12 4ebe 4772 5cbd 4a51 933c 5acb 32be
00000200: 01a1 c0be 7ffb 97be 1f15 2bbe ac72 e6bd
00000210: f8c1 04be a6be 89be 9536 aabe fe6f c6be
00000220: b2ad 23be 41f7 8bbe 077f 78be 2bbe 03be
00000230: 13fe 90be 0e31 90be 5bab 333d 6b08 50be
00000240: 4216 f6bd 84e8 423c 6600 04be d9e4 31be
00000250: 63b0 54be 8236 ccbd 0c1b 18be ba54 a3be
00000260: f3db 94be 5d44 ebbd 6c1d a1be 2e90 43be
00000270: 36d1 05be 5849 8fbe 0267 96be 92ce 17be
00000280: 4292 0cbe eba6 6dbb bf37 a2bd e117 57bd
00000290: bb7c 78bd 1d1b c1bd 9e54 d8bd c804 25bd
000002a0: ea96 2abc 8b7c 9dbe 96fa c2be 8a74 16be
000002b0: 87e8 7dbe e21f 41be 7405 7fbe 780b 30be
000002c0: efc0 21be 9690 9cbe f906 c5be efb9 72be
000002d0: 8995 2f3b 7057 99be e0ed 85be 57b7 dfbd
000002e0: 62ae c2be 7514 53bd 4b62 ecbd 4966 27be
000002f0: 54bc 2ebe ec6d 69bd 6b75 2dbe 5176 b2be
00000300: b3fb 72be d8e2 80be a8d5 17be 7760 7ebd
00000310: fbae 3fbe ca53 b3be 5d45 73be 56ee 2abe
00000320: feb0 50bd 5447 b7bd 8f45 a9be 1efb adbe
00000330: fe5b 9cbe 71a0 f1bd eb6e 46be 6391 e7bd
00000340: b076 5cbe 3c69 d4bd 1650 87be 764f 1bbe
00000350: 87a7 71be c9df 65be 847c 9b3b e778 d7bd
00000360: 29b2 94be 4e90 07be eb5a 52be db3b 01be
00000370: 48be c1bd d10f 1fbe bdf7 ec3b 91ea f4bd
00000380: 4a5e d6bd 3f6e 8abe 44e9 97be 7af6 b4bd
00000390: 3261 35be 7275 95be f56c 36be e8cb 78be
000003a0: fcef 68be 1a11 20bd bf2e 85be a64b 08be
000003b0: 2508 02be d5cb afbe 6ba3 3abe a08a 0ebe
000003c0: 728c 40be fc31 94be 362d 233c 6ead 83bd
000003d0: abad 89bb 349c 05be c6d8 00bd b0cd f2bd
000003e0: 4874 39be 2759 cabd 0b2e abba da2d 9abe
000003f0: 8d6f 30be 7c79 03be 0961 d23c f547 3abd
-0.041558865 -0.016684415 -0.22689399 -0.2014079 -0.17112952 -0.007643255 -0.2835594 -0.25678957
-0.23928615 -0.22419874 -0.26014403 -0.26450622 -0.1529455 -0.13881968 -0.33279666 -0.26702452
-0.31020886 -0.26004618 -0.05742405 -0.20625944 0.071024284 -0.33009446 -0.23008402 0.006097766
-0.042783495 -0.093750164 -0.12978645 -0.09730763 -0.19995931 -0.29742807 -0.017678743 -0.096373625
-0.07896219 -0.21124882 -0.09948465 -0.30054498 -0.13799274 -0.11823124 -0.09157109 -0.35118255
-0.25725028 -0.30609733 -0.17569329 -0.14780009 0.065523304 -0.23838061 -0.019230966 -0.12109243
-0.103664845 -0.01823108 -0.11741919 -0.18832158 -0.11923864 -0.2529843 -0.120887004 -0.084850535
-0.21649903 -0.06253999 -0.17462185 -0.10438008 -0.22380391 -0.24768919 -0.009115404 -0.22507106
-0.31464383 0.0334674 -0.112209596 -0.10449157 -0.09247029 -0.18633966 -0.10128047 -0.28825364
-0.19141814 -0.23920688 -0.18186441 -0.33208632 -0.24820535 -0.07626805 -0.3935292 -0.21075012
-0.20259453 -0.22268808 0.016742243 -0.22500291 -0.32780585 -0.22033386 -0.14815271 -0.25496975
-0.10511262 -0.08874356 -0.2097115 -0.30007762 -0.066124946 0.03471265 -0.12937899 -0.27924258
-0.23920165 -0.13543485 -0.37237474 -0.23979688 -0.09471017 -0.3246302 -0.1985024 -0.25373435
-0.16036005 -0.15455084 -0.29004905 -0.18490686 -0.16026819 -0.2593733 -0.21987869 -0.26063251
-0.21564184 -0.022137389 -0.12450801 -0.2090496 -0.07311165 -0.30255878 -0.18806243 -0.019751923
-0.13163215 -0.3570506 -0.07958299 -0.20499702 -0.20124358 -0.05381992 0.017983098 -0.17460385
-0.37622836 -0.29684064 -0.16707276 -0.11252341 -0.12964618 -0.26903266 -0.33244768 -0.38757318
-0.15984228 -0.27337077 -0.24267207 -0.12865512 -0.28318843 -0.28162426 0.04386459 -0.20315711
-0.12015964 0.011896256 -0.12890777 -0.17372455 -0.20770411 -0.09971334 -0.14854068 -0.3190058
-0.29074058 -0.11487649 -0.3146776 -0.19097969 -0.13068089 -0.27985644 -0.29375464 -0.14824894
-0.13727668 -0.003626282 -0.07920789 -0.052513007 -0.060665827 -0.094289996 -0.105630144 -0.040287763
-0.010411957 -0.3075908 -0.38081807 -0.14692894 -0.24795733 -0.18859819 -0.24904424 -0.17191875
-0.15796255 -0.3057906 -0.38481882 -0.2370374 0.002679201 -0.29949522 -0.26158047 -0.10923641
-0.3802367 -0.05153318 -0.115421854 -0.16347612 -0.17064029 -0.056989595 -0.16939323 -0.34855893
-0.23728828 -0.25173068 -0.14827597 -0.062103715 -0.18719094 -0.35024863 -0.23756929 -0.1669248
-0.050950043 -0.08949152 -0.33060881 -0.3398065 -0.30538934 -0.1179818 -0.1937825 -0.11307027
-0.2152965 -0.10371634 -0.26428288 -0.1516703 -0.23599063 -0.22448649 0.004745068 -0.10521107
-0.29042175 -0.13238642 -0.20542495 -0.1262049 -0.094601214 -0.15533377 0.007231681 -0.119588025
-0.10467203 -0.27037236 -0.29670155 -0.08836074 -0.17712858 -0.29191166 -0.17815001 -0.24296534
-0.22747797 -0.03907881 -0.26012227 -0.13310108 -0.1269842 -0.343352 -0.18226402 -0.13920069
-0.18803576 -0.28944385 0.00995951 -0.064295635 -0.004201611 -0.13047868 -0.03145673 -0.11855638
-0.18110764 -0.09880286 -0.0013059987 -0.30113107 -0.17230053 -0.12839311 0.025681036 -0.04547878

model.2.weight f4 [256, 512]
00000000: 16e0 03bd 6aa8 d1bd 6624 083e 67fe 723d
00000010: 91cb 6fbc a13f 35bc 45fd 493d 28c9 423d
00000020: 5d4d 943a f23a 05be 66e0 c8bd 8410 02bd
00000030: 0acd c83c a88b 0a3e 9423 083e 8dba 01be
00000040: 62ca aebd 0bad b33d 3d58 49bb 3de4 fc3d
00000050: 3594 dabc 7959 183d e684 ad3d fa9a 39be
00000060: d83d 323e 7e9e 223b e9c5 16be 581f 0e3e
00000070: f8aa 3c3c 5648 5c3d 7837 9fbc 8b72 e3bd
00000080: df68 32be 1f44 13be dbc8 f43d 1ab1 823d
00000090: 45f3 943d c39b 023d 9e11 8fbd da8b 923c
000000a0: b0a8 8cbb cbd1 b03d 5a57 ee3d 3b37 bfbd
000000b0: 1b57 263c c741 143d 211c 27be 7ec3 d5bd
000000c0: 716e 023d 7fad 2abd f16d 83bd 0739 f03d
000000d0: 6fe2 cd3d cde7 cabd d2d8 5d3e ad66 133d
000000e0: 9a0f 073e e7bf a1bd b480 39bc 4c6f 763d
000000f0: d7ba b2bd 4b46 ef3d bf8b 6dbd 64f8 86bd
00000100: 8fdd ecbc 2ace 0f3c 70d8 273e 28ee b3bd
00000110: 94b4 663e 4cb3 ffbd 3de9 983d 6bae 673d
00000120: 4ff4 e13b 47fe 5dbc d38b 5f3e be82 9abd
00000130: 502f b23e d3f0 68bd 6c38 94bc 5367 0fbd
00000140: ba98 e93d 81d9 4a3e 1ac5 30be 9dc5 21bd
00000150: d11e b0bc a066 e43d 8566 a23e be25 b1bd
00000160: f942 3d3c 2a15 46bd 9efe 423e b748 a23d
00000170: 9c92 9bbe cbc1 61bd 490c 31bd 967d 0b3d
00000180: 777b 96ba 8bdc 0a3c 74d0 a1bd 48b2 783d
00000190: 00b1 f7bd 7e15 b8bc 2ef0 d7bc 7260 bcbc
000001a0: d8b7 9e3d a6c9 d53d 3f55 8a3d d7fb 193e
000001b0: b618 203d e3b5 7a3d c18f eb3d 776f 983d
000001c0: f2b9 1fbd a970 383e c676 02be 14d7 00bd
000001d0: 15f7 a9bd 4093 34bb 570a 5abd d6af cdbd
000001e0: 1286 d8bd 9053 75bd bb65 463d c5da ecbc
000001f0: 8273 893d 226e 88bd 2375 133d 6bfd 333d
00000200: 09cc 003d f0b1 9c3d 14de 70bc 1201 533d
00000210: 404d 1b3e 0bc2 cdbd c18e aabd f104 63bb
00000220: 8615 a93d f159 d8bc 7bde 253d 861e 8c3c
00000230: b267 a3bc 25a0 d43a 50c3 eabd eb24 ab3b
00000240: 4ca7 23bd e104 423d d9e0 e93d 63af f1bd
00000250: b379 5a3c ac2f 113e 18ce 07be 4935 893d
00000260: 3e98 413c e767 b3bd c3b7 d73c 831d e63c
00000270: 8352 20be 1616 c03c dd77 f6bc 95b5 91bd
00000280: 085d f13b 208b 05be 93f1 19bd 4444 3c3e
00000290: 0300 b7bd 04a2 16bd 7102 32bc 0c73 afbd
000002a0: 1aa7 e13c 34bc fb3c 5e68 753d a3c0 67be
000002b0: 425c b43d 33fc 753d f35d 933c 4872 793e
000002c0: be8f 4ebd 306e 30bd bdf3 ca3b ab9f 963d
000002d0: abc8 8ebb 8395 c1bd 5d24 bf3d 4146 8a3d
000002e0: 0fbd 9fbd 878f b83c dc97 fabc 1141 7cbd
000002f0: d380 343d 928b 31be 5bec e738 1bdb 083e
00000300: 6f99 003c c28d 9bbc 1ad3 593c d131 06bd
00000310: 699b c9bd d433 343b 6ad1 043e 2c94 0fbe
00000320: 651b df3c d62c 25be 29b1 613c af0c f33d
00000330: 2043 103d f7b5 c9bd 8dae bf3d d700 f53d
00000340: a651 2fbe ee39 f4ba 7d16 20bd 8427 c63d
00000350: f257 873b f6f9 b03e 0b1c 51be 5fbe 093e
00000360: ff60 9bbd c679 fdbc 326c 5dbe 36a5 9dbd
00000370: 001f eebd 27f1 143e b7ef 53bd b0e3 113d
00000380: 441c 4cbe 4efb 41bd bad9 313c 2d23 fdbd
00000390: 5381 7dbc 78f5 663d 3f5a 963d b1b2 b03d
000003a0: 8eff d33d d1fe 51bd f4ab 7ebd f6b2 b93d
000003b0: a8f7 0abd 4bd7 573d 185e 6abd 141d f53d
000003c0: b81c 66bd 5a86 86bd 13c3 e0bd 98b1 263e
000003d0: f616 0e3d c93a 7d3c 1f6e 16be 473c f0bd
000003e0: 88f1 bfbc c90a be3c a7c2 79bc 526e 283d
000003f0: 83dc 0a3e ae5f 4bbe a719 bc3d 3157 7fbd
-0.032196127 -0.102372006 0.13295135 0.05932465 -0.014635936 -0.011062534 0.049313802 0.04755512
0.001131456 -0.13010767 -0.098084256 -0.03175403 0.024511833 0.13529837 0.13294822 -0.1266882
-0.08534695 0.0877324 -0.003072276 0.123482205 -0.026681999 0.037194703 0.08472614 -0.18125525
0.17406404 0.0024813707 -0.14723934 0.13879144 0.0115153715 0.053779922 -0.01943563 -0.11105832
-0.17422818 -0.14381455 0.11952373 0.06381436 0.072729625 0.031886827 -0.06985782 0.017888952
-0.00429257 0.08633765 0.11637755 -0.09336706 0.0101526035 0.036195543 -0.16319324 -0.10437678
0.031843606 -0.041669365 -0.06417454 0.11729627 0.100529544 -0.09907494 0.21664742 0.03598659
0.13189545 -0.078979306 -0.011322189 0.060164735 -0.08727043 0.11683329 -0.0579946 -0.065903455
-0.028914241 0.008777181 0.16391158 -0.08785659 0.22529823 -0.1248537 0.07466362 0.056562822
0.006895579 -0.013549394 0.21830682 -0.07544468 0.34801722 -0.056870293 -0.01809331 -0.035010647
0.114060834 0.19809534 -0.17262688 -0.0394951 -0.02149907 0.11152387 0.3171884 -0.08649777
0.011551612 -0.048360027 0.19042441 0.079240255 -0.30385292 -0.055116456 -0.043224607 0.034055315
-0.0011480887 0.008475433 -0.079010874 0.060716897 -0.12094307 -0.022471186 -0.026359644 -0.022995207
0.07749909 0.10438852 0.06754541 0.15037476 0.039086066 0.061208617 0.11502028 0.07443135
-0.03899569 0.18011726 -0.12740621 -0.031455114 -0.0829908 -0.0027553588 -0.053232517 -0.10043304
-0.10572447 -0.059894145 0.04843686 -0.028912911 0.067114845 -0.06661631 0.036000382 0.04394285
0.031444583 0.076511264 -0.014701385 0.051514693 0.15166187 -0.100467764 -0.083280094 -0.0034640396
0.082560584 -0.026410075 0.040495377 0.017104398 -0.019946907 0.0016222043 -0.11463034 0.005222907
-0.03995447 0.047367934 0.114198394 -0.118010305 0.013334679 0.14178342 -0.13262212 0.066996165
0.0118160825 -0.08760052 0.026332742 0.028090244 -0.15656476 0.023448031 -0.030086452 -0.07114712
0.0073658265 -0.13041353 -0.0375839 0.18385416 -0.08935549 -0.036775604 -0.01086484 -0.08566865
0.0275455 0.03072939 0.059913985 -0.22632079 0.08806659 0.06005497 0.017989134 0.24360001
-0.050430052 -0.043073833 0.0061936066 0.07354673 -0.0043574176 -0.09452345 0.093331076 0.06751681
-0.07799732 0.022529377 -0.03058999 -0.06158549 0.04406817 -0.17338398 0.00011058963 0.13364832
0.007849081 -0.018988494 0.013294959 -0.032762352 -0.09844095 0.0027496712 0.1297051 -0.14021367
0.027234742 -0.16130385 0.013775148 0.118676536 0.035220265 -0.0984916 0.09359465 0.11963051
-0.1712099 -0.0018632987 -0.039083946 0.09675506 0.004130357 0.34565705 -0.20420854 0.13451527
-0.0758686 -0.030941855 -0.21623304 -0.07697527 -0.116270065 0.14545117 -0.05174228 0.03561753
-0.19932657 -0.047358803 0.010855133 -0.12360225 -0.015472728 0.05638644 0.07341432 0.08627833
0.103514776 -0.051268402 -0.062175706 0.09067337 -0.03392759 0.052695554 -0.05721864 0.11968437
-0.056179732 -0.06568594 -0.109747075 0.16278684 0.034689866 0.01545591 -0.14690445 -0.11730247
-0.0234306 0.023198502 -0.015244163 0.041120835 0.13560681 -0.19860718 0.0918458 -0.06233901

model.2.bias f4 [256]
00000000: 66d4 efbd bde1 eebe cae7 bebe 71d5 31be
00000010: 8466 8abe 9b84 7cbd eb04 9abe 7b45 043d
00000020: 0a92 a1be e27b b2be 4330 8fbe afe3 1dbd
00000030: 0ec0 acbe c61f a4be 7a4f b5bd 64e0 41be
00000040: 6e4d 1bbe 1e8a 39bd 50d4 96be ee11 86be
00000050: b68b 5abd 73c0 dfbd 08f0 52be d6bf 11be
00000060: 2515 f6bd cfe3 90be 929b 0abe e12b b4be
00000070: dd1d 4dbe 9bcf 96be 09a8 7bbe 35db c3be
00000080: a0d0 1dbe a8bc 3dbe 8063 47bd 1187 acbe
00000090: 6d2b 92be dae0 01be b970 ddbe 30fa 743e
000000a0: d7be 04be a058 9bbe c761 c2be e03b b5be
000000b0: b95c 0bbe 8794 8fbe e5de 37bd a31e 2abe
000000c0: 7b1e e9be 9b70 9cbe 2c8e e33d 43d4 7b3d
000000d0: 6cd7 ddbd 59a6 22be 42f5 3ebd 2989 a4be
000000e0: 6492 63bd 4bd8 84bd 9c9e 29be e4de e0be
000000f0: fe4a c6bd 17c4 8e3d 3b35 b6bd 0e5e 9abe
00000100: f1e9 30bd 01c7 abbd 1117 0cbe 7146 8cbe
00000110: aa9e 8abe 041f 8c3c b568 48be febe c0be
00000120: e3c3 62be 38f2 33bd 0384 7cbd b044 43be
00000130: df55 79be 7724 3dbe aff9 60be f41c 45be
00000140: f367 78be f845 cfbd 0285 54be 504f f6bd
00000150: 4111 5bbe 04d4 bfbe 3512 b43d cc8d 0ebd
00000160: 296c 86bc b8d5 4dbd 9ce6 afbd a45f ba3d
00000170: 3c4f 73bd 62c9 c9bc ebb6 57be 7bcd 48bd
00000180: 1f37 fbbd 93be 93be c398 bebd 4627 debd
00000190: 7aec 51be 2b96 0f3e 9914 a1be 7d6c 59be
000001a0: 2975 73be a701 c9be 824d 89bd 5cf4 93be
000001b0: 7c14 16be 41dc 94bd 8baf 93be f071 c2bd
000001c0: 86b1 7abe 0797 cebd 1de4 8dbe 234e 40be
000001d0: e87d cb3c 008c 98be 6f23 19bd fb36 9ebe
000001e0: c293 01be 9902 afbc 9889 95be 3b06 91bd
000001f0: adb9 87bd 1848 3ebe 829c aabe 403a 9cbe
00000200: 36b9 ddbe 92e9 f3be a4f4 24be aac2 2fbd
00000210: ede5 b0be 8db6 87be ab25 82be 6bbc 34be
00000220: dfa6 9fbe e56e 91bd c11c 31be 17bf 6abe
00000230: 9628 a7be 123d d7bc b005 b2be 2c54 14bd
00000240: 7b47 8ebc 22a4 11bd f4b1 3d3e 4f09 05be
00000250: 85bb a8be 7aba 9dbe 6b09 b0bc 7cc9 c1be
00000260: 934a 99be 2d80 00bf a472 e2bd c401 a9be
00000270: 93ff 3abd e8c3 92bd 01cd 85be 12e3 eabd
00000280: b95c 9cbe e62c 66bd b842 cebc dd97 49be
00000290: acf6 7dbe 7953 5abd ac0a 7fbe 1b10 76be
000002a0: ede7 11bd 9b35 b1bd bf04 82bd bfb8 59be
000002b0: 6e38 443d 1511 92bd 82a8 a7be 1465 e9be
000002c0: fba2 aabe 511d 65be fbb6 16be 0933 00be
000002d0: 5576 adbe 9cf4 8cbe 4704 a3bd ef00 b5be
000002e0: 8b88 81be ec2e 19bd 3d99 7dbe 1f9a 0cbe
000002f0: d862 d2bb fbc1 4dbe f867 b2bc 4d5b 88bd
00000300: 575e 5b3d 856d acbd dd8e a1bd 938e c8be
00000310: 0b7c d3be 75ae 80bd 4207 65be d79e 17be
00000320: 8d69 3abe a369 adbe 91bd cebd f5dc 99be
00000330: d93a 0bbe 6f53 afbe 759e d2bd 71ed 3fbd
00000340: dcfe 7fbe 0b19 c7bd 0f60 8dbe 7530 f33a
00000350: 1a91 80bd d3e5 61be 0798 8dbe 413f 79bd
00000360: fd4f 70be 9ad7 4cbd cdb7 42be 9fd6 aebd
00000370: 804b 5ebd bd42 75be 920d cc3b d2ba 2dbe
00000380: f2f1 14bf 9209 a03c c85d 663c b607 5abd
00000390: 30a8 d9be 39b8 133d e6ca 44be dd7a 42be
000003a0: e240 87be f90a fbbe 3314 45be 2728 babe
000003b0: 0885 1bbe 40e7 e6bd 0027 22bd 8448 edbd
000003c0: 5ace b9be b1ad 9dbd 14bd abbe 1d71 6dbd
000003d0: 5380 52bd adaa 73bd 6d74 623e d39e aebe
000003e0: c38c 47bd 8ead 18be 63b2 463d 36e7 51be
000003f0: 5b90 dabe 9e2b 24be c7a4 4cbe 49fa afbe
-0.11710434 -0.466566 -0.37286216 -0.17366578 -0.27031338 -0.0616499 -0.30081877 0.032292824
-0.3155673 -0.3486014 -0.27966508 -0.038547214 -0.33740276 -0.3205549 -0.088530496 -0.18933254
-0.15166256 -0.045297734 -0.29458857 -0.26185554 -0.053355895 -0.10925379 -0.20599377 -0.14233336
-0.12015752 -0.28298804 -0.13535908 -0.35189727 -0.20030923 -0.29455265 -0.24575819 -0.3825318
-0.15411615 -0.18528998 -0.048678875 -0.33696797 -0.28548756 -0.1268343 -0.43250063 0.23923564
-0.12963425 -0.30341053 -0.37965223 -0.35397243 -0.1360959 -0.28043005 -0.044890303 -0.1661325
-0.45531067 -0.3055466 0.111111015 0.061481725 -0.10832104 -0.15883769 -0.046620615 -0.32135895
-0.05555953 -0.06486567 -0.16564411 -0.43920052 -0.096822724 0.06970995 -0.08896872 -0.30149883
-0.043191854 -0.08387566 -0.13680674 -0.27397493 -0.27074176 0.017104633 -0.19571193 -0.37645715
-0.22145037 -0.04393217 -0.061649334 -0.19069171 -0.24349163 -0.18470941 -0.21970247 -0.19249326
-0.24258403 -0.10120767 -0.20753863 -0.120268464 -0.213933 -0.37466443 0.08792535 -0.034803197
-0.016408997 -0.050252646 -0.08588907 0.09100273 -0.059401736 -0.02463216 -0.21065871 -0.049024086
-0.12266373 -0.28856334 -0.09306481 -0.108473346 -0.20500365 0.14022128 -0.31461027 -0.21232791
-0.23775162 -0.39259073 -0.067042366 -0.2889737 -0.14656252 -0.072685726 -0.28844866 -0.09494388
-0.24481782 -0.100874 -0.277131 -0.18779807 0.02484031 -0.29794312 -0.037387308 -0.30901322
-0.12654021 -0.021363543 -0.29206538 -0.070812665 -0.06627212 -0.18582189 -0.3332253 -0.3051319
-0.43305367 -0.47639138 -0.16108948 -0.042910255 -0.3455042 -0.26506463 -0.25419363 -0.17650001
-0.31182 -0.071012296 -0.17296125 -0.22924457 -0.32648152 -0.026274238 -0.34769964 -0.036213085
-0.017368069 -0.03555692 0.18524915 -0.12991832 -0.32955566 -0.30806333 -0.021488866 -0.37849033
-0.29939708 -0.5019558 -0.11057022 -0.3300916 -0.04565389 -0.071662724 -0.26132968 -0.114690915
-0.30539492 -0.056195162 -0.025178298 -0.19686837 -0.24801129 -0.053302262 -0.24906415 -0.24029581
-0.035621572 -0.086528026 -0.063485615 -0.21261881 0.047905378 -0.071321644 -0.3274575 -0.4558493
-0.3332747 -0.22374465 -0.14718239 -0.12519468 -0.33879343 -0.27530372 -0.079598 -0.35352275
-0.25299487 -0.037398264 -0.24765487 -0.13730668 -0.0064204745 -0.20093529 -0.021778092 -0.06658039
0.053556766 -0.08419327 -0.07888577 -0.39171275 -0.41305575 -0.06283275 -0.2236605 -0.14806686
-0.18204327 -0.33869657 -0.10094751 -0.3005139 -0.13596667 -0.34243342 -0.102841295 -0.0468573
-0.24999565 -0.097215734 -0.2761235 0.001855387 -0.06277676 -0.22060327 -0.2765505 -0.06085134
-0.23468013 -0.0500103 -0.19015427 -0.085370295 -0.05427122 -0.2395124 0.0062272036 -0.16965798
-0.5818168 0.019535813 0.014060445 -0.05323001 -0.4251113 0.03606436 -0.19218025 -0.18992181
-0.2641669 -0.4903181 -0.19245987 -0.3635876 -0.15187466 -0.11274576 -0.039587975 -0.11586097
-0.36290246 -0.07699145 -0.33542693 -0.0579692 -0.05139191 -0.05948894 0.22114725 -0.34105548
-0.048718225 -0.14909956 0.048509967 -0.20498356 -0.4268826 -0.16032264 -0.19984733 -0.3437064

model.4.weight f4 [128, 256]
00000000: f27f d33d 9cde 283e 48f4 3abe 5c8a 8cbe
00000010: 26d4 853e 869a 0bbf 1a17 4e3b 7ee3 933e
00000020: 4996 04bb fded cc3d 6f1c 38be 3dce c43c
00000030: 2b29 c13e 910f 143e e53e e83d 5239 8abd
00000040: d438 193e 2260 80bd 8486 48be 1335 6bbe
00000050: 01b8 70bd 2cbc cebc bce1 cebd 475c e23e
00000060: 6cab febc 1c68 b4bd e9a4 fc3d b90f f83c
00000070: 9c0b 86bc cd84 0e3d 37de 89be 0d7c 93be
00000080: c8cd 97bd 88c2 7e3e 2ee5 58bc a3e6 b93d
00000090: 16cf fd3d afb8 de3d 2166 0dbe 9c58 30be
000000a0: 2cfb cfbd 42ba 10be 7bf6 ddbc aee0 edbc
000000b0: eaa4 8e3c f77a d2bd 1316 97bd d4ae 1e3f
000000c0: 8488 513d 999a 8abd b222 44bf c309 ecbd
000000d0: 6659 0bbe 672c 8f3d adb3 efbc 3d8e 0abe
000000e0: 27ff f03d ed9a 97be ba61 58bc a4e2 18bd
000000f0: 9d54 bfbd 6ab1 e43e 85d9 93bd 67d0 443d
00000100: a458 093d 113b acbb 25b4 9ebe eadd 843a
00000110: 4b99 6fbe cbb1 aa3d 0b8c 8b3d 7d7e 2fbf
00000120: d4d7 8a3e ddb4 91bd af30 80bd 786c b4bd
00000130: 5c61 1c3c 1df1 f83e af7e 15be e986 19be
00000140: 7e9c 43be 2b30 d6be b99a c83e ac07 d3be
00000150: 5ff5 4bbe 8887 35bd 6860 a0be 5c1b 853c
00000160: 1041 553d 45ab c83d 41e6 333e 6475 c5bd
00000170: 0ea4 083d c6a0 8dbe e625 6ebd ff2f a6bd
00000180: 69a5 25bf 221c 0fbe fcb8 d13d 6e66 7abe
00000190: ae03 c83e 2663 f6bd 8a48 ec3d 22d2 b4be
000001a0: 9ee8 91be 239c 2e3e bd01 1a3c e072 89bd
000001b0: b782 ab3e 9df7 cabc dd4b 9e3d 4179 023f
000001c0: d97e 013d 6716 6fbd d1d5 2dbd cd8d f3be
000001d0: e30a ca3e 81ec f13d 942d 5e3e cf41 17bd
000001e0: 5ec4 5cbe 9714 c9bd ab6a 1c3d 0a16 9b3a
000001f0: 1c3f 35bd dfbc 45be 6e89 743e afae c43c
00000200: 24d0 a13c 56d2 e93d 1668 af3d 2a88 a4be
00000210: 3c1b 82bc 4542 1fbe abfa 80be 732c b9bd
00000220: 6ce4 163e a855 ed3d 0050 7bbd a2a9 7e3e
00000230: 0ef2 753b e6ec 9dbe 6b6f 2bbd 45fb 073d
00000240: 2a4b cc3d a2ac 5f3d da0d 1fbe a07f 3b3e
00000250: 435e 353e da04 c7bc 929f f13c d64d 19be
00000260: 9e48 493a 2b75 c73d ec8a 47be 76eb 593d
00000270: cff2 95be 02bd 20be ec68 6cbe 48a9 1bbe
00000280: c343 013e d40e b9bd ed99 46be a08b 673d
00000290: 41c3 ef3e 0a60 ccbc 4a8a 89be 0007 74bd
000002a0: d0ae 8c3d e39b c0bc 89fa 453e 52ac 9e3e
000002b0: 65fa e43d 1d80 01bd 213a 60be fce7 17be
000002c0: c870 32be 94c3 153e cd46 0fbe 5a65 423e
000002d0: f708 aabd 0ce5 47be 2da7 9abd 462e c4bd
000002e0: 2563 993d c3ea be3d 5a22 4cbf 45bc 15be
000002f0: a821 6e3e 82d7 773d ab5b 02bd b045 a43d
00000300: 43bc 90be df54 27be 9db4 263e 1f82 bebd
00000310: 1259 09bd 24fc 83bd 900e 0dbe eee6 c03b
00000320: 235a dfbe 8b90 b6bc 65b7 89bd 4ab0 e33d
00000330: 1c65 0fbd f050 f2bb affe d5bd ee8a 1c3c
00000340: 327b c3bd a254 e13d a33b 30be e4e2 ffbd
00000350: e550 763d aed7 d13c c1ea 473e 1677 9b3d
00000360: 6200 17bd bbe9 9abd 36e4 1e3e 99d1 81bf
00000370: 4b9b b13d 18e1 0a3c 53f4 5f3e eac1 cbbd
00000380: 7e35 813e fbd0 13be a035 c43c c8bd f53d
00000390: 96d3 1d3e b1b8 fd3d 0c2a 4abe d1fa b4bd
000003a0: 0931 1dbe 7aba f43c e86d 783e 0f1c 943e
000003b0: f121 37be efcb d2bc 96f3 ca3d 995d 393e
000003c0: 8ee2 b0be de6c 973e b0b4 c33d d9d3 dd3d
000003d0: 1b02 153d 6636 82bd 4579 f5be 1d35 c3bc
000003e0: a06d 82bd a383 1e3e 28ee a33c 0259 0a3d
000003f0: 836d 563d 4629 19bb 4f90 813e d55f 273e
0.10327138 0.16491169 -0.18257248 -0.2744931 0.2613842 -0.5453266 0.0031446875 0.288845
-0.0020231178 0.1000633 -0.17979597 0.024024123 0.3772672 0.14459063 0.11340121 -0.06749214
0.14963084 -0.06268336 -0.19582564 -0.22969465 -0.05876923 -0.025236212 -0.10101649 0.44211027
-0.0310876 -0.0880892 0.123361416 0.030280935 -0.016362958 0.034794617 -0.2692735 -0.2880558
-0.074122965 0.24878895 -0.013238234 0.090771936 0.12393014 0.10875069 -0.1380849 -0.17221302
-0.10155329 -0.14133552 -0.02709507 -0.0290378 0.017412622 -0.1027736 -0.07377257 0.61985517
0.051155582 -0.067677684 -0.7661544 -0.115252994 -0.13608322 0.06990891 -0.02926048 -0.13530822
0.117674164 -0.29610386 -0.013206894 -0.037325516 -0.093423106 0.44666606 -0.07219223 0.04805031
0.0335318 -0.0052560647 -0.30996814 0.0010136936 -0.2339832 0.083346926 0.068138205 -0.6855238
0.2711779 -0.07114575 -0.06259286 -0.08809751 0.009544697 0.48621455 -0.14599107 -0.1499287
-0.19102666 -0.41833624 0.39180544 -0.4121679 -0.1991782 -0.044318706 -0.31323552 0.016248398
0.052064 0.09798292 0.17568304 -0.09641531 0.03335958 -0.27661723 -0.05814161 -0.08114623
-0.6470552 -0.13975576 0.10240361 -0.24453136 0.39065307 -0.1203063 0.11537273 -0.3531657
-0.28497785 0.17051749 0.0093998285 -0.06711364 0.33498165 -0.024776274 0.077293135 0.5096627
0.031615112 -0.058370974 -0.04244024 -0.47569123 0.3946143 0.11812688 0.21697074 -0.036927994
-0.21559283 -0.0981838 0.038187664 0.001183213 -0.04424964 -0.1931033 0.2388055 0.024009077
0.01975257 0.114170715 0.08564775 -0.32135135 -0.015882127 -0.15552624 -0.25191244 -0.09041681
0.14735574 0.11588603 -0.06135559 0.24869397 0.003752831 -0.30844802 -0.041854303 0.033198614
0.09975274 0.054607995 -0.15532628 0.18310404 0.17711739 -0.024294306 0.029495034 -0.14971098
0.00076783623 0.09739145 -0.19486588 0.05320307 -0.2928681 -0.15697101 -0.230869 -0.15201294
0.12623505 -0.09036031 -0.19394656 0.05652964 0.46828654 -0.024948139 -0.2686332 -0.05957699
0.0686928 -0.023511833 0.19333853 0.30990845 0.111805715 -0.03161632 -0.21897174 -0.14834589
-0.17425835 0.14625388 -0.13991852 0.18983975 -0.08302491 -0.19520968 -0.075514175 -0.095791385
0.074896134 0.09322121 -0.79739916 -0.146226 0.23255026 0.06050826 -0.031825703 0.08021104
-0.28268632 -0.1634097 0.16279836 -0.093021624 -0.03353221 -0.064445764 -0.13775086 0.005886904
-0.43623456 -0.02228572 -0.06724433 0.11117609 -0.035008535 -0.0073949024 -0.10448968 0.009554608
-0.09544982 0.110024706 -0.1721025 -0.12494448 0.06013574 0.02561554 0.19523145 0.07591073
-0.0368656 -0.07564112 0.15516743 -1.0142089 0.08672198 0.008476518 0.21870546 -0.099490955
0.25236124 -0.14435188 0.023951352 0.119990885 0.15412745 0.12388743 -0.19742602 -0.08836902
-0.15350737 0.029874075 0.24260676 0.28927657 -0.17884041 -0.025732009 0.099097416 0.18102111
-0.34547848 0.29575247 0.09555948 0.10831422 0.03637896 -0.06358032 -0.47944084 -0.023829037
-0.063685656 0.15479903 0.020011023 0.03377629 0.052350532 -0.0023370548 0.2530541 0.16345151

model.4.bias f4 [128]
00000000: 7928 913d e925 85bd 6f9e ffbd 0ad0 253c
00000010: c153 913c a0ff 7a3b 15bb 173d 7f53 15bd
00000020: d193 a4bd 9434 8a3d 735a 0b3d 5521 1dbd
00000030: 55d6 9bba a8af 13bd 4a2f 2c3d 1a79 14bd
00000040: c7de d83c b0b8 bcbd bbe9 49bd 7fac 05bd
00000050: bb9d 31bd e555 c33d 2116 25bd edf2 78bd
00000060: ee18 7ebd 078c 33bd deff e8bd f9aa 3cbd
00000070: 8e21 263c e9ed 65bd 7376 76bd ddd7 1abe
00000080: 8385 083d 6408 41bc bf3d a73c d2b2 5ebd
00000090: 514f 34bc c157 ae3d bdf3 0c3d 95eb 923c
000000a0: 58a0 f5bc 7793 c8bc f2a5 d43c dc1f 1abd
000000b0: c4f8 1bbd 9a25 38bd 40da d03c 506a a7bd
000000c0: 4088 013d fe01 aabd 928c f7bd c70d ff3c
000000d0: 8174 95bd 57ac 593d 0fad c7bd 6e3d debc
000000e0: 2fed 56bd 6698 783d 69f2 90bd f1f5 3a3d
000000f0: 9929 debc 3563 a63d f112 823d 2b5a cebd
00000100: cc65 13bd 5ba8 f0bc 1087 38bd 34ac dbbd
00000110: 0149 953d ea19 b33d 8db1 0a3d a044 35bd
00000120: 8c7a d63c d669 bd3c 061b 6e3d 77a9 dcbd
00000130: 11f1 223d 8e94 bebc 7ddf f4bb b21f 97bd
00000140: ee17 693d 540b c7bd 9958 7dbb ae7e 473d
00000150: 5322 a2bd 85a0 05bd 8a4b 003a b0fd e4bd
00000160: b547 9cbc 0b98 60bd 2dcf 7bbd fff0 edbc
00000170: 92ab 00bd 7271 d13d 8ac7 be3c daab 84bb
00000180: c54d 403d 95bd b8bc 64ac 423d 5a65 4cbc
00000190: 1a97 aabc 6011 b6bd c0bb 6a3b add4 443c
000001a0: a097 45bc f8c0 e8bc 1b78 d43d 2002 963d
000001b0: 20a3 953c 84fe 88bc 3613 f33c bfb5 e5bd
000001c0: 31b1 d33c 0b4d 11be 8f7e 1bbb 7b4f ba3d
000001d0: e26f 2dbc 7817 64bc a055 ce3d 1861 2bbd
000001e0: eec9 a83c 526b c03d 1c60 073c 20f9 f9bc
000001f0: 410e 093d 3316 ba3d 133e 9dbd 1ca6 373d
0.07087798 -0.065013714 -0.12481391 0.010120401 0.017740132 0.0038299337 0.03704365 -0.03645658
-0.08036006 0.0674831 0.034021806 -0.038361866 -0.0011889437 -0.03605619 0.042037286 -0.036248304
0.026473416 -0.09214914 -0.04929517 -0.03263521 -0.043363314 0.095378675 -0.040304307 -0.060778547
-0.062035494 -0.043834712 -0.11376928 -0.04606149 0.010139836 -0.056135092 -0.060171556 -0.15121408
0.03333045 -0.011781786 0.020415185 -0.054369755 -0.011005239 0.085128315 0.034412134 0.0179346
-0.029983684 -0.02448438 0.025958035 -0.03762804 -0.03807904 -0.044957735 0.025494695 -0.081745744
0.03162408 -0.08301161 -0.120873585 0.0311345 -0.07297612 0.05314287 -0.09749805 -0.027128901
-0.05247229 0.060692213 -0.07077486 0.045644704 -0.027119445 0.08124391 0.06351269 -0.10075792
-0.035985753 -0.029377153 -0.04505068 -0.107262045 0.07289315 0.08745177 0.033860732 -0.0442549
0.026181482 0.023121756 0.05813124 -0.1077451 0.03978068 -0.023264196 -0.007472931 -0.07379092
0.056907587 -0.097189575 -0.0038657545 0.048704796 -0.07916703 -0.032623786 0.00048940687 -0.111811996
-0.019077161 -0.0548325 -0.061476875 -0.02904558 -0.031413622 0.10226716 0.023288507 -0.0040488066
0.046949167 -0.022551337 0.047527686 -0.012475336 -0.020824004 -0.08890033 0.0035817474 0.0120135965
-0.012060076 -0.028412327 0.10374471 0.07324624 0.01826626 -0.016722925 0.029672246 -0.11216306
0.025841327 -0.14189546 -0.0023726558 0.09097191 -0.010585757 -0.013921611 0.100749254 -0.041840643
0.0206041 0.0939547 0.00826266 -0.0305143 0.03346086 0.090862654 -0.07677855 0.04483615

model.6.weight f4 [64, 128]
00000000: 6f89 c93c 9e3c 313e 2237 24be aac5 c53c
00000010: f143 953e 95ae ba3d 7d4a f9bd 22db 353f
00000020: 8372 5f3e a505 06bd ccd6 953c 420b 753d
00000030: 6837 82be fce2 64be 9b2c d3bd 0310 9cbe
00000040: e0bb 13be 62f5 bdbe 24e8 3ebe 3006 55be
00000050: d9c3 eabd 79fa 8cbe 7b71 a1be aced 75bc
00000060: 1e5a 333e f493 543e 6f85 103e 8e50 65be
00000070: f3e4 e13e fed5 a63e f0cb 0a3d a6c1 d3bd
00000080: f53e 36be a65c 5b3e e322 e43e 0e72 683e
00000090: e4cc 5f3e 04ef 95be ea0a 37bd 2e72 263e
000000a0: c34c 84bd b089 a2bc 39f5 de3c c5b4 493e
000000b0: d671 0e3e d69a bbbd f56d 9cbe c7af c7bd
000000c0: 6037 7dbe ab35 1c3e d346 51be a06e 8bbe
000000d0: bf42 b33e ab93 97be 86fb a13d 5c78 2abe
000000e0: 90d9 cc3e da0d 7c3e 4496 f33e 302a 04bf
000000f0: df9f a7bd 2f20 86bd f35d ffbd 1bbc 75be
00000100: ccd8 f7bd c902 12be 44e6 e83e 2eea b93c
00000110: e758 b4bd 8825 34be b9d7 a2be 02f5 a2be
00000120: 6268 5cbc fb87 e33e 7e31 cb3d db80 2ebe
00000130: 63f4 39bc 9db0 2c3e 879d 35be 06ac 343d
00000140: 72dc 4c3d 79e0 a33d 3f60 2c3e ef4a cf3a
00000150: 5136 7dbd dfc6 9b3d c4e4 283e 477b 5fbe
00000160: 0cb1 97be e293 a33d 4df9 58bd a37b 803d
00000170: ce60 cd3c 24b3 373e 5f2a 9cbd a4f3 f7bd
00000180: 48c8 ab3e 2f1a 84bd 65cc d13e 3412 01be
00000190: 674a 01bd 577c 6bbe 7e64 9abe 44cc 65be
000001a0: 7a9f 6fbb 18b7 b73d d9a0 2e3e 7ceb 433e
000001b0: fed4 313e cbb1 95be 54f2 25bd 1461 afbe
000001c0: 2627 7b3e 7294 90bc 6a44 9b3e eb72 153e
000001d0: 3ad7 833e 452a af3e 7141 c83d 6661 1b3e
000001e0: a8b9 a63e d0d8 1a3d d351 8e3e 1fb1 00be
000001f0: 49e4 f7bd be21 55be 4ecb f8bd 4fb7 cfbe
00000200: 374a 1cbe 5ce0 03be 84b9 8d3d beaa 79be
00000210: b0dc b43d f0fa c1be 94c4 5dbe 92d2 113e
00000220: 97bd 0fbe 4e6e 03be c736 9f3d b2af ae3d
00000230: 2bd9 f1bc b5a8 0bbe db5e f8be bc66 843e
00000240: d334 45be 3c80 7abd aefb 78be 1459 203c
00000250: 08cf de3d 8450 8b3e 720f 523d f98f 6dbd
00000260: 78d4 f83d 906d 99bd 186c dfbc 47df 6e3e
00000270: 7cae a4bd 20e2 b33e 147e 223e e056 b5bd
00000280: 92a0 07be d5d9 1fbf 5f93 7f3e 734e 383e
00000290: 0010 1d3e 89bb 41bd 67b0 f33d f4f0 e9bd
000002a0: 515a 613d 83eb a1bc 8f1e 92be e0a8 f93c
000002b0: 16bc 8abe c380 783e a4db c4bd f0b8 813e
000002c0: ff6d cabc 421c ceba 10cf 7f3e 3f5c c9be
000002d0: ec0f 81be 8653 40be 80c1 abbe b802 e5bd
000002e0: 28f5 37be b943 08bd b3e6 c6bd f51c 093d
000002f0: 4e93 60bd 8c1f ec3d cd8e 26bd 58b7 553e
00000300: 78cf 06be ed56 b03d bd24 c2bd 85a8 e4bd
00000310: 0cc4 a8be 6c6c 4dbc 5825 1bbe b2c0 adbe
00000320: 7aeb ccbd bad7 40be bbce 6a3e 02c1 8b3d
00000330: a2b2 da3d 5133 b33e 16f7 ecbd bdb1 683d
00000340: 8811 bd3c eb58 93bd ae30 9dbd 32b9 edbd
00000350: a80f b53d dd86 8d3c c7fc 56be 3953 a6be
00000360: b78b debd 5a60 893d 29a0 b1bc 0c42 1d3e
00000370: 7db7 523c 62fa 123e a9d4 1f3f f061 b63e
00000380: 33b4 fbbc 6b5c aa3c 8d55 913e 395f 0e3e
00000390: 110e 6bbd 7151 0abd f2db fc3d c2ec ac3e
000003a0: d387 813d a017 513e 1962 ab3d 2840 9b3d
000003b0: bef2 643d 47a3 d1bd cd0b d8bd 828d 833e
000003c0: c4f9 a6be 1c65 613c 7807 afbe fa33 0ebe
000003d0: 2101 8e3d 915f f53d 0776 d9bd 8268 4e3d
000003e0: 10c5 993d 15ad 06bc 2114 da3d 1402 ec3d
000003f0: 6aee 98bd 36ed 51bd 6b2f c93c 8e01 a5bc
0.024601666 0.1730828 -0.16036656 0.024142105 0.29153398 0.0911533 -0.12172411 0.71037495
0.21821027 -0.032720227 0.0182909 0.05982519 -0.25432897 -0.22352213 -0.10311242 -0.30480966
-0.14427137 -0.37101275 -0.18643242 -0.20803142 -0.11463136 -0.27534845 -0.3153189 -0.015010279
0.17514846 0.20759565 0.14113401 -0.2239401 0.44119987 0.32585138 0.033885896 -0.1033967
-0.17797454 0.21422061 0.44557866 0.22699758 0.21855503 -0.29283917 -0.044688143 0.16254494
-0.06459954 -0.019841045 0.02721654 0.19697864 0.13910612 -0.09160392 -0.3055264 -0.09750324
-0.24728155 0.15254848 -0.20437174 -0.27232838 0.3501186 -0.2960485 0.079093024 -0.16647476
0.40009737 0.24614659 0.4757558 -0.51626873 -0.0818479 -0.06549107 -0.12469091 -0.23997538
-0.121018976 -0.14258875 0.4548818 0.022694673 -0.08806019 -0.17592442 -0.31805208 -0.3182755
-0.013452621 0.44439682 0.09921549 -0.17041342 -0.01134977 0.16864248 -0.17735873 0.044109367
0.05001492 0.08001799 0.1683359 0.0015815179 -0.06181938 0.07606291 0.16493517 -0.2182437
-0.29627264 0.07987191 -0.052972127 0.06273582 0.025070574 0.1793943 -0.07625269 -0.12107018
0.3355124 -0.064503066 0.40976253 -0.126046 -0.031565096 -0.2299665 -0.30154794 -0.22441202
-0.0036563561 0.08970469 0.17053546 0.19132799 0.17366406 -0.29237208 -0.040514305 -0.34253752
0.24526653 -0.01764891 0.30325633 0.14594619 0.25750142 0.34211937 0.09778107 0.15173873
0.3256352 0.037804425 0.27796802 -0.12567566 -0.12104089 -0.20813653 -0.12148152 -0.4056954
-0.15262686 -0.12878555 0.0692015 -0.24381539 0.08831155 -0.37886763 -0.2165702 0.14240482
-0.14037167 -0.12835047 0.0777412 0.08529605 -0.0295225 -0.13638575 -0.4850987 0.2585963
-0.19258432 -0.06115745 -0.24314758 0.009786863 0.10879332 0.27209866 0.05128426 -0.05799863
0.121499 -0.074916005 -0.027273223 0.23327361 -0.08041093 0.35133457 0.15868407 -0.08854461
-0.13244846 -0.6244176 0.24958561 0.17998676 0.15338135 -0.047297988 0.118988805 -0.11422911
0.055017773 -0.019765621 -0.2853894 0.030476034 -0.27096623 0.24267869 -0.096122056 0.2533641
-0.024710653 -0.0015724974 0.24981332 -0.3932819 -0.2520746 -0.18781862 -0.33546066 -0.11182159
-0.17964613 -0.03326771 -0.09711971 0.03347488 -0.05482798 0.115294546 -0.04066353 0.20870721
-0.1316508 0.0861033 -0.094796635 -0.11164955 -0.32962072 -0.012538057 -0.15150964 -0.33936077
-0.10005851 -0.18832293 0.22930424 0.06823923 0.10678603 0.3500009 -0.115705654 0.05681013
0.023079649 -0.07194694 -0.076753005 -0.11607589 0.08840877 0.017276222 -0.20994864 -0.3248537
-0.10866492 0.06707831 -0.021682816 0.15357226 0.01286113 0.14353326 0.6243387 0.35621595
-0.030725574 0.020796021 0.28385583 0.13903512 -0.05738646 -0.033769075 0.12346639 0.33774382
0.063247345 0.20419168 0.0836832 0.07580596 0.05589556 -0.10236221 -0.10549126 0.256939
-0.3261243 0.0137570165 -0.34185386 -0.13887015 0.06933809 0.119811185 -0.10618215 0.050392635
0.0750829 -0.008219977 0.106483705 0.11523834 -0.07467349 -0.051251613 0.024558743 -0.020142343

model.6.bias f4 [64]
00000000: 2ee4 b6bd b85b ec3c d472 893c 5c8a 1dbd
00000010: 5cfd 40bd 2d88 65bc e777 b53d b35b 633e
00000020: c035 ca3c 4a97 28be a67f dfbd d9d4 d73c
00000030: ccad 4f3c ee89 fabd 4bf7 a9bb 0197 163b
00000040: 2f2a 0cbc 5e96 bc3d 12f0 90bd 5149 0e3d
00000050: 5c25 e6bc 59c4 e33d 94cb 253d 9b6b 88bb
00000060: 4273 273d bf27 e23d 30f5 debb dd19 1bbd
00000070: aaa7 103e 88e0 9d3d d3d4 913e ef15 343e
00000080: 93c0 1bbe d9ba 26bc 1535 3ebe 6956 4dbe
00000090: d2b0 7f3d 74f7 32bd 7246 9d3d b263 303d
000000a0: 6b46 83bd 4e0b 273e 1600 90bd 833d 41be
000000b0: c471 87bd 5d16 b23c ef64 6ebc 461e 76bd
000000c0: 3155 8f3e 4aab 91bd 7b12 8d3d f314 41bc
000000d0: 72f3 65bd 20f6 3fbb 1c3e d3bd 7913 9f3d
000000e0: f7e0 d43d bcc4 bb3b ba45 bb3c f5a8 993d
000000f0: f279 873d 5a26 fa3d a8a5 10bd b547 0abe
-0.089302406 0.028852329 0.016778387 -0.038462028 -0.047116622 -0.014009518 0.0886076 0.22202949
0.024683833 -0.16463962 -0.10913019 0.02634661 0.012675714 -0.12233339 -0.0051869503 0.002297819
-0.008554979 0.09208368 -0.0707704 0.03473789 -0.028093986 0.11121435 0.04047735 -0.004163218
0.040881403 0.11042737 -0.006804131 -0.037866462 0.14126459 0.077088416 0.28482684 0.17586492
-0.1521018 -0.010176384 -0.18574937 -0.20052494 0.06242449 -0.04369302 0.07679452 0.043063827
-0.064099155 0.16312906 -0.070312664 -0.18871121 -0.06613496 0.02173918 -0.014550432 -0.060087465
0.27994683 -0.07112749 0.068882905 -0.01178478 -0.05614037 -0.002929099 -0.10314581 0.07767386
0.10394471 0.0057302397 0.022860397 0.07502929 0.06615056 0.12214346 -0.035314232 -0.13503917

model.8.weight f4 [2, 64]
00000000: 643d fe3d 1aa7 ac3e 385f 20be 1ddb 403d
00000010: c10d 2cbe 881f bbbd ba72 7b3e 4edd c63d
00000020: a4f9 ce3c a90e 37be 5545 a2bc 8f2d bcbe
00000030: e3d5 1c3e 1517 e23d abf9 ffbd 985f 50be
00000040: ddcb bcbc e744 f23d a0d7 65be ad82 9d3e
00000050: c80f 8abe 76c8 763e 2aa7 8f3d cdef 373c
00000060: 4694 fe3d 1316 a23d 4130 103e 3248 b9bd
00000070: a7c3 033e 902a 5cbe fa20 fe3e e74d c13c
00000080: a134 6abe 8e44 88be 0eda 35be cd63 a3bd
00000090: a07c 0cbe 39d9 14bf a69d 973d 7e61 9dbd
000000a0: 17f7 38be 9d94 27be c70d a1be b3f7 2bbe
000000b0: 2f3c f0bd 951a b23e 7913 833d 8954 553c
000000c0: 21cd bb3e 3f5f f7bc 42ee c1be 2109 f2bc
000000d0: 975a 5dbe 64b3 193d b3a6 3ebc f2c3 553e
000000e0: 52da 313e 0794 32be 33bf 7c3c c968 653d
000000f0: 5c6b 873e 3e5b 6b3d 8b2e 283e c7df 893e
00000100: e2aa 60bd 85f0 9abd d709 1d3e 970c d13d
00000110: 4be1 7bbe b618 a03d f516 f7bd a2d0 57be
00000120: de24 7fbe 90e0 893e 0048 84bd af76 83bd
00000130: befb 9ebe 7e20 babe 8f0c 27be 9968 98be
00000140: 0fee ec3d fae7 39be bf58 4f3e 3674 b73d
00000150: 16da f73d 5e86 0cbe 79ac 2dbe a28c 82be
00000160: 3961 cc3d 8d64 84bd 63e1 0b3e 2c6a 80bc
00000170: c58e 94bd 3d0b 5dbe 5f10 23bf 031c 26be
00000180: 78f8 963e 8eb8 c8bb 56a1 033f ada3 9e3e
00000190: b8c0 cabe c541 913e 68f6 8bbe fed1 113e
000001a0: 966a 8dbd 9867 aebe 6efd 35be da73 e13e
000001b0: fc9c 0e3e 6d3f 413e 25c9 893e 1359 0abd
000001c0: c0d7 30bf eb10 14be cd5a 433e 25b3 613e
000001d0: f815 acbd ee1b 45be 5f04 5f3e 3ff2 18bd
000001e0: e0b3 4abe 9af6 aabd 8ac9 99bc 3e27 c23c
000001f0: a983 203d 78f4 98be 54b2 22be 7f23 33be
0.12414053 0.33721238 -0.15661323 0.047083963 -0.16802122 -0.091368735 0.24555483 0.09710179
0.025265522 -0.17876686 -0.01980845 -0.36753508 0.15315966 0.11039559 -0.12498792 -0.20348966
-0.023046428 0.11829548 -0.22445536 0.3076376 -0.26965165 0.24099907 0.07014306 0.011226607
0.12430625 0.079143666 0.14080907 -0.09046973 0.12867604 -0.21500611 0.49634534 0.023596717
-0.22871639 -0.26614803 -0.17758963 -0.0797802 -0.13719416 -0.58143955 0.07403116 -0.07684611
-0.18063007 -0.16365285 -0.31455824 -0.16793709 -0.11730229 0.34785905 0.064001985 0.013020643
0.36679938 -0.030196784 -0.3787709 -0.029545369 -0.21616589 0.037524596 -0.011636424 0.20875528
0.17368439 -0.1743928 0.015426445 0.056008134 0.26449096 0.057460062 0.16424005 0.2692854
-0.054850467 -0.07565407 0.15335785 0.102074794 -0.24597661 0.07817213 -0.120649256 -0.21075681
-0.24916407 0.2692914 -0.064590454 -0.064191215 -0.3105144 -0.36352915 -0.16313384 -0.29767302
0.115688436 -0.18154898 0.20248698 0.08957712 0.121021435 -0.13723132 -0.16960324 -0.2549792
0.09979481 -0.06464491 0.13660197 -0.015675627 -0.072537936 -0.21586318 -0.63696855 -0.16221623
0.29486442 -0.0061255163 0.51418054 0.3098425 -0.39600158 0.2837049 -0.2733643 0.14240262
-0.06905095 -0.3406341 -0.17772457 0.440337 0.13927072 0.18871851 0.26911274 -0.033776354
-0.6907921 -0.14459579 0.19077606 0.22040994 -0.08402628 -0.19248936 0.21779011 -0.0373404
-0.1979518 -0.08347817 -0.01877286 0.023700353 0.03918806 -0.29874015 -0.1588834 -0.1749401

model.8.bias f4 [2]
00000000: 9856 9d3e 5c3c 9dbe
0.30730128 -0.30710113
