models/12-21-2022_14-18-01__anova_binary_opt.model (torch, 737391 bytes, 10 tensors)

model.0.weight f4 [512, 20]
00000000: fe0e 3c3e e4ef 16bf 6a98 a63e ff6b 023f
00000010: 9d55 a53e 4028 9d3e 82f6 4c3e 4924 763e
00000020: 1881 b33e 76be fa3e 9eb8 dabe aaae ab3e
00000030: 6fea 7abe a356 233f 8c56 d73e c7e3 083f
00000040: aede dfbe 2eff 113f 5919 243f 2518 353e
00000050: 1978 c6be 07ae a33f 8059 cd3c a311 6e3e
00000060: f696 ccbe 97cc fbbe 7e7c 2cbf 7277 903d
00000070: 3747 2e3e f894 753e 4474 bbbe 4148 733e
00000080: 4ee7 053f efe3 a63e f99b 3f3e c710 c13e
00000090: 7411 0a3e ba18 a83e d36d 223f e224 b73e
000000a0: ae60 0a3c 45c8 543e 6fe3 aa3c 6a89 8b3e
000000b0: c7d7 413f 3f92 aebc 0208 633e bd54 823c
000000c0: 6f87 043f 45c5 293f fecc a4bd 53ba 2f3f
000000d0: aa88 d63e 5d67 113d 8455 243f 33c2 143f
000000e0: 7156 703e 8344 e23e f8ed 8f3f 107f de3e
000000f0: 2282 afbe 9855 b1bd 5258 d73e 4c81 aa3e
00000100: 5ad9 523e bb00 933c e405 febc 969c ef3c
00000110: a8c5 923e 953f 763e 1a55 12bf 3260 6d3e
00000120: 9529 773e 3741 303f 9087 173f 2802 1a3f
00000130: 195d bf3f 4a80 d43e 5b81 a13e 81d7 8c3e
00000140: 89d7 433f 5c28 da3e 66c7 0f3e 83ee 953c
00000150: ec84 973e 5809 cbbe b219 403d 582d f63c
00000160: 28a7 793e f6df 773f 6281 e7bc 987a c03d
00000170: 8b05 dd3d 42cb b73e e8d6 f13d b8af 1a3d
00000180: c1fa d93e 7d23 073e 03f4 a03f d6b0 f23e
00000190: ac59 0fbf caf9 c23e 62ad 4e3e d446 ab3e
000001a0: dede 163f e1b3 933e ba24 5f3d dafe cd3e
000001b0: 87c7 4e3e 1243 bd3e 5b06 eabb ece3 a43e
000001c0: 17af 173f 49ef 9e3d fafa 9f3e ef5d 863e
000001d0: 2811 813f 5a48 c43e 80d6 ca3f 4270 c43e
000001e0: 106e 6cbe 9a9f 8d3f 7243 4cbe 77d3 063e
000001f0: d297 ac3e b5fe 50bd 2d26 3a3e 6b58 38bf
00000200: 9ed1 953e 9b5f e43d 9641 01be c92a 0f3e
00000210: 3c5f c43d 5a7c 903e 0970 b23e 10f4 cf3e
00000220: 5a76 763e 6cd1 ac3e d7ac 3f3e c95d d23e
00000230: 5b77 6fbe 241a af3f 6f2b 19c0 7bf9 963e
00000240: e21a 133e 1fb5 03be 3822 8fbe 58d7 e8be
00000250: 5a24 d93b 6427 92bd 303f c4bd 6635 3a3e
00000260: 4c0c 913e cdad ae3d 90e7 103e f917 b9bc
00000270: 426a f5be 08d3 5a3d fc0b 9bbd 0176 223d
00000280: e86f cb3f 07bf 083f 9e38 6dbc b9d1 4b3f
00000290: 76db d53e 90c9 1e3e a846 8f3e ffb7 cb3e
000002a0: b2b1 263f 89bb 843f 0249 f0bc 85f4 203f
000002b0: 04a1 b33e e092 c1be 60b3 8c3e 457c c33e
000002c0: 3b38 9c3f 3bcc f13e 6245 163f 90ef 6e3f
000002d0: c8a7 1e40 97b7 d73d 0a27 e0bc 99bb 193f
000002e0: 0062 a43e 25c8 f93d c2a8 58bc 85d7 333f
000002f0: 4310 b83e b9f6 bd3e 41df aabe 5a04 613e
00000300: f1ba 583e ba22 b03d a0ce 593e 32f0 353e
00000310: 53ef 763f 7bf9 453e ba5e 943d 967a 973e
00000320: 2e91 5fbd beb7 b23f 3971 07be cc75 083d
00000330: a1f5 303f 1896 adbd d9bf bc3e 1414 5e3e
00000340: b88a be3e 55a6 de3e 486f 96be 39e3 ef3e
00000350: abf0 9c3e c8f9 e03e cd0c f73e cfa2 0c3f
00000360: 6d96 44be 4ef3 6b3e c908 c23e 7d9b 993e
00000370: 93a3 053f 8a6d 6f3f bfd5 7a3d 0e74 233e
00000380: f76d 3abe eeaf e43e bb61 2c3f d4f9 2abf
00000390: 66e6 883e ba72 6c3e 8999 3d3d 9ad4 8a3e
000003a0: 7438 0c3d d5b7 60bd ae4f f93e a859 dc3e
000003b0: c4fd febe 3939 8e3e a694 603e d784 a13e
000003c0: e64f d2bf c304 abbf fafa e43c 4a0a 813e
000003d0: 3152 cb3d 3ba5 e33e 83cc 513e 4755 e73d
000003e0: b549 233e 4038 0e3e 8180 46be cc95 9a3d
000003f0: ba9e 123e e5f7 7f3d 034b 6a3e 1242 213e
0.18365094 -0.58959794 0.32538158 0.5094604 0.3229188 0.3069477 0.2001591 0.24037279
0.35059428 0.48973435 -0.42718977 0.33531696 -0.24503492 0.6380407 0.42058218 0.5347256
-0.4372458 0.5703 0.6410118 0.17684992 -0.38763502 1.2787484 0.025067091 0.23248915
-0.39958924 -0.49179527 -0.6737746 0.070540324 0.17019354 0.23982608 -0.3661214 0.23758031
0.5230607 0.32595775 0.18711843 0.37708113 0.1348322 0.32831365 0.6344883 0.35770327
0.008445902 0.20779522 0.020860402 0.27253276 0.75719875 -0.02130997 0.22171023 0.015909547
0.51769155 0.66316634 -0.08046912 0.68643683 0.4190114 0.035498966 0.64192986 0.58108824
0.23470475 0.44192895 1.1244497 0.43456316 -0.3427897 -0.08658904 0.4205957 0.3330177
0.20590726 0.017944684 -0.031008668 0.02924947 0.28666425 0.24047692 -0.57161105 0.23181227
0.24136956 0.6884951 0.59191227 0.6015954 1.4950286 0.41504127 0.31544003 0.27508166
0.76500756 0.42608917 0.14040908 0.018302208 0.295936 -0.39655566 0.046899505 0.030050918
0.24380171 0.9682611 -0.028259937 0.09398383 0.10792073 0.3589726 0.11808568 0.037765235
0.42574123 0.13197131 1.2574466 0.4740054 -0.55996203 0.380812 0.20183328 0.33452475
0.5893382 0.28848174 0.054478385 0.402335 0.20193301 0.36965233 -0.007141871 0.3220514
0.5925154 0.07760484 0.31246167 0.2624354 1.0083361 0.3833645 1.584671 0.38366896
-0.2308886 1.1064332 -0.19947603 0.13166605 0.3370958 -0.051024158 0.18178625 -0.72009915
0.29261488 0.11151048 -0.12622675 0.13981165 0.09588477 0.28219873 0.348511 0.40615892
0.24068585 0.33753526 0.18718277 0.41087177 -0.23385374 1.3679852 -2.393276 0.29487213
0.14365724 -0.12862061 -0.27955794 -0.45476794 0.006626648 -0.071364194 -0.095823646 0.18184432
0.28329694 0.085292436 0.14150834 -0.022594439 -0.4793263 0.05342391 -0.07570645 0.03966332
1.5893526 0.53416485 -0.014478831 0.79616886 0.41768998 0.15506577 0.27983594 0.39788815
0.6511489 1.0369731 -0.029331688 0.6287311 0.35083783 -0.3780737 0.27480602 0.38180748
1.220466 0.47226128 0.5869962 0.93334293 2.4789906 0.10533064 -0.027362365 0.60051876
0.32106018 0.12196378 -0.013223829 0.7025073 0.35949907 0.37102297 -0.33373454 0.21974316
0.21165062 0.086003736 0.21270227 0.17767408 0.9645893 0.1933345 0.0724463 0.29585713
-0.054581814 1.3962324 -0.13226785 0.033315465 0.691248 -0.08475894 0.36865118 0.21687347
0.3721521 0.43486276 -0.29381776 0.46853045 0.30652365 0.43940568 0.48251954 0.54935926
-0.19198008 0.23042032 0.37897328 0.3000144 0.5220272 0.9352652 0.061239 0.1596224
-0.18206011 0.44665474 0.67336625 -0.6678746 0.2673828 0.2309064 0.046289 0.27115327
0.034233525 -0.054862816 0.48693603 0.43037152 -0.49802983 0.27778032 0.21931705 0.3154666
-1.6430633 -1.3360828 0.027951706 0.25203162 0.09927786 0.44461998 0.20488171 0.11295562
0.15946086 0.13888645 -0.19384958 0.07548103 0.14318362 0.06249227 0.22880177 0.1574786

model.0.bias f4 [512]
00000000: e978 11bf 71c0 39be 1d71 31bf 5d53 1cbf
00000010: 379c c2bd 5524 c0be 3937 c7be 15de babd
00000020: b4ab 97be c3de 83be b70a c5be 53f4 9bbe
00000030: dc1a 72be 4df7 3bbf 91b1 58be 5ced f7be
00000040: 2f18 a63b a289 193c 3d7b b0be 55eb 36be
00000050: 6093 0dbf 67f5 12be c001 8ebe 76f2 ecbe
00000060: 509e 67be 39a5 3dbe 6da0 febe 73d6 11be
00000070: c6d3 12bf 54fa d0be 3e28 2abf 7957 c0be
00000080: be04 4fbe 6c71 fbbe 1f46 dabe 9b6d 15bf
00000090: 5789 56be b291 f63d 32c3 8fbf d5ab 31bf
000000a0: e49c 16bf 5756 aabe 59a5 30be 2d8b 963e
000000b0: 59ed 22bf 7010 0cbf 9db9 24bf 773e 1dbf
000000c0: 89c8 13bf f451 0cbf 185a 19bf c3ad be3b
000000d0: c973 8fbe e5c0 b8be 4e4d 85be 9ad8 e4be
000000e0: 909d c3be 8ed5 f5bc cfc0 48be 6a89 35bf
000000f0: 2613 9cbe eb5a e3be 4647 11bf bedb c4bd
00000100: 468a eebe 5b64 943b 62b6 30bf 5926 1ebe
00000110: 9732 0cbf 3f67 b9be 379e 75bd d592 0abf
00000120: 94f5 4bbe 4cba 90be 90b6 98be 6a0b 853d
00000130: 8134 00bf e032 a4bd 95c1 a4be 96a5 f4bd
00000140: 53a8 fabd 0279 0bbf 9dea bfbe f0ca 3cbe
00000150: abc0 0fbf 5e37 c53d 60c6 37be 68ba a1be
00000160: 1f89 fcbd 99aa ccbe c99d 883e 79f9 95be
00000170: 8f9d 5fbe 5c53 dbbe 0cc5 b2be 63f1 bbbe
00000180: f16f 26bf 05e1 b4be c1a2 87be dca9 d5be
00000190: 8dc4 b9be 7683 d6be 5be8 72be 3f56 24bf
000001a0: 16e5 ebbe 385a 60bf 611d cbbe a156 0dbf
000001b0: cccc 5bbe 7e8b a4be 95a6 83be e8f5 22be
000001c0: 373e 08bf 360c 9fbe d64b dbbe 23e5 933e
000001d0: 5cf8 8abe 87d7 4bbe 9aa8 cdbe 2c15 35bf
000001e0: 991e 9abe 1259 e7be 3d3b 6f3e de2b c0bd
000001f0: 4ba3 57be e3bb 51bf 4c84 cd3d b652 68be
00000200: 784d 8ebe 0e50 0bbf f0e8 16bf abdb 42bf
00000210: 9654 a8be 0b3d 6cbf b4a1 34be dd8d 5c3e
00000220: 2fce 9fbe 1256 45be 6e4c 6abe 3f0b 77be
00000230: 52ec 36be d77a fbbe 07f2 9bbe e055 39bf
00000240: a5a4 8fbd cfba 97be 1623 0abf 0aee aabe
00000250: 21f7 0bbf 314d 6bbe 115c 24be c0f3 863e
00000260: 9641 afbe 867b 29bf 6bfc 8cbe 42e1 40bf
00000270: fc29 d8be 485e 96be a1e2 87be e9cd 34be
00000280: 3757 94be b991 ccbe 696f 45be 52eb 44be
00000290: 5e2f 09bf 7b4f bbbe 17dd f0be 2af6 02be
000002a0: 0946 eabe d65a d2be 6a61 85be 46ad 08bf
000002b0: ac2e 04bf 4055 38bf b507 dcbe 1bd4 48bf
000002c0: 8bca 93be 74a9 243e 6081 31bf 3214 d5be
000002d0: b5e5 09bf 1648 3cbe 4792 eebe fddd 91bc
000002e0: 4eea 3b3e eb6d b3be ef11 5bbe 7e20 e8bd
000002f0: e738 c9bd bf5f 92bd 5fbb babe c809 0dbf
00000300: 1baf ca3d 452f 04bf b6c3 50be 3e07 eabe
00000310: f44b ccbe 60ac ecbe 1941 78be e7bd a4be
00000320: 2640 c2be a86f aebe 1d04 3cbf 2139 cbbe
00000330: 694a b4be 0a4a b0be 36dc 52be f4c7 a2be
00000340: 0aea 25bf 4965 83be a806 f5be e633 ddbd
00000350: 5316 45bf 74c6 45bf 60dd 56bd b877 86be
00000360: b16e 6bbe da22 36be f8ec bbbd 469a d3be
00000370: 8368 81bd ebbe 1fbf e83b 44bf 2e57 64be
00000380: 04d9 c03e 6076 41bf 9141 afbe 4387 933e
00000390: 10bd 57bd 15a0 9dbd 2d20 14bd 5478 d0bc
000003a0: 255d 9fbd 4aff abbe e36c 64bf 6b1d d8be
000003b0: ec77 fabe 5a0a a8be 4b12 debe 04d6 06be
000003c0: 1de4 8abe 6e2b 5bbe 6b4a 72be 5142 7dbe
000003d0: 8450 28be 0c62 b2be 34a3 aebe a24a 97be
000003e0: b07a e73d f005 15bf 3f9c 46be 803a 25bf
000003f0: a3f9 42bf d14b 22be d45a c4be f1da 883c
-0.5682512 -0.18139817 -0.6931322 -0.610647 -0.09502452 -0.3752772 -0.3890932 -0.0912439
-0.29623187 -0.2575589 -0.38484737 -0.30459842 -0.23643059 -0.73424226 -0.21161486 -0.48423278
0.005068801 0.009371193 -0.34469023 -0.1786321 -0.55303 -0.14351426 -0.2773571 -0.46278733
-0.22618985 -0.18520059 -0.4973177 -0.14241962 -0.5735439 -0.40815985 -0.66467655 -0.37566736
-0.20216653 -0.49109972 -0.42631623 -0.5837037 -0.20950828 0.12039508 -1.1231444 -0.6940282
-0.58833146 -0.33268997 -0.17250575 0.29403058 -0.63643414 -0.5471258 -0.64345723 -0.6142344
-0.5772787 -0.5481255 -0.599031 0.005819054 -0.28018025 -0.36084667 -0.2603554 -0.44696504
-0.38206148 -0.030009057 -0.196048 -0.709128 -0.3048336 -0.44405302 -0.5674938 -0.09612225
-0.4658987 0.004528565 -0.69028294 -0.15444316 -0.54764694 -0.36211583 -0.05996534 -0.541303
-0.199179 -0.28267133 -0.29826784 0.06496318 -0.50080115 -0.08017516 -0.3217894 -0.119456455
-0.122391365 -0.5448152 -0.37483683 -0.1843679 -0.56153363 0.09629701 -0.17946768 -0.3158753
-0.12330841 -0.39973906 0.2668288 -0.29291895 -0.21837448 -0.42837036 -0.3491596 -0.367076
-0.6501456 -0.35327926 -0.2649136 -0.41731155 -0.3628277 -0.41897172 -0.23721449 -0.641941
-0.46073216 -0.8763766 -0.39670852 -0.5521031 -0.21464843 -0.32137674 -0.2571303 -0.15914118
-0.5321993 -0.31064004 -0.42831296 0.28885755 -0.27142608 -0.19906436 -0.40167695 -0.7073543
-0.3010147 -0.45185143 0.23362441 -0.09383367 -0.21058385 -0.8192732 0.10034999 -0.22687802
-0.2779348 -0.5441903 -0.58949184 -0.76116437 -0.32877034 -0.92280644 -0.1763981 0.21538492
-0.31211993 -0.19271114 -0.22880718 -0.24125384 -0.17863587 -0.49117157 -0.3045809 -0.7239666
-0.07013825 -0.2963471 -0.53959787 -0.33384734 -0.54673964 -0.22978665 -0.16050746 0.26357841
-0.34229726 -0.66204107 -0.2753633 -0.75343716 -0.42219532 -0.29368806 -0.26540092 -0.17656673
-0.2897279 -0.39954928 -0.19280781 -0.19230393 -0.535879 -0.36584076 -0.47043678 -0.12789217
-0.45756558 -0.41084927 -0.26050884 -0.53389394 -0.51633716 -0.7200508 -0.4297463 -0.7844865
-0.28865466 0.16080266 -0.69338036 -0.4161697 -0.5386613 -0.18386874 -0.46595976 -0.017806048
0.18351099 -0.35044798 -0.2139356 -0.113343224 -0.098253064 -0.07147168 -0.36471078 -0.5509305
0.0989668 -0.5163463 -0.20387158 -0.4570865 -0.39901698 -0.46225262 -0.24243583 -0.32176134
-0.37939566 -0.34069562 -0.73443776 -0.39692023 -0.3521302 -0.34431487 -0.20591816 -0.31793177
-0.6481024 -0.25663212 -0.4785664 -0.108009145 -0.7698719 -0.7725594 -0.052457213 -0.26263213
-0.22991444 -0.17786732 -0.091760576 -0.4132864 -0.06318762 -0.6240069 -0.7665391 -0.22298881
0.3766557 -0.7557125 -0.3422971 0.28814134 -0.05267054 -0.07696549 -0.036163498 -0.025448002
-0.07781438 -0.33593208 -0.8922865 -0.42209944 -0.48919618 -0.32820398 -0.4337333 -0.13167578
-0.27127162 -0.21403286 -0.236612 -0.24732329 -0.16436964 -0.3484043 -0.3410889 -0.29549128
0.11302698 -0.58212185 -0.1939554 -0.6454239 -0.76162165 -0.15849234 -0.38350546 0.016705962

model.2.weight f4 [256, 512]
00000000: 5ae7 edbc fd84 453f 8dec d83e 70b7 49bf
00000010: 25e5 a43f 5639 2dbf ccb0 163f 29ad 2b3f
00000020: 9515 253f c50f eebe 62ac 373f a66a aa3d
00000030: ec01 be3e 72bc 4b3f 8f25 9b3e 86de 87bc
00000040: 5fc5 a83e 8966 fd3e eb00 c7bd fb8c c9bc
00000050: 2407 03be 5537 d6be 0f72 3b3f 5bf9 7b3e
00000060: adf6 aabd 5928 6d3e 4872 b0be ffce b93e
00000070: 5ec9 35be 6327 083f a1d1 4ebe 0776 623e
00000080: b416 3b3f cc2d 053f 6102 063f 99f4 203f
00000090: 3623 243f 9d1a cbbe fc24 d53e 9f55 e2bd
000000a0: 2633 3f3f a00c 1d3e 104a 2d3c 18e8 ffbe
000000b0: c991 bf3d 5538 3f3e 6446 3c3d 898a 55be
000000c0: ce4c 6c3e 526a 403d 3f12 00be 8c2b db3d
000000d0: 3ecd 803e c096 313f ee05 1dbf 21f1 cabe
000000e0: 554d 873e b73d 1640 5a16 e3bd ee94 3f3e
000000f0: 9111 38be 418a 2abd 4f0e 393f 662b 843f
00000100: 3653 9a3e 9952 063e a7b9 6f3e 0487 20bf
00000110: 537a 903e 3c8a e63e 7ffc cbbd 0cc2 c3be
00000120: df2b 1bbf f52f 833c baf2 8dbe f558 153f
00000130: a684 f33e 44a7 6fbe 8ff9 babe 351d f43e
00000140: 05a7 ee3e 46c9 05bc 3552 8c3f ea3b f7be
00000150: 4477 c33e 763e a83d b06a 67be 484f a93d
00000160: 1e1e b7be 7d05 af3f 096e fc3e 4c38 7fbe
00000170: dfe0 85bd e7f5 753e 3622 4d3f 2da0 0e3e
00000180: 9b35 823e 12fe ddbe 9d56 d43e d046 be3e
00000190: 46aa 92be 956f 163f f121 cfbb 1fcb b23e
000001a0: ba89 c1be a6a8 6d3d 3871 3dbe 5ffe 8c3f
000001b0: 1b6e 7f3f 43e4 333f 8947 3dbe 7284 3f3e
000001c0: f229 a63e 7131 2abd 3607 a33d 1136 393c
000001d0: 7a48 0ebe 6527 87bf 0cdd f63e 4b81 dd3e
000001e0: d708 9b3e 8e30 32be 4ec4 80be bd6f 163e
000001f0: cf57 643c cf67 3bbe 96f7 a03e 028b a2bd
00000200: ba1a bb3f f065 58bc e805 3d3e 97d9 133e
00000210: 1cd9 8c3e d0e9 403f bc94 403f 26ca b83f
00000220: ebab 4d3f 151b 7c3f 96b5 f83e 6c67 0f3e
00000230: a99d 153f 7757 ca3e c0d3 513e 6081 53bd
00000240: b6e2 383f 1c3d 66be ce65 313e c032 8a3e
00000250: 75b1 d33e a9ed 5b3e 02ce 87bd f16a 473f
00000260: 0c98 8c3f 7ade 9b3d 7167 293e 0d04 903b
00000270: 9063 e03d 3f3e 263e 4048 70bf 1750 6c3e
00000280: 959c 373e bac1 443e 9d56 f4bd 719e dbbe
00000290: 2c60 423d 18fe 5e3e 07a6 33bf f7d5 0abf
000002a0: be03 d23e 6ef9 1b3f 081e 8d3f 4c19 173d
000002b0: 2a65 333f 8ac3 783e 4161 38be 98cb a03c
000002c0: e59c b23e 9075 063e 036b ecbd 40c5 4d3f
000002d0: 698e 38bd 9f68 3c3f c9aa 233d d884 69be
000002e0: ab4d b6bc eeb4 5abf 714d 97be 2fc5 8f3e
000002f0: e22a 813e d212 083f 23ac 6c3c e30a 99be
00000300: 2ff4 243f ddf5 64bf b6d4 173f 9802 b13c
00000310: dd5e ac3e 5564 cc3e 8e17 b33e ae68 8cbf
00000320: 73e7 d13e 6622 a43e 8aa8 b23e ec79 653e
00000330: bb7d 99bf d775 b33d bfe4 953c 2681 7c3e
00000340: 8380 01be 89a8 123e a805 9b3e 9bcf 1e3f
00000350: 31c8 e4be 25a4 ce3e 80ab 61bf 5134 cabf
00000360: e73f 593e 5922 fb3f a926 0abf 5f16 1ebf
00000370: 52ef d03e 3d53 4d3f 39dc 92be 5ddc a33e
00000380: e48c 583f 6e0e 78bc 5740 bbbe 642e 2ebf
00000390: 073e 733f e131 643e 030a 553f c4ce f23e
000003a0: 34cc 4c3c c11d 30bf ad39 33be be24 79be
000003b0: b9e4 e3be 89d1 863f 70e2 32bf 3ab5 4dbf
000003c0: b809 25bd efd0 28be 7752 723f 10c9 103f
000003d0: 418d d83e 8b33 3a3f 3e68 b03e fb6c a5bf
000003e0: 083b 563e c529 403c 006d 5dbf 2e5d 983e
000003f0: c070 1c3f a9cc e13e 72e1 9ebe eae9 f03e
-0.029040981 0.7715605 0.42367974 -0.7879553 1.2882429 -0.6766561 0.5886352 0.67061096
0.64486057 -0.46496406 0.7174741 0.08321123 0.3711084 0.7958442 0.30302092 -0.0165856
0.32963082 0.4949229 -0.09716972 -0.024603358 -0.12795693 -0.4183909 0.73220915 0.2460684
-0.08347831 0.23159923 -0.3446219 0.36290738 -0.17752597 0.531851 -0.20197155 0.22115336
0.7308152 0.52023005 0.5234738 0.62873226 0.6411623 -0.39668742 0.4162978 -0.11051487
0.7468742 0.15336847 0.01057674 -0.4998176 0.09353978 0.18673833 0.045965567 -0.20853628
0.23076174 0.046976395 -0.1250696 0.10701665 0.25156587 0.6937065 -0.61337173 -0.39637092
0.26426187 2.3475168 -0.110882476 0.18709156 -0.17975451 -0.041635755 0.7228746 1.0325744
0.3014161 0.13117446 0.23410664 -0.6270602 0.28218326 0.4502734 -0.09960269 -0.38233984
-0.60613817 0.016014079 -0.27724248 0.5833886 0.4756214 -0.2340365 -0.36518523 0.47678533
0.466118 -0.008165663 1.0962588 -0.48287898 0.3817693 0.082150385 -0.22599292 0.08267075
-0.35765165 1.367355 0.493027 -0.2492382 -0.065370314 0.24019586 0.80130327 0.1392829
0.25431523 -0.43357903 0.4147233 0.371634 -0.28645533 0.5876401 -0.006321185 0.34920594
-0.3780039 0.058022164 -0.18500221 1.1015128 0.9977738 0.70270175 -0.1848432 0.18702868
0.32453877 -0.041551057 0.0796036 0.011304394 -0.13894835 -1.0558897 0.4821552 0.43262705
0.30280182 -0.17401335 -0.2514977 0.14691062 0.013936951 -0.18301319 0.31438893 -0.0793667
1.4617531 -0.013207898 0.18459284 0.14438473 0.2750939 0.7535677 0.7522695 1.4436691
0.8034045 0.98478824 0.4857604 0.14004296 0.58443695 0.39519855 0.20490932 -0.051637053
0.72220933 -0.22484249 0.17323992 0.26991844 0.41346326 0.21477379 -0.0663109 0.77897555
1.0983901 0.076107934 0.16543366 0.004395014 0.1095649 0.16234683 -0.93860245 0.23077427
0.17930825 0.19214526 -0.11930583 -0.4289432 0.047454998 0.21776617 -0.7017521 -0.54232734
0.4101848 0.60927474 1.102479 0.03688936 0.7007624 0.24293342 -0.1800585 0.019628331
0.34885326 0.13130784 -0.11543848 0.80379105 -0.045057688 0.7359714 0.039957795 -0.22804582
-0.022253832 -0.85432327 -0.2955127 0.28080127 0.2522803 0.5315372 0.0144453375 -0.29891118
0.64435095 -0.8943766 0.59308946 0.021607682 0.33666125 0.39920297 0.34978908 -1.0969446
0.40996894 0.32057494 0.3489421 0.22409791 -1.1991495 0.087627105 0.018297551 0.24658641
-0.1264668 0.14322104 0.30277753 0.6203553 -0.44683984 0.40359607 -0.88152313 -1.5797216
0.21215783 1.9619857 -0.5396524 -0.61752886 0.40807587 0.80205137 -0.28683642 0.3200406
0.8458998 -0.015140159 -0.36572525 -0.68039536 0.9501652 0.22284652 0.832184 0.47423375
0.012499858 -0.687954 -0.1750247 -0.24330422 -0.4451044 1.0532695 -0.69876766 -0.80354655
-0.04029247 -0.16485952 0.9465708 0.565568 0.42295268 0.727349 0.3445453 -1.2923883
0.20920956 0.011728709 -0.86494446 0.2975859 0.6110954 0.44101456 -0.31031376 0.47053462

model.2.bias f4 [256]
00000000: 338c b9bd 5326 debd 70f7 52bf 09ff 9fbd
00000010: 984b 7bbe 529c 4c3e 1f4f 08bf a7b6 513f
00000020: 0368 5cbf f73e edbe 4fa8 56bd 2ffd afbd
00000030: 27e0 a43d 4936 ccbe 80a7 d4be 9130 2dbf
00000040: dda6 22bd e4d7 40bf 094d bcbe a4d6 78be
00000050: 852c ecbe 029f 98be c83d d0bd f835 f53e
00000060: 2ca8 80bd d22a a1bd 6b83 b8be 3f3e 6cbd
00000070: 1ba2 4bbd 4087 d9bd 8731 c23e d071 8abd
00000080: eca2 d7be eb09 8c3e 189e 37be 6b60 a7be
00000090: ea88 cebe 584e ccbd 16f5 b23d 5726 85bd
000000a0: 2a04 ddbe ddfa 41bf b850 96bf 3ad7 bebf
000000b0: e717 a5bd 833b 9abd cbb6 38be 4bba adbd
000000c0: ae5d 43bd 8d4e e8bc a4fe 8fbd 0438 bfbe
000000d0: 65fb 28bf bd43 c73d 7cf6 7abe 8991 1dbf
000000e0: a6e9 61be 462d a1be 95f2 c9be 89a0 dfbe
000000f0: 0630 a1bd 501a b03e b331 09bf b780 82bd
00000100: 1373 343d c022 a5bf 3060 02bf e3a2 9bbe
00000110: dbcf f6be e847 38bf e3a5 03bf a6fb 8abd
00000120: ecb5 79bd e48e cdbe a974 debe 0d79 63be
00000130: 8d19 80bf 065d 69bf 6f31 aabe 3d51 36bf
00000140: 04c0 eabe 5738 f2be 7399 83bf 05af 18bf
00000150: 666a 49be 7d61 2dbe a099 56bf baa4 863d
00000160: f2f8 0dbe 3e8a bebd 2ffa 84bf 3b5d dabe
00000170: f9b4 f7bd efd4 a43e 5f65 04be 70ff c2bf
00000180: fcde 70bf bb2d 36be 760d 7a3e 962b e4be
00000190: 6d7a 18bf a510 71bf 9563 d0bd eaa7 633f
000001a0: 74a8 d4be f1e5 f6bd 0b44 1ebe 1ff3 84bf
000001b0: 3bef 46bf e6d5 10bf 9ab6 4abe 9dba 7cbe
000001c0: b1c5 823e 27e2 b1be 6378 17bd 425e 27bf
000001d0: 96c9 3dbf 875b 4fbe 34bf 3ebf aef7 38bd
000001e0: 4784 88bd fea1 98be 6bf7 55bf e433 c2be
000001f0: 8406 69bd 90d4 28be cf9a 2cbe dcbf 80bd
00000200: ebd4 2abe 6311 e5bd 8838 c9be d011 42be
00000210: 81ad 893e 6ab6 efbd fa8f b7be 1911 90bd
00000220: 1543 74be 7409 d3be f199 b8be d210 57bd
00000230: 4882 24bf 3121 1bbf 61f3 a3be cb0a dbbb
00000240: ece3 88bf 38e5 e5be 1e7d cbbe ae01 22bf
00000250: 386d fe3e 0946 f63d 92a1 4cbf 4819 12bf
00000260: 8813 48bf 9be1 d3bd 3a56 953d f6fa f6bd
00000270: ab8c b2be 3458 1ebf 7840 e6bc 517e 53bf
00000280: be85 dfbe e73c 0abf 666d 4dbe 1380 13be
00000290: 324b e7bd 029a 76bf c917 45bf 72bd 5fbd
000002a0: 0706 56bf 7324 873d f8e5 32be 8718 debd
000002b0: 9a8c 59bd 0a8a 8dbf 2cbb 9ebf f404 04bf
000002c0: 5f79 5abf db4e 533d 9685 f33d 4d25 23bf
000002d0: 2b47 9cbf 0433 0bbf 0083 b5bd 2394 cb3d
000002e0: d3d5 2dbf b610 123e 2a8a 9ebd ea38 1cbd
000002f0: ce8e ebbe 548e 35be 8e62 0fbe 2ce0 38bd
00000300: 20ae 97be da17 89bd 06b7 c9bd 9fed 82bd
00000310: 03dc 4bbf 8e0c b5be a05f 49bf 3d30 fcbc
00000320: 05e2 52bf c455 96bd 92cb 083c 7574 0cbe
00000330: b5c8 bcbd b666 9e3d 2d02 05bf 7461 9abe
00000340: edcb 033e 1252 eebe 7a89 c1bd 2674 f2be
00000350: 06df 5bbd 5c8a 34bf 8614 c7be dcff 0d3f
00000360: 65e8 83bf 181c 25be 4002 00bf 9e92 88bf
00000370: 5d7d 81be 72cf 503d 00d4 d2be 67c5 25bf
00000380: acfd 1bbf 10c2 27bf 3603 e0bd 9f27 3abe
00000390: 3802 8e3d 9e4e 563d 819e 8ebe d1cb 503d
000003a0: 6e7c 46be 7e40 aebc db62 5cbf bc4e d5bf
000003b0: 4dd1 1b3f d938 47bf f1a0 72bf c24f 89be
000003c0: f54a 25bf 3746 393c 12b4 0dbe ba1d fbbe
000003d0: 9597 74bf c3c6 bf3e 6076 49bf ed9e c4be
000003e0: 42f7 31bf efaf 81bf 734f 44bd dee8 52bf
000003f0: c5bd d8be 7988 2bbf e575 16bf 4f75 02bf
-0.09059944 -0.108471535 -0.8240881 -0.07812316 -0.24540555 0.19981506 -0.5324573 0.8191933
-0.8609621 -0.463371 -0.052406605 -0.08593213 0.08050566 -0.39885166 -0.41534042 -0.6765223
-0.039709914 -0.7532942 -0.36777523 -0.24300629 -0.46127716 -0.29808813 -0.10168034 0.47892737
-0.06282076 -0.078694955 -0.36037764 -0.05767655 -0.049715143 -0.106215 0.3792841 -0.06759989
-0.42116487 0.27351317 -0.17931402 -0.3269075 -0.40338832 -0.099758804 0.08738153 -0.06501453
-0.4316724 -0.7577341 -1.1743383 -1.4909432 -0.080612 -0.07530882 -0.1803848 -0.08482798
-0.04769676 -0.028357768 -0.07030991 -0.37347424 -0.660086 0.09729717 -0.24508089 -0.61550194
-0.22061786 -0.31479853 -0.39442888 -0.43677166 -0.07870488 0.34395075 -0.5359146 -0.06372207
0.044055056 -1.290123 -0.5092802 -0.3039771 -0.48205456 -0.7198472 -0.51425 -0.067862794
-0.06096451 -0.4014808 -0.4344838 -0.22214146 -1.0007797 -0.9115757 -0.3324084 -0.7121771
-0.4584962 -0.4730861 -1.0281204 -0.5964206 -0.19669494 -0.1693172 -0.83828163 0.06574388
-0.13864496 -0.09303711 -1.038885 -0.42649254 -0.12095065 0.32193705 -0.12929295 -1.5234203
-0.9409025 -0.17790882 0.24419197 -0.44564503 -0.59561807 -0.9416602 -0.10175244 0.8892809
-0.4153477 -0.120555766 -0.15455644 -1.0386695 -0.77708787 -0.56576383 -0.1979622 -0.24680562
0.25541452 -0.34742853 -0.036980044 -0.653782 -0.7413572 -0.20249759 -0.745105 -0.04515808
-0.06665855 -0.2981109 -0.83580655 -0.37930214 -0.05689098 -0.16487336 -0.1685593 -0.06286594
-0.16682784 -0.11184957 -0.39300942 -0.18952107 0.26890185 -0.117047146 -0.35852033 -0.07034511
-0.23853715 -0.4121815 -0.36054948 -0.052506275 -0.64261293 -0.6059752 -0.3202162 -0.006684636
-1.0694556 -0.44901443 -0.39743894 -0.63283813 0.49692702 0.12025077 -0.79934037 -0.57069826
-0.781548 -0.10345765 0.07291837 -0.12059586 -0.34872946 -0.6185334 -0.028106913 -0.8261462
-0.43656725 -0.5399918 -0.20061263 -0.14404325 -0.11293639 -0.9632875 -0.7698942 -0.05462403
-0.83602947 0.06598749 -0.17470539 -0.10844522 -0.053112604 -1.1057751 -1.240087 -0.5157006
-0.8534145 0.051588874 0.11890714 -0.6372879 -1.2209219 -0.5437472 -0.08862877 0.09940364
-0.67904395 0.14264187 -0.077411965 -0.038140215 -0.4600739 -0.17730075 -0.1400244 -0.045135662
-0.29625034 -0.066940024 -0.09849362 -0.06392979 -0.79632586 -0.3536114 -0.7866154 -0.03078472
-0.8237613 -0.07340577 0.008349316 -0.137163 -0.09217969 0.07734434 -0.51956445 -0.30152476
0.1287076 -0.4654699 -0.0945005 -0.4735424 -0.05367949 -0.7052362 -0.38882846 0.55468535
-1.0305296 -0.16123998 -0.50003433 -1.0669744 -0.25290957 0.050979085 -0.41177368 -0.6475434
-0.6093395 -0.6553049 -0.109381124 -0.18179177 0.06934017 0.05232107 -0.27855304 0.050975624
-0.19383404 -0.021270987 -0.8608834 -1.6664653 0.6086624 -0.7782112 -0.9477683 -0.26818663
-0.645675 0.011308244 -0.13838223 -0.49046117 -0.95543796 0.3745633 -0.7869625 -0.384025
-0.6951791 -1.0131816 -0.04792733 -0.8238658 -0.42332283 -0.67005116 -0.5877364 -0.5096025

model.4.weight f4 [128, 256]
00000000: 9cc1 623e f679 c33e 1241 f0be fffb 65bd
00000010: d1be 3cbc 5d85 123b 3304 9abd 4ce2 943f
00000020: 1daf 36bf fb47 19bf 9869 213d a8cd a6bf
00000030: 34a0 b93f bcb8 03be a6d7 16bf 3d18 45bf
00000040: 765d 333d 9e3f 8ebf aca7 bd3b ce6f 633e
00000050: 9c77 b2be af66 0a3e 01c2 233c bc46 413f
00000060: 8af5 333d a9c8 b83d 028a 77be 0e26 b73d
00000070: 5f11 1b3d 16ac 073e b60e 883e fb1e b6bd
00000080: 0c13 393f 87a6 8ebd d620 dbbd eda9 a3be
00000090: 6596 dbbe 9c67 c8be 677c 10be e401 0c3e
000000a0: f54d 0bc0 9cb3 ab3d 7ccd 1bbf b73d 07bf
000000b0: 62eb 813f 0de7 37bd 5b79 0cbd dad3 69bd
000000c0: abaa 5cbd fd3d f53e a120 203d 6ec7 5ebf
000000d0: 5690 a8bd 6efe b43e 46ba ab3e 148b 58be
000000e0: a710 ddbf 4c32 c6be a0ef 673e 1ff2 76be
000000f0: 85b8 47be 02a1 883e 5edf 98bf d239 c23d
00000100: 76dc 5d3e 1a78 423d 1d20 703d c884 eabf
00000110: c959 60bf 6571 a5bf 9e96 6abf 260d 343c
00000120: 7e26 953d 4b63 d7bb d887 22be b90e d2be
00000130: 52d3 92be 3077 46be 1202 a2bf 5b3e 1dbf
00000140: c2b8 eabe d7ad c8bf 8966 43bf c33c f1be
00000150: a92d 40bf 0853 263d 858e 2dbf 8285 a93e
00000160: ae99 e7bd f18e 9ebe 52f7 0fbf 58d5 b9be
00000170: 3cae b83f 9d93 5d3e 7cab 9c3e f42e 07bf
00000180: d22a d2be 57ea 48bf f60c 373e e854 633f
00000190: 4e37 4fbc 9c15 c2be 0da8 a43d 9ada 883f
000001a0: 562a c9bf 6ae8 973b 1635 d3bc 0a76 7bbf
000001b0: eb56 cdbe 8132 953d 0fd3 abbe 512c 933e
000001c0: a756 723f 2ecd 60be ac34 863d 4bfd 0f3f
000001d0: 931b 8fbf 5d63 6dbd 764a f6be 1e59 433c
000001e0: 0683 87bd 5713 c23e 7245 cebf c5f7 d73e
000001f0: 3257 e43d 2102 56bd 7420 52bf ca76 f93d
00000200: 68c4 673d bed4 2b3e 8c9d acbd ec99 0f3e
00000210: 18a2 663e ae71 4dbd 83a0 17bf 7b64 e1bd
00000220: 1e55 273f 49ec 6abe 8749 46bf 2e4a 4dbd
00000230: eece 6bbf f658 f5be 2a55 b1bd d9fc 3ebe
00000240: 17ab 3bbe d71d 1f3f b76d 56bf 47fe 94bf
00000250: f58c e63e f1d8 c7bd e931 bfbe e38c e93e
00000260: bf00 8cbf 80d1 073d 743a 153f bf38 c33c
00000270: 5cd7 24be 65c1 8bbe 67f6 b43d 8862 88bf
00000280: 7681 b9be eed5 23be 0dcc 133e 49ab 2f3d
00000290: 1903 f73d 1429 fbbf e10a 9abf 0a60 ee3a
000002a0: e8ba a2bf aa0f 453f 1bd8 823d 90a9 51bf
000002b0: e451 08bd 9369 a5bf 62d8 43bf f5b5 41bf
000002c0: 5bd7 703e 00ed 57be 8c02 e53e 29a4 d8be
000002d0: 8dff a7bf 24d9 83be 055c 033d 01b0 893e
000002e0: 3fde 433e 8e36 4cbe b098 47bc b80e 033d
000002f0: 9765 30bf c66e d83c 4600 8b3d bfee a6bc
00000300: 92fe cebd 892d 543c 058a 6a3d dbdc 6b3d
00000310: d69a a93e 2b4e 62be fd32 62bf c106 c0bc
00000320: 0c2c 9cbf e669 d03b ca9a 1cbf dd30 d93d
00000330: 661f ec3d b801 973d 3dbc 8dbf c5f3 83be
00000340: e37e 39be 6d13 00bc b7e7 053b cf2d b1be
00000350: e71d 82bf 52cf 373f feab bfbf 082e 413f
00000360: 170f 26bf 261e 9d3c b601 623c b77e a8bf
00000370: 1a53 ddbd da28 5c3e 38a8 843c 7605 26bf
00000380: 259e 903e 3849 3ebf d938 9d3d 236e 09bf
00000390: c65a 86bf 4ef3 5ebe d132 3c3d 92ad 93bd
000003a0: 745a 7c3d 6f21 3fbe 6257 dfbe cede 03bf
000003b0: 43a3 5b3e 07c8 2fbf 2733 dfbe 060f 18bf
000003c0: f4e5 773e 3486 db3e c2f8 b7bd 27c6 02c0
000003d0: 9273 0dbf 77f2 743f 0e4c 37bf ff53 1d3f
000003e0: 5bbb 05bf 1862 71be 043d 923c 8468 30bf
000003f0: faf8 cbbe 2e74 0dbf be48 a6be 5307 ab3c
0.22144169 0.38178986 -0.46924645 -0.056148525 -0.011520104 0.0022357323 -0.07520332 1.163156
-0.7136095 -0.5987546 0.039407343 -1.3031511 1.4502015 -0.1286344 -0.58922803 -0.7699011
0.043790303 -1.1113164 0.0057878103 0.22210619 -0.3485688 0.13515733 0.009994985 0.7549856
0.043935336 0.09022648 -0.2417374 0.08942805 0.037858363 0.1324924 0.26573724 -0.08892628
0.7229469 -0.06965356 -0.10699622 -0.3196558 -0.4288818 -0.39141548 -0.14109956 0.13672596
-2.1766331 0.08383867 -0.6086042 -0.52828544 1.0149958 -0.04489808 -0.03429542 -0.057086803
-0.0538737 0.47898856 0.039093617 -0.87023056 -0.08230655 0.35350364 0.33540553 -0.21146804
-1.7270707 -0.38710248 0.22650003 -0.241158 -0.19503982 0.2668534 -1.1943166 0.094836846
0.2166613 0.04747782 0.058624376 -1.8321772 -0.87637 -1.292523 -0.91636074 0.010989463
0.072827324 -0.006573116 -0.15872133 -0.41026857 -0.2867685 -0.19381404 -1.2656882 -0.6142327
-0.45844084 -1.5678052 -0.7632833 -0.4711667 -0.7506967 0.04060653 -0.6779559 0.3310967
-0.11308609 -0.3096843 -0.56236756 -0.3629558 1.4428172 0.21638341 0.30599582 -0.5280602
-0.41048294 -0.78482574 0.17876038 0.8880143 -0.012647463 -0.37907112 0.08039866 1.0691712
-1.5716045 0.00463586 -0.02578215 -0.9822699 -0.40105376 0.072850235 -0.33559462 0.28744748
0.9466347 -0.2195327 0.06553015 0.5624587 -1.118029 -0.05795609 -0.48103684 0.011923103
-0.066167876 0.3790538 -1.6114943 0.4218122 0.11149444 -0.052248124 -0.8208077 0.1218086
0.056583792 0.16780373 -0.08428487 0.1402356 0.22522771 -0.05015724 -0.59229296 -0.11005493
0.65364254 -0.22941698 -0.77455944 -0.05011957 -0.92112625 -0.47919434 -0.08658822 -0.18651141
-0.18326984 0.62154907 -0.8376116 -1.1640099 0.45029417 -0.09758175 -0.37342766 0.456153
-1.0937728 0.03315878 0.5829232 0.02383077 -0.16097778 -0.27295986 0.0883606 -1.0655069
-0.36231583 -0.15999576 0.14433308 0.04288796 0.12061138 -1.9621911 -1.203457 0.0018186581
-1.2713289 0.76977026 0.06388875 -0.81899357 -0.033281222 -1.2922844 -0.7650205 -0.7566827
0.23519652 -0.21086502 0.44728506 -0.42312744 -1.3124863 -0.25751603 0.03207018 0.26892093
0.19127749 -0.19942686 -0.0121824 0.03199646 -0.68905014 0.026420008 0.067871615 -0.020377515
-0.10107149 0.01295031 0.057260532 0.05758367 0.33125943 -0.22100131 -0.8835905 -0.02344072
-1.2200942 0.0063602803 -0.6117369 0.10605023 0.11529426 0.07373375 -1.1073071 -0.2577192
-0.1811481 -0.0078171315 0.0020432302 -0.34605262 -1.0165375 0.7180072 -1.4974363 0.75460863
-0.64866775 0.019179415 0.013794353 -1.316367 -0.10806866 0.21499959 0.016193494 -0.6485208
0.28245655 -0.7433047 0.076768585 -0.5368368 -1.0496452 -0.21772501 0.0459469 -0.0721084
0.0616097 -0.18665098 -0.43621355 -0.5151185 0.21448998 -0.6866459 -0.43593714 -0.59397924
0.24208814 0.42875826 -0.08982994 -2.0433443 -0.5525447 0.9568247 -0.71600425 0.6145629
-0.52239007 -0.23572576 0.01785136 -0.6890948 -0.39838392 -0.552554 -0.32477373 0.020877516

model.4.bias f4 [128]
00000000: 14bf b33e 9e02 6d3e 1798 9f3d ee88 033f
00000010: aa88 5fbf 0a03 03bf 21c3 bf3e bc27 d1bd
00000020: b982 20be 1790 82be fa77 0cbe c170 653e
00000030: ca8a 32bf d088 1abf f5ae fbbe 7a03 ca3e
00000040: d19a 0b3e 66d1 dcbe a04c 813e e638 a6be
00000050: f31f 8fbe b01b 593f 1345 d33e d5f4 f0be
00000060: 21ec 9dbe 267a b4be a76f 60bd 484b f6be
00000070: 9e35 3e3d 7d40 c8be be99 6e3f b2d9 4b3e
00000080: b1f6 42bf b133 41bf 35c0 83be 7204 e1be
00000090: 6926 a5be 66ab d13e 9975 4ebd 7bcf 213f
000000a0: c5a5 163f d18f 0b3f 3c66 1f3f bbf3 b4be
000000b0: 0dbb 8b3e dcdb 4cbf b232 d4bd e132 a1be
000000c0: 4295 13bf afe4 f6bd 94bf 73bf 6630 d8be
000000d0: 74d0 dbbe e523 1c3f 4931 20bf 9680 383e
000000e0: 21c7 9d3f d9ed 143f 0813 823f 09cf 55bf
000000f0: d819 44bf c289 e43d 1478 ecbe 06a0 e6be
00000100: f912 95be 33ce 84bc 7e19 e3bd 7ccf 37bf
00000110: 65d6 b43e e192 ebbe 9dff 20be 5b09 00bf
00000120: fd5c 8f3e 9485 d43e e0f6 163f 7025 39be
00000130: a7b9 8e3e da15 d8be 1614 c03e 1b2c 4a3f
00000140: 5077 193f 607f be3e 2e6b 66bf b3c4 e03b
00000150: 691d 97be a611 163e aead ad3e 588a 153f
00000160: fab6 05bd 02ce 243f 9768 bf3e 0bc4 d13e
00000170: 14cb e7be 32c8 763e 684a 1f3f 8727 86be
00000180: 7622 04bf bbf2 dfbe a438 ba3e 9823 2ebf
00000190: 8409 b7be 5985 ae3d 9a5e 803e b438 003f
000001a0: ba7a 083e 82ef ffbd 9f10 a83e 3767 a1be
000001b0: 7f22 673f 4b7c a03e 43e1 ab3e cfcd 3b3e
000001c0: d6a6 b03e 4789 b63e 0acd 64bf 1e72 53be
000001d0: e0a4 df3e 5379 10bf 8618 d3be acc4 bfbe
000001e0: ee5a 2e3e 1db1 58be 4d67 b2b8 5d9a 3dbd
000001f0: 4e2f 643e 0c3a 45be 6329 dcbe ba6f 39bf
0.3510672 0.2314553 0.07792681 0.51380813 -0.8731791 -0.5117651 0.3745356 -0.10212657
-0.15674867 -0.25500557 -0.13717642 0.22406293 -0.69743025 -0.6036501 -0.4915692 0.39455777
0.13633277 -0.43128508 0.25253773 -0.32465285 -0.27954063 0.8480787 0.41263637 -0.47061792
-0.30844215 -0.35249442 -0.05479398 -0.4810431 0.046437852 -0.391117 0.9320334 0.19907263
-0.7615767 -0.754695 -0.2573258 -0.43948704 -0.32255867 0.4095108 -0.05040512 0.63207215
0.58846694 0.5451632 0.6226537 -0.35342202 0.27291146 -0.8002298 -0.10361232 -0.3148413
-0.57649624 -0.12055337 -0.952142 -0.42224425 -0.42932475 0.6099227 -0.62575203 0.18017802
1.2326394 0.58175427 1.0162058 -0.83519036 -0.76601934 0.11159088 -0.46185362 -0.45043963
-0.29116037 -0.016211605 -0.110888466 -0.7180097 0.3531982 -0.46010497 -0.15722509 -0.50014275
0.28000632 0.41508162 0.5897045 -0.18080688 0.27876016 -0.4220417 0.37515324 0.7897355
0.5994768 0.37206554 -0.90007293 0.006859386 -0.29514626 0.1465517 0.3392157 0.5841422
-0.032645203 0.6437684 0.37384483 0.4096988 -0.45272124 0.24099806 0.6222291 -0.26202032
-0.51615083 -0.43739876 0.36371338 -0.6802306 -0.35749447 0.08521528 0.25072175 0.5008652
0.13328066 -0.12496854 0.3282518 -0.3152406 0.9028701 0.31344828 0.335703 0.18340228
0.34502286 0.3565161 -0.89375365 -0.20649001 0.43680477 -0.56435126 -0.41229647 -0.37454736
0.17026874 -0.21161313 -8.506943e-05 -0.04628979 0.2228367 -0.19260424 -0.43000326 -0.72436106

model.6.weight f4 [64, 128]
00000000: 8ea6 d3be 1b6b 573f 8a2c 753f 9673 efbe
00000010: 4637 8abd f19a 1d3f 2599 11bf 3980 003f
00000020: 3968 d9be 7957 343e 24b5 9bbf 6411 103f
00000030: 87ef 49be cd97 313e c353 a1be 50a6 e73e
00000040: 37d5 58bf d57e ab3e 329b 01bf ef45 563f
00000050: 2e83 453e 74bd ad3c cdef 7fbe 4599 dcbe
00000060: bedb 873e 10b5 213f af83 51be 34db 813f
00000070: 31a1 003f a59a 7a3e fa10 8abf dddf 9c3c
00000080: 5a78 203f 812b a93e f50c dbbd 6c21 e73e
00000090: c332 ba3e 0c48 f53d a586 9b3e 2c5e 1b3e
000000a0: fce2 07bf 3952 be3e cd7c 01bf 6452 9f3e
000000b0: d612 b7bd 285d f0be d7a2 633f 57dd 273f
000000c0: 28a7 063f de1e 8dbf 1e4b 853d 9488 733d
000000d0: f365 443e 4ef8 21be cbf8 553d 5804 a8bd
000000e0: 5e34 4abd 3805 d13c deef 2bbf b41f 2ebd
000000f0: 2b4b f43c 0b58 fbbd 9bad 80bf 5690 ec3e
00000100: d11c 4fbc bdda 97be 8dbd 9ebe b0cb af3e
00000110: 1e37 693e 9bdd 103e a8b4 9d3e 271f f33d
00000120: 22e5 50be f161 3ebe fbb7 64be ce7f 8e3e
00000130: b925 6e3e 3332 28be aaef e2bd b506 d0bd
00000140: 1f6f bc3a becf 2dbf 3f63 35be 8c0e 87be
00000150: 4911 793f 7d74 b7be a3c1 aebd c3b9 ccbe
00000160: 57c6 1fbf b931 8dbe 3948 e9bc aced ac3e
00000170: 15bf bd3e 3aa8 72be b0c5 87be f19f 0c3f
00000180: ce91 e73e 1494 3b3e f97f a7be 2cd4 f9bd
00000190: 5bf9 8d3e d63e 783e e954 04bf 4ac4 e8bd
000001a0: ead6 87bf 187b fb3e 5a84 a9be 2c74 33bd
000001b0: 9266 e6be 930f 963d eea7 17be 1248 eabe
000001c0: 7052 36bf 670e 00bf 7e11 913f 2744 713e
000001d0: 0caf d4be 83db 553e b919 703f 671a 58be
000001e0: e76d 0f3f a5c4 c6be 746e 88be e2af 78be
000001f0: b173 d5be cd70 933f d770 c3be c11b b1bd
00000200: 4a8d c03e da35 b9be 5ea4 113e a1ef 613d
00000210: 4d95 4c3f bc10 1a3d 625d 44be da35 a73e
00000220: 7135 0ebf 7256 99be 79b7 263f 7154 e93e
00000230: a91a fc3e b252 7abe e0a1 383e b958 b5be
00000240: 51d5 a83d 3cab 483d 60a5 713f e958 ae3d
00000250: 7683 593e 12da 363f ad05 21bf 14bf d43e
00000260: cef4 0b3f d9bf 18be ea45 5e3e 3f70 273f
00000270: 4d32 78be 0c9a 8a3e 0d5a babf 41b5 d43e
00000280: 2840 9a3e 45c4 f1be 2835 5bbe d328 143e
00000290: 5b89 7d3e 6f75 b8be 96e7 efbe 9fca 62be
000002a0: 8731 82be 5bf8 7cbf 0982 513e e31a 8c3e
000002b0: 7e3e 19bf fcca 38be 8f1d 323e c339 7b3e
000002c0: 782b 5b3f 9f8e 173f 7fd4 28bf 45ca 02bd
000002d0: 62c3 1c3f 9e0e 24be 4b2a fe3e e5b5 f2bd
000002e0: bff3 0f3d 2483 613b 45b3 5bbf 5a14 eebe
000002f0: 88ef af3d 4716 1dbf fb90 95be e94e bf3d
00000300: d642 513f af5d d2be 1130 f93d b53f a5be
00000310: ee84 31bd 6a6d 993f e49f cb3c 629c a4bc
00000320: 193b a03d ed25 04bf 5766 34bf ae5e 193f
00000330: aa73 563c b2d1 d5be edec 28bf f279 223e
00000340: 4ced 21be 38b5 d1bd 4c0e 433f 26e6 45bf
00000350: 7df2 3f3d 6e71 403e 66f3 9c3e f79d 02bf
00000360: f046 413f e454 69bc 495e 873e b4a9 423e
00000370: 8002 613e a804 4c3f 5835 44bf 0b17 163f
00000380: df92 e33d 21b5 b4bd dd8b 77bf d417 37bf
00000390: 72ed ddbe 5416 173f f172 e13e 1551 693e
000003a0: c352 a5be a0f0 6e3e f876 fdbd 05af 3c3e
000003b0: 8dce a4bd 5882 fdbe 5a76 2a3f 773c 0f3e
000003c0: 3376 253e 9171 f23e edb5 ea3e 2679 b9bc
000003d0: 0428 c93e e896 04bd b2c7 6abe 4d7a 3abe
000003e0: b09c 70bd 103f 993e 86e2 803e e395 47bf
000003f0: 9b77 9fbf 5427 66bf 71bc 1f3f 5328 9c3f
-0.4133801 0.84147805 0.95771086 -0.46767873 -0.06748824 0.61564547 -0.56874305 0.5019565
-0.42462328 0.17611493 -1.2164655 0.56276536 -0.19720279 0.17343064 -0.31509218 0.45244074
-0.8470034 0.33495203 -0.50627434 0.8370046 0.19288322 0.021208502 -0.2499382 -0.43085685
0.26534837 0.63166904 -0.2046039 1.014502 0.5024596 0.24473055 -1.0786431 0.019149715
0.6268364 0.33041003 -0.10695831 0.45142686 0.36366853 0.119766325 0.30376163 0.15172642
-0.53080726 0.37172106 -0.50581056 0.31117547 -0.089391395 -0.46946073 0.8892035 0.6557211
0.5259881 -1.1025045 0.06508468 0.059456423 0.19179516 -0.15817377 0.05223922 -0.082039535
-0.049366347 0.025515184 -0.67162883 -0.042510703 0.029821 -0.12272652 -1.005298 0.4620387
-0.012641148 -0.29659072 -0.3100399 0.3433509 0.22774932 0.14147036 0.30801892 0.11871176
-0.20399907 -0.18592049 -0.22335808 0.27831882 0.23256578 -0.164254 -0.110808685 -0.10157529
0.0014376378 -0.67895114 -0.1771364 -0.26378286 0.97292 -0.3583106 -0.08533027 -0.39985475
-0.6241202 -0.27576998 -0.028476821 0.3377508 0.37059847 -0.23696986 -0.2651801 0.5493155
0.45228428 0.18318206 -0.32714823 -0.12198672 0.27729306 0.2424272 -0.5169206 -0.11365564
-1.0612462 0.4911735 -0.3310879 -0.043811962 -0.4500013 0.07327189 -0.14810154 -0.4575811
-0.7121954 -0.50021976 1.1333463 0.23561154 -0.415398 0.20884518 0.9378925 -0.21103822
0.5602707 -0.38821903 -0.2664677 -0.24285844 -0.41689828 1.1518799 -0.38172027 -0.08647872
0.37607795 -0.36173898 0.14222857 0.05516017 0.79915315 0.037613615 -0.19176248 0.32658273
-0.55550295 -0.29948765 0.6512371 0.45572236 0.4923909 -0.24445608 0.180305 -0.35419253
0.08243812 0.048991427 0.9439297 0.08513052 0.21241555 0.714265 -0.62899286 0.4155203
0.5467042 -0.14916934 0.21706358 0.6540565 -0.24237938 0.27070653 -1.4558731 0.41544536
0.30127072 -0.47220054 -0.21406996 0.14468698 0.24759428 -0.36027095 -0.46856374 -0.22147606
-0.2542841 -0.9881646 0.2045976 0.27364263 -0.5986098 -0.18046182 0.17394088 0.24533753
0.85613203 0.59202 -0.65949243 -0.03193118 0.6123563 -0.16021201 0.49641642 -0.118511
0.035144564 0.0034410441 -0.8582042 -0.46499902 0.08590609 -0.6136212 -0.29212174 0.09341223
0.8174261 -0.410871 0.12167371 -0.32275167 -0.043339662 1.1986516 0.024856515 -0.0200941
0.07823772 -0.5162037 -0.7046866 0.59910095 0.0130891 -0.41761547 -0.6598652 0.15866831
-0.15813178 -0.10239643 0.7619369 -0.77304304 0.046862114 0.1879327 0.30654448 -0.51022285
0.7549887 -0.014241431 0.2643912 0.19010049 0.2197361 0.79694605 -0.76643896 0.5862891
0.11111998 -0.0882361 -0.9669779 -0.71520734 -0.4334522 0.59018445 0.44033006 0.22784837
-0.32289705 0.23333979 -0.12376207 0.1842614 -0.08047209 -0.49513507 0.6658684 0.1398791
0.1615837 0.4735227 0.45841923 -0.022640776 0.39288342 -0.032370478 -0.2292774 -0.18210717
-0.05874318 0.29930925 0.25172824 -0.77963084 -1.2458376 -0.8990376 0.62396914 1.2199806

model.6.bias f4 [64]
00000000: a2ee 503e e918 f1bd ebe0 d2bd 290f 7abd
00000010: dd9e 603f bfa1 b63e 0e4b 3fbd f413 283e
00000020: a868 f1be 8eba 883e 764d 3f3d 6fc6 453f
00000030: 2439 cd3c bb4e 773f 3323 8bbe 6975 743e
00000040: 7912 43be 093a 9c3e 8fbd 113f e8e0 cdbd
00000050: e658 37bf a0d6 ec3e 4956 b7be d7d0 1bbe
00000060: e783 cabe 9bf5 9a3e 8e4b 9b3e 0532 113f
00000070: 2717 6c3d 6e8d 013f 0676 a73e 0aad d6bd
00000080: 38cb 993f f94f df3d daa7 073f 708d 9ebe
00000090: a5a5 2f3f 9077 3fbe b312 a5be 8ee8 573e
000000a0: 959c bcbd dc7c 9f3d 41cf f1be 3a3c cc3e
000000b0: 2e79 b4be 2c25 a03e 8de0 bd3e 5929 9a3e
000000c0: 7a84 11bf 8be1 4dbe 4ae8 39be b679 0f3e
000000d0: da29 123f 57b5 0abe f1fd 15bf a14d 0e3d
000000e0: 6d99 a3bd 5ccd e73b e156 f63e 2239 8abf
000000f0: 6eee d13e 1b7f b6bc 7445 d9be fe8a 72bd
0.20403531 -0.11772329 -0.10296806 -0.061049614 0.87742406 0.35670277 -0.046702437 0.16413862
-0.4715016 0.2670483 0.046704732 0.7725591 0.02505166 0.9660451 -0.27175292 0.23872913
-0.19050016 0.30513027 0.5692987 -0.10052663 -0.71620023 0.46257496 -0.35808018 -0.15216385
-0.39553759 0.30265507 0.3033108 0.5671695 0.057639267 0.5060643 0.32707232 -0.10482223
1.2015142 0.109039254 0.52990496 -0.30967283 0.6861213 -0.18697953 -0.3224083 0.21084806
-0.09209553 0.07787487 -0.47228435 0.398897 -0.35248703 0.3127836 0.3708538 0.3010967
-0.5684277 -0.20105569 -0.18155017 0.14011273 0.5709511 -0.13545738 -0.5859061 0.034742
-0.07988248 0.0070740413 0.48113158 -1.0798686 0.4100222 -0.022277405 -0.424358 -0.059214585

model.8.weight f4 [2, 64]
00000000: 2247 cf3d a0ad 623e fa8a 04bd a1ae babd
00000010: 1ba1 babd bbe3 f5be e096 38be 7fd7 0a3e
00000020: bbff d3bd 5271 e33d 54fd 9cbc d85b bb3e
00000030: 098d 5e3d 19d2 2cbe c8b7 183f f37a 5dbe
00000040: 5bee b73e 7831 9d3c f2de babe 0fe5 5f3d
00000050: cdfb 9bbd 9d29 ea3d 5d30 7c3e a42f 273e
00000060: 3ca4 333e 2909 be3d 70fe 4d3e 69a3 2abe
00000070: f42c 2f3d af41 b7bd a1aa 523e 048d 98bd
00000080: 9014 903e 9466 39be 0e87 b73d fffc 3a3e
00000090: 588b 73bd c181 43bf ab7a 2cbe 2cf5 023e
000000a0: 589b fcbd 3beb e83c 7a83 b7be ebfc 48bf
000000b0: b0d5 72bd 3c17 03bd 1cee a8bd 57a1 2f3e
000000c0: 3635 173e fa23 c73d b198 abbe 3aa7 cdbd
000000d0: 81ca 63be c54d d93b 3dc4 a53c 4c82 ff3d
000000e0: d03d 1c3e 1fa6 16be 59cd 3d3e 5bd3 37bf
000000f0: 1a96 713d 1f6f 543e ca3c 47be 217f 0dbe
00000100: 6b9a b23e f71a 2abe 30ec a33e 98e3 493e
00000110: 7c64 523c 9781 e43d 1959 01be 4100 543e
00000120: a536 4f3e 27bb 403e a772 05be 17d8 d1bd
00000130: 2d5e 14be f322 783e b6f2 65be 65f9 c93d
00000140: 5f95 fa3c 918d 8f3d cbbe 3c3e 212d 7b3e
00000150: 8775 b3be d8ea 243d c506 30be d2c8 053e
00000160: 6282 0a3e e8a2 973e c0f9 4dbd 21a0 623d
00000170: 4a0f 8a3e bb90 473e 1aa3 0ebd 8478 a0be
00000180: 2b3f 9cbe f31e 9e3e af6c 83be 7a05 363d
00000190: 7a23 903d 1695 193f ae2e c23d b6c5 ed3d
000001a0: 8ff4 94be a916 79bd 9801 903e fa19 eb3e
000001b0: 72fd b13e 99ce 3d3e 6baf c83e de8b 073e
000001c0: 3144 1b3e 6c6a fdbe 37af d83c ecec c73c
000001d0: 2dd9 b93d 3694 923e b1c2 8ebd 56e7 cc3c
000001e0: c32c 4e3e 3429 263f 522f da3a 355b 393f
000001f0: 574e 45bd 4322 07bd f9a3 8fbd e019 b53e
0.101209894 0.22136545 -0.0323591 -0.09115339 -0.0911276 -0.48025307 -0.18026304 0.13558768
-0.10351511 0.111055985 -0.019163765 0.3659351 0.05433372 -0.16877021 0.5965543 -0.21628933
0.35924038 0.019188628 -0.3649822 0.054661807 -0.076163866 0.11433718 0.24627824 0.16326767
0.17543119 0.09279091 0.20116591 -0.16663899 0.04276748 -0.08948075 0.20572902 -0.074487716
0.28140688 -0.18105537 0.089613065 0.18260573 -0.05945906 -0.76369864 -0.16843669 0.12788838
-0.12334317 0.02843248 -0.35842496 -0.7851092 -0.05928582 -0.03200458 -0.08248541 0.1715139
0.14766392 0.09723659 -0.33514932 -0.100416616 -0.22245218 0.0066315853 0.020235175 0.12476024
0.15257955 -0.14711808 0.18535365 -0.7180688 0.05898104 0.20745514 -0.19456783 -0.13818027
0.34883437 -0.16611849 0.32016134 0.19715726 0.01284134 0.1115753 -0.12631644 0.20703222
0.20235689 0.18821393 -0.13032018 -0.10246294 -0.1448905 0.24232082 -0.22455868 0.09862021
0.030588804 0.070094235 0.18432157 0.24528934 -0.35050604 0.040263027 -0.17190082 0.13064888
0.135263 0.29616475 -0.05028701 0.055328492 0.2696479 0.19488804 -0.034823515 -0.31341946
-0.30516943 0.30882987 -0.25668857 0.044438817 0.070380166 0.5999311 0.0948156 0.11609976
-0.29092833 -0.060812626 0.28126216 0.45918256 0.34763676 0.18535842 0.39196333 0.13236949
0.15162732 -0.49495256 0.026450736 0.024404965 0.09074626 0.286287 -0.06970728 0.025012653
0.20134263 0.6490662 0.0016646183 0.72404796 -0.048170414 -0.03299166 -0.07013697 0.35371304

model.8.bias f4 [2]
00000000: 608f d83f d088 d8bf
1.6918755 -1.6916752
