models/12-29-2022_18-50-04__multi_opt_sched.model (torch, 836259 bytes, 10 tensors)

model.0.weight f4 [512, 67]
00000000: 5c97 babe 9fb8 0cbe 4d4d 32bd b1ec cbbe
00000010: 1873 dfbc 0849 b63e 763b 8dbc 5ebf 583d
00000020: 408f fabc 7447 5c3c 06d7 973e 88f5 a23d
00000030: b0a6 813e 66ef d23e 746c 913d 146c d13d
00000040: cf67 743e 2807 063e cb8d f53c 1250 213d
00000050: 660e 31be f803 ef3c 3098 013e 2bf5 163e
00000060: 331c b0bd ca21 fc3d f548 593e ad20 6b3e
00000070: e2f6 2e3e a06c 03bc 2685 0c3e 8e28 c1bd
00000080: d069 b8be 1547 e73d 41e8 e03d 3c92 8a3d
00000090: f6b0 66bc 5c6b a8bd 2273 9b3e f453 153e
000000a0: ce55 cb3e 1e4a 653e 2713 cb3e ecbe 22be
000000b0: b409 2cb9 8cc7 cd3e 97c7 39be 2f76 5fbc
000000c0: abb6 883e 605a 6b3d cb65 7c3d c749 233e
000000d0: 9d0e 71be 31ab 9f3e efb3 c23e b873 9a3d
000000e0: e033 293d a14b 9a3c cf3d f1bd 938b a13d
000000f0: ef81 00be ee29 29be ef31 62bc ada7 92be
00000100: e497 b3bc 7c7a a23d 25d6 373f dab2 1cbe
00000110: 1c25 593f cb65 84bd eb71 8d3c a048 83bd
00000120: 8d96 633f 0537 ec3d 388f 3d3e a8ea 543d
00000130: e13d 393e 8d0f c23e d83e eb3e aa48 093e
00000140: 232a 243e b3ec a53d 13de 093d dff6 1a3e
00000150: 92fc d33c daf6 bd3d 8eaa 123e 7ebc 573f
00000160: b58b c53d 0c48 68bd 0b41 593d 7667 403d
00000170: 32bb 6f3e 65e9 933d 940f db37 fcc4 8e3d
00000180: eb69 54bb da33 0f3f 2b23 b9b8 5c33 52bf
00000190: acbc bd3d 5b9b b83d 0d27 483d 2487 243e
000001a0: 7778 6d3c fcf8 32bd e3cd bf3e 54b2 403d
000001b0: be1e 243f 3049 9bbc 67dd f2bd b743 fcbd
000001c0: 0455 a53e 7810 703e 1641 143d 0f2c 4e3e
000001d0: e8c6 ea3c f59f 043c a1fa 233d 7c94 23be
000001e0: c1ae 673f 5a2e 04bc 1963 f03e dacf 21be
000001f0: b290 8abe 55f7 1a3c 2e44 673e feba b23d
00000200: f69a b2bd 4e49 4d3d 4b59 883d 67a5 593e
00000210: f863 c93d 79d8 01bf 3f79 6ebf 0676 c93d
00000220: 8545 9dbc b847 203e 570e c93d e4b9 4b3f
00000230: 2b04 8abd fcca 9dbd eeba 12be 1639 053e
00000240: 5fe2 073f 8e64 75bd ffe4 3e3e 34c0 ed3e
00000250: 4584 acbc f238 ed3d 3678 70be fc9a 38be
00000260: e945 203e c8b0 723e e8de 503e 2e30 febd
00000270: 8549 a53d bb3c 373d c0e0 1f3e 684b 3b3e
00000280: 7f71 fbbd 200f 15be b8f8 5b3d 53df 173d
00000290: a242 f03e 4620 d1bd df79 26bf 5070 80bb
000002a0: 3609 0abe e409 9cbd 901b 043e 1b2e 9dba
000002b0: 5116 4f3d 81ac eb3e 2bd6 d5ba e4a5 e83e
000002c0: f672 dfbd 33a8 9f3e fb32 ef3d bc75 833d
000002d0: 8436 2abb c2a2 fabc 49b5 b13e 47a7 debd
000002e0: e5e9 28bd 9762 96bc d003 503e c596 483f
000002f0: 5b03 153f a325 023e ad18 44bd c767 303c
00000300: ed25 8a3b 9032 013e 92fc f7bc c868 cf3c
00000310: d4de 923d 18a0 223e 0100 a5bb 1c51 56bd
00000320: 19da 49bf 7ce6 a9bf 0143 393e 170c e9bd
00000330: c642 1c3d d0ee 73be 1f43 a13f 5362 9dbd
00000340: 9ccd 16be 372a 64bc f572 363e ad7a de3e
00000350: 67c5 703e a1f5 9a3e 00b9 733e 319f 8e3e
00000360: e033 f1bd 900b a3be 0067 46bd 62ca 263d
00000370: ecea e73d 1c89 bf3e 0038 26be 024d ee3d
00000380: 7d31 283e 49c7 853c 585a 743e 3644 1bbd
00000390: 74ec 1bbe 4e3a aa3c f58d 033d 3955 4b3f
000003a0: 7e8e 49be 52e6 6dbf d8e3 27be feb9 35bf
000003b0: 074b b43a c2ba 153d 851e 523d 3b81 a2bd
000003c0: b7c1 fe3e ff2f 44bd 858e 2f3f 7e6c ebbe
000003d0: f264 21bd 4c1b 21be 9c6e 2f3d a9cd 883d
000003e0: 8c1f 11be 61f5 3c3e 229d 2fbe fefb 6bbe
000003f0: e58f 23be 688a 193e 3aea a93f 07f7 8c3f
-0.36443603 -0.13742302 -0.04353075 -0.3982902 -0.02727656 0.35602593 -0.017240267 0.052916877
-0.030585885 0.01344477 0.29656237 0.079569876 0.25322485 0.41198272 0.07100764 0.102256924
0.23867725 0.13088667 0.029974839 0.039383 -0.17290649 0.029176697 0.12655711 0.14741962
-0.085991286 0.12311132 0.21219237 0.22961684 0.17086366 -0.008021504 0.13722667 -0.09431563
-0.3601823 0.11292855 0.10981799 0.06766173 -0.014080277 -0.08223602 0.30361277 0.14582807
0.397139 0.22391555 0.3966305 -0.15893143 -0.00016406813 0.40191305 -0.18142544 -0.013639017
0.26701865 0.057459235 0.061620515 0.15946113 -0.23540731 0.31185296 0.38027903 0.07541603
0.041309237 0.01883489 -0.11779367 0.0788795 -0.12549566 -0.16519901 -0.01380585 -0.2864355
-0.021923013 0.07933518 0.71811134 -0.15302601 0.8482225 -0.06464728 0.017266234 -0.064103365
0.889016 0.11533932 0.18511665 0.0519816 0.18090011 0.3790249 0.45946383 0.13406625
0.16031699 0.081017874 0.033659052 0.15133236 0.02587727 0.09275599 0.14322874 0.8427199
0.096457876 -0.056709334 0.053040545 0.046973668 0.23411253 0.07222251 2.6114089e-05 0.069711655
-0.0032411765 0.55938494 -8.828038e-05 -0.8210962 0.09264502 0.09014007 0.048865367 0.16067177
0.014494053 -0.04369448 0.37461767 0.047045067 0.6410941 -0.018955797 -0.118586354 -0.12317603
0.32291424 0.23443782 0.036194883 0.20133995 0.028659299 0.008094777 0.04003394 -0.15974611
0.9050103 -0.008067692 0.46950606 -0.15801945 -0.2706352 0.009458383 0.22584602 0.08727072
-0.08720963 0.050118737 0.06657656 0.21254502 0.09833521 -0.50720936 -0.93153757 0.09836964
-0.019198189 0.15652359 0.09817188 0.7958052 -0.06739076 -0.07704732 -0.1432912 0.13010058
0.5307979 -0.05991035 0.18642043 0.46435702 -0.021059165 0.11583127 -0.23483357 -0.18027872
0.15651669 0.23700249 0.20397532 -0.12411533 0.08070663 0.04473565 0.15613079 0.18290484
-0.12277507 -0.14556551 0.053703994 0.037078213 0.46925837 -0.10211234 -0.6502971 -0.0039196387
-0.13480076 -0.07619074 0.1290114 -0.001199189 0.050558392 0.46030048 -0.0016314437 0.45439065
-0.10910599 0.31183013 0.11679646 0.064189404 -0.0025972435 -0.030595187 0.34708622 -0.10871749
-0.041238684 -0.018357558 0.20313954 0.78355056 0.58208245 0.1270967 -0.047875095 0.01076693
0.004215947 0.12616944 -0.030271802 0.025318518 0.07171407 0.15881383 -0.005035401 -0.052323446
-0.78848416 -1.3273463 0.18091966 -0.11379259 0.038149618 -0.23821568 1.2598609 -0.076847695
-0.14726871 -0.01392608 0.1781729 0.4345297 0.23512803 0.30265525 0.2380104 0.27855828
-0.117774725 -0.3184476 -0.048438072 0.04072035 0.11324105 0.37409294 -0.162323 0.11635782
0.16425128 0.016330378 0.23862588 -0.037906848 -0.15226918 0.020779755 0.032117803 0.79426914
-0.19683263 -0.92929566 -0.16395509 -0.70986927 0.001375527 0.03655506 0.051298637 -0.07934805
0.49757168 -0.047897335 0.6857684 -0.4598121 -0.03940291 -0.15733069 0.042830095 0.066798516
-0.1417219 0.1845298 -0.17149785 -0.23045346 -0.1597286 0.14994204 1.3274605 1.1012887

model.0.bias f4 [512]
00000000: 98bf 01bf 3196 3abf 12c5 50bf c9d3 72bf
00000010: d2a7 67bd 58fc c8be 4975 10bf 27ba ffbe
00000020: c17b 7e3e 6b15 8ebb c670 2dbe 66f1 52be
00000030: ea76 f4be fa71 24bf a6ef 05bf af80 34bf
00000040: e24e 1dbf ad10 47be f280 823e 3822 e93c
00000050: aeb2 1bbf bcb7 10bf bd4c 20bf 9949 16bf
00000060: ad4b 20bf d6e0 04bf 74e4 25bf cfe7 5abf
00000070: 6315 a7bf c1f9 7fbf 77f6 d5be 2d6b f4be
00000080: ebb8 8fbf 9572 cabe f815 49be 1ceb 91be
00000090: b323 8cbe a208 7cbf 4a02 07bf 97a9 3bbf
000000a0: 2b08 13bf 3b7f d4be 6696 3cbf 9c69 7abf
000000b0: 048d 30bf 8867 78be 3fc5 4fbf 3ef8 cfbe
000000c0: c4fd 9dbe 2e10 16be 3d26 04bf 362e babe
000000d0: 1ebb 2ebe 3c84 ecbe 8c71 d8be ea30 c3bc
000000e0: 5f43 963e e6d9 19bf a990 2bbf d7a7 09bf
000000f0: 9c91 6bbf 8a90 15bf e1e2 82bf e139 13bf
00000100: b160 023e e578 17bf 4ba7 06bf bcf3 13bf
00000110: 9627 2bbd 9bb8 4abf 1ec3 76bf 8e01 8abf
00000120: af03 0abf 8747 59bf 3229 97bf ddd4 3bbd
00000130: 912a f3be dc7e 25bf 0ac2 00bf 8bb2 e1bd
00000140: de6e 61be cb6b f9be 438b d2be 5dcf 84bf
00000150: 9e7d 47be 5cab 06bf 9eb0 39be ff2d ebbe
00000160: 87a2 bfbe 4adf 30bf 54c5 07bf d9b9 b0be
00000170: db7b 4bbf 634a 04bf fc44 26bf a19b e7be
00000180: 858e 5abe 299c 31be fba5 33bf a688 5cbf
00000190: eda4 edbe 38ef 17bf 2ade c3be aae3 2fbf
000001a0: 7561 edbe ce2f 04bf d90f 5dbe c0f1 4bbf
000001b0: 5d4a e9be 1b80 67bf 7a9d d9be c8f2 67bf
000001c0: eaca 40bf 8f44 44be 50ee 06bf 61a1 d8bd
000001d0: aaaa d7be 09f6 59bd e57a 31bf 93b8 6abc
000001e0: 3532 0cbf 9e93 8bbe c7f0 00bf 24d2 83bf
000001f0: ea4c 57bf b11f 6dbe 082e e5be 97c7 febe
00000200: 3bd1 4dbe 8096 39be 6c28 efbe 655d 00bf
00000210: 5ec3 04bf d736 8cbe 433a 25bf 5662 3dbf
00000220: b961 2fbf 0a8b 2fbf cafd 903d e2d5 16bf
00000230: 3845 03bf ffcd 08bf 597e 5abe 4851 2bbf
00000240: 4f5a 26bf 267d 4cbe 0355 e8be e5a7 78bf
00000250: c598 54bf 9237 27be ef13 d3be c8b5 8dbe
00000260: 4f10 12bf 5a49 cabe a8f8 01bf 70a1 86bf
00000270: b32e eebe fac3 59bf 9e51 f6be 3911 a93c
00000280: 14fd 14bf 622c 17bf 2464 4dbe a0f3 38bf
00000290: 8d77 18bf ae4a 5bbe 3220 2dbf a542 51bf
000002a0: 83ae 45bf 41ed 5ebe dc68 3dbf 1de0 01bf
000002b0: 2c59 20bf 659a 193e 5482 7f3c d30f 07bf
000002c0: 8c5b c8be e7ac d8be fa4c 57bf e9ef f9be
000002d0: f27b b6be 33c4 f7be adec 5abf eb3c d5be
000002e0: 50e6 b7be e983 8fbf 6182 b4be 065e 333e
000002f0: 2e72 a8be 6be3 2ebf f66f dcbe ae2e 46bd
00000300: 27e6 0abf 7aee 1bbf bcef 2dbf 4c26 4fbe
00000310: 92f5 7a3e c69b b4be 5990 fdbd 2722 823d
00000320: 7a79 e7be 6ef3 87be b2b2 f6be 52d8 25bf
00000330: 65a0 9abe 98ef 80be a8bd 33bf 5557 a6be
00000340: b233 c2be 78c4 11bf 8fdc 50bf 279f 16bf
00000350: 4aa3 7abf d1b5 08be 2619 f6be 0c28 b1be
00000360: 69a0 efbe a4f3 17bf f9d5 06bf 2351 06bf
00000370: 74ff 74bf c4e6 29bf b697 31be a5b7 e4be
00000380: 6c11 19bf 8493 30bf 3d21 c8be 876f 78bf
00000390: 4d9d e7be 5087 67bf 7e70 22bf 3186 8dbe
000003a0: 5a1e fd3d 0466 77bf 1e51 873d 994f fcbe
000003b0: 0037 ffbe 73d4 f4bd 543f 00bf c049 cfbe
000003c0: f4e1 38be bde7 fabe cdab 0ebe 8220 cdbe
000003d0: 6a0d e2be 358d 48be dec1 03be e31b 03bf
000003e0: f36b d6be 6353 21bf 6fb6 47bf 199d 3cbf
000003f0: b27c 7ebe d298 0bbc c71b 4e3d 5b6d 4cbf
-0.50682974 -0.72885424 -0.81550705 -0.9485441 -0.05655653 -0.39255023 -0.5642896 -0.4994671
0.24851896 -0.0043360493 -0.16937551 -0.20599899 -0.47746974 -0.64236414 -0.523188 -0.70508856
-0.6144849 -0.19439955 0.25489002 0.0284587 -0.6081952 -0.56530356 -0.62617093 -0.5870605
-0.6261547 -0.5190557 -0.64801717 -0.8550996 -1.3053402 -0.9999047 -0.417896 -0.4773802
-1.1228307 -0.39540544 -0.19637287 -0.28499687 -0.27370986 -0.9845067 -0.5273787 -0.7330565
-0.5743434 -0.4150332 -0.7366699 -0.978174 -0.6896517 -0.24258244 -0.8116035 -0.4061908
-0.3085767 -0.1465461 -0.51620847 -0.3636338 -0.17063567 -0.46194637 -0.4227413 -0.023827035
0.29348275 -0.6009811 -0.6701761 -0.5377173 -0.9201906 -0.58423674 -1.0225488 -0.5751019
0.12732197 -0.59168845 -0.5259902 -0.57793784 -0.0417858 -0.79187936 -0.96391475 -1.0781724
-0.5391187 -0.8487477 -1.1809447 -0.0458573 -0.47493413 -0.646467 -0.5029608 -0.110203825
-0.22014949 -0.48715052 -0.41121873 -1.0375782 -0.19481513 -0.52605224 -0.1813378 -0.4593353
-0.37428686 -0.6909071 -0.53035474 -0.3451679 -0.79485863 -0.51676005 -0.6494901 -0.45235923
-0.2134343 -0.17344727 -0.7017514 -0.8614601 -0.4641489 -0.59349394 -0.38255435 -0.6870676
-0.46363416 -0.51635444 -0.21588077 -0.79665756 -0.45564547 -0.9042985 -0.42502958 -0.9060483
-0.7530962 -0.19166778 -0.52707386 -0.105776556 -0.42122394 -0.053213153 -0.6932815 -0.0143262325
-0.5476411 -0.2726106 -0.503674 -1.0298505 -0.84101737 -0.2315662 -0.44761682 -0.4976165
-0.20099346 -0.18123817 -0.46710527 -0.5014251 -0.51860607 -0.2738559 -0.64542025 -0.73978174
-0.6850849 -0.6857153 0.070796564 -0.5892011 -0.51277494 -0.53439325 -0.2133726 -0.669209
-0.6498155 -0.19969615 -0.4537736 -0.97131187 -0.8304561 -0.16329792 -0.41226146 -0.2767775
-0.57056135 -0.39509088 -0.50770044 -1.0518017 -0.46520004 -0.8506466 -0.48109144 0.020638095
-0.58198667 -0.590521 -0.20057732 -0.7224674 -0.5955742 -0.21415207 -0.6762725 -0.81742316
-0.7721941 -0.21770193 -0.7398813 -0.50732595 -0.62636065 0.15000303 0.0155950375 -0.5275852
-0.39132345 -0.42319414 -0.8410183 -0.4881585 -0.35641438 -0.48391876 -0.8551739 -0.4164804
-0.35917902 -1.1212131 -0.3525572 0.17516336 -0.32899612 -0.6831576 -0.4305417 -0.04838436
-0.54257435 -0.6091076 -0.6794393 -0.20229453 0.2450774 -0.35275096 -0.12381048 0.0635417
-0.45209867 -0.2655291 -0.4818321 -0.64783204 -0.30200496 -0.25182796 -0.7021127 -0.32488504
-0.37930065 -0.5694041 -0.81586546 -0.588366 -0.9790541 -0.13350607 -0.48066062 -0.34600866
-0.4680207 -0.5935614 -0.52670246 -0.52467555 -0.9570229 -0.66367745 -0.1734303 -0.4467136
-0.5979221 -0.6897509 -0.3908786 -0.9704518 -0.45237198 -0.90440845 -0.634529 -0.27641442
0.12359305 -0.9664004 0.06607269 -0.49279478 -0.4984665 -0.11954584 -0.5009663 -0.40485954
-0.18054944 -0.49004927 -0.13932724 -0.40063864 -0.4415086 -0.19585116 -0.12866923 -0.51214427
-0.41879234 -0.63017863 -0.78012747 -0.7367721 -0.24852255 -0.008520322 0.05031946 -0.79854363

model.2.weight f4 [256, 512]
00000000: 6f3d 4d3d ac28 e93c 20ee 84bd d369 0bbe
00000010: 6393 e7be 96e6 df3e 69aa f43e a392 313e
00000020: 2822 b6bd 2a05 313f 7dff a5be 2912 943d
00000030: 3a3f 0cbf 23f6 b6bc 0383 a83e ab08 aa3d
00000040: 6301 533e c360 8bbc 3cd2 13bd 7aab e1be
00000050: f898 0bbe 4871 87be 8cf4 d53e eddb 253e
00000060: daba 223e 0aec acbd fb9a b1bd 834b 03be
00000070: 3533 dc3d 0fc6 39be 0883 b33e f99d 543e
00000080: b5b1 bf3c 3d9b c4bd cc40 44be 20dc a1bd
00000090: 2a34 453e 6d1a f03d d733 0bbe abbe 21be
000000a0: 2d3a 27bd 421d 9ebd ae7e 193e 913c 7e3e
000000b0: cbf2 073e 3913 633e 0202 0d3e a0ce f4be
000000c0: 2576 e53c f843 82be 58d9 26bf 3461 4abe
000000d0: 4131 a9be 1ae2 db3e 0d60 aa3d bd90 823e
000000e0: 555d de3c d8d2 b23e 55b2 be3e ee43 a23d
000000f0: fc31 853d 8180 e73d 4ee6 c7bd 1b1b 9abe
00000100: e70e 38bd 9dbc f83e aecc 41be ce10 c23d
00000110: 868b ca3d c50b 853b 487d a6bd fcaf 3c3e
00000120: eb6a 85bc 975a 963e 091d 80bd 9745 693e
00000130: f830 03bf da07 4ebe 5281 933e 375b c4be
00000140: 757b b03e 25a7 babe 91f9 97bc 1fa4 fa3d
00000150: ea72 a93d 945d 823e 425a 86be 9447 c0be
00000160: 4730 383e 3faf 823d 2fad 583e 03d1 ae3c
00000170: 2b02 43be 7994 9b3e 8e6c 893b a62f ffbc
00000180: 437f 63bd c249 8abe fea3 033f 6202 59be
00000190: b66a 1f3e 3986 d83e 7138 003e a6a9 cf3e
000001a0: cb8b 1f3e e21e f4bd 134a 103f b99d ce3d
000001b0: a527 9fbd 3938 1ebe 42e3 b8be 0e80 dfbd
000001c0: 412d 9f3d 3a36 c3be 9eb4 bf3d 7ace 51be
000001d0: 4682 90be f852 81be b00a 953c 9a62 64be
000001e0: eeec da3e c406 1a3e 47e7 923e 6225 453e
000001f0: 2635 9d3e 55ac 86be b613 e43e b14c 103c
00000200: 1024 0c3d 4bb5 3bbd 7e24 8dbe 16bb 943d
00000210: c46e 06be a6d5 94be d82d 59be ce35 fd3e
00000220: 1a31 aa3d 8cc2 543d f3ff 52be 136e 573e
00000230: f644 e63d 5de3 71be 3d1a a5bc 5128 eb3e
00000240: 28b6 323e c614 81be 0863 973e f003 ce3c
00000250: 5ffd f73d 5870 fbbe 5d21 60bd bc3c c3bd
00000260: c2cf 76be b997 bbbe 446c 183e 1011 053e
00000270: 268f 2abe f782 9a3e a625 aa3e 9c59 803e
00000280: 84ff 853e 7ac4 f33e 53b5 d0bd b7bf 75be
00000290: 3f11 983e 0e33 5ebd c6c0 d73d e2c0 92be
000002a0: bf19 79be 9e03 853d 524f f43e a9a2 6ebe
000002b0: 44b3 3cbe b974 5d3e cbf5 2dbd d571 c13d
000002c0: e588 cebb 77d3 b8bd 6633 dd3d af18 8d3d
000002d0: 060d d13e 3b00 303d b737 0abd 0112 b8be
000002e0: a4e8 7dbc 7ea7 483d 94eb 013f 6c43 29be
000002f0: 9ee3 b9be 0a41 9dbe d62c 0f3d bf84 003f
00000300: d747 5e3e e31c b73e 4a0e 61be b944 be3c
00000310: 3e82 04bd c341 d7be b2bb e4be b2cc af3b
00000320: 2ad1 c2be 989a 283d c74f 08bf ee3b 98be
00000330: 4d0d 67be 9bb2 b7be 5f4e 33be 3250 d23d
00000340: 385e aebe bdbf 893d 18aa 583e 720a d9bd
00000350: 88f9 92bc fdde 12bc 9322 9ebe f912 423e
00000360: feef c43e 28cd 3ebe a792 3fbe 7434 6b3e
00000370: 36d2 67be 0c90 2dbe eee9 853e 5918 a63e
00000380: 5b98 99bd d681 a13e 84ce a43d bd11 02bd
00000390: 85ba fb3d 433a b1bd 983c e93d fbcf 033e
000003a0: 2b96 b7bd 6781 d33e 12e1 d4bd b314 d53d
000003b0: fe41 c13e 99c2 8dbd 089b 15bf a02f cebd
000003c0: 7b09 a2be 7d36 61be d804 23be 3577 1e3e
000003d0: eecc 63be 893b 90be af73 243e 6ec3 0b3e
000003e0: b940 0b3d 9b69 d33e 4c59 8139 37b1 b4be
000003f0: 07e5 163d 5929 99be 35d5 f1be b67c f1bd
0.050107416 0.028461777 -0.06490731 -0.13614587 -0.45229635 0.4373061 0.47786263 0.17341094
-0.088932335 0.69148505 -0.32421485 0.07230026 -0.54783976 -0.022334164 0.32912454 0.083024345
0.20605998 -0.017013913 -0.036089167 -0.4407614 -0.13632572 -0.26453614 0.41788137 0.16197176
0.1589159 -0.084434584 -0.08672138 -0.12821774 0.107519545 -0.1814196 0.35060906 0.20763387
0.023400167 -0.09599922 -0.19165343 -0.07903314 0.1925818 0.1172379 -0.13593994 -0.1579539
-0.040826965 -0.07720424 0.1498973 0.24827792 0.13276212 0.22175302 0.13770297 -0.47813892
0.028010437 -0.2544248 -0.6517539 -0.19763643 -0.3304539 0.4294594 0.083191015 0.25501052
0.027144114 0.34926486 0.37245432 0.07923113 0.065036744 0.11303807 -0.09760724 -0.30098805
-0.044936087 0.485814 -0.18925735 0.094758615 0.09889893 0.004060241 -0.08129364 0.18426508
-0.016286334 0.2936599 -0.06255538 0.22780453 -0.51246595 -0.20120183 0.288096 -0.3835084
0.3446919 -0.36455646 -0.01855162 0.12238335 0.08273871 0.2546202 -0.26240736 -0.3755461
0.17987166 0.06381082 0.21159814 0.021339899 -0.19043796 0.30386713 0.004193849 -0.03115065
-0.055541288 -0.27009398 0.5142211 -0.21192315 0.1556805 0.42289904 0.1252153 0.4055912
0.1558067 -0.11919953 0.5636303 0.10088677 -0.077712335 -0.15451135 -0.36110884 -0.10913096
0.077723034 -0.3812731 0.09360622 -0.20488921 -0.2822439 -0.25258613 0.018193573 -0.22303239
0.42758888 0.15041643 0.28692076 0.19252542 0.30704612 -0.26303354 0.44546288 0.008807347
0.03421408 -0.04582719 -0.27566904 0.07262246 -0.13128191 -0.2906925 -0.21208894 0.49455112
0.08310147 0.051943347 -0.2060545 0.21038084 0.11243622 -0.23621888 -0.020154113 0.45929196
0.174523 -0.2521116 0.29567742 0.025148362 0.121088736 -0.4910915 -0.054719318 -0.095330685
-0.24102691 -0.36639193 0.1488505 0.1299479 -0.1665617 0.30178043 0.33231848 0.25068367
0.26171505 0.47610837 -0.10190835 -0.23998915 0.29700658 -0.05424791 0.105348155 -0.28662783
-0.24326228 0.064948305 0.47716767 -0.23304237 -0.1842776 0.21626557 -0.042470735 0.0944554
-0.00630294 -0.09024709 0.10800819 0.06889474 0.4083025 0.04296897 -0.03374454 -0.35951236
-0.01549736 0.048987858 0.5075009 -0.16529626 -0.3630647 -0.30713683 0.03495487 0.50202554
0.21707092 0.35764226 -0.21978107 0.023226129 -0.03235077 -0.4204236 -0.4467445 0.0053649778
-0.38050205 0.041163057 -0.5324673 -0.29733223 -0.22563668 -0.35878453 -0.17510365 0.10269202
-0.34056258 0.06726024 0.21158636 -0.105976954 -0.017941251 -0.008964297 -0.30885753 0.1895255
0.3846435 -0.18632948 -0.18708287 0.22969228 -0.22638783 -0.16949481 0.26155037 0.3244045
-0.074997626 0.3154437 0.08047202 -0.031755198 0.12291435 -0.08653691 0.113885105 0.12872307
-0.08964189 0.41309664 -0.10394491 0.10404339 0.3774566 -0.06921882 -0.58439684 -0.100676775
-0.31647858 -0.21993442 -0.15919816 0.15475161 -0.22246143 -0.28170422 0.16059755 0.1364877
0.03399727 0.41291508 0.0002467133 -0.35291454 0.03683951 -0.29914358 -0.47232977 -0.11791365

model.2.bias f4 [256]
00000000: 51d2 25be 4a27 f9bc 4a97 3bbe 4f9e 96bc
00000010: 67c9 d3bd d4a7 1dbe 5194 b7be c779 a3be
00000020: 3572 86bc f6e5 9f3c 383a b6be 4d2f 903e
00000030: d793 84bd 4440 28be a6ab 24be 2d2f 14bd
00000040: f006 f8bc bbeb 55be 98ff 4e3e 67bb 0bbf
00000050: cd28 0a3e 1967 3ebd 5eef 9d3c f253 87bb
00000060: ccd7 2bbf 45d6 c4be 6d6c 093d 251d 83be
00000070: 10a4 b6be b096 b7be 6146 c0be fbfa d03d
00000080: 82bc 503c 0f56 bf3d 091f cebd 3b70 37be
00000090: 2a01 43be c508 95bc 8249 e1be 4d48 b9be
000000a0: 8274 8abd e514 97be 8ee9 0bbf 2df5 38bd
000000b0: 2f7b 05be f51e 45be 0659 20be c852 d5be
000000c0: afe9 39bd 52c8 54be 6681 03bf 5367 8bbe
000000d0: d5e5 c9be 7346 84bd bfb7 0b3f 303a 73be
000000e0: f4da 28bf 2438 013f 254c 3ebe db28 c53d
000000f0: eaca 99be 35c6 64be a2fa c2bc 05b5 6bbe
00000100: db17 f93e b4d9 343e dbc8 c3be da13 ea3d
00000110: b86d 443e 3cba a8bd 9a51 fdbe 9e15 8dbe
00000120: 5750 fb3d 1420 d43d a6b4 9d3c a62d 27bf
00000130: 64c5 4abd 2dcd 35be f04d c3be 49fc a33e
00000140: 8dfc c1bd 68cb 7c3e 7aec 2c3e 2521 963e
00000150: da2a 37bc 1ba8 43bd 6965 35be d623 67bd
00000160: 8eb6 22bd f7e7 5fbe 9b6c 0ebe c2a0 973e
00000170: 3538 febe 7bcf 02bf 165c b2bc f424 7f3d
00000180: 9bf0 1fbd d12c 5dbe cb8e c03d df47 f6bd
00000190: be37 143e 23a3 07bf fd12 8fbe 68e5 4ebc
000001a0: fbed 25bd 7d50 633b 4d90 8cbe 2372 943e
000001b0: 6012 2c3d 1cea d7be b40e b23e ba90 80bd
000001c0: 230b f6be 162a e4bc b6bb 1abc 1176 20be
000001d0: a14f e5bc c564 eb3e a51b 8fbe 97f1 583e
000001e0: a999 adbe 676e c7bd d88f b2be dc20 27bd
000001f0: 3d04 09be 1f2e 273e f437 9abe af1c 233e
00000200: 4f0b 28be 1f8c d9be ca0c b6bd 16a2 6bbe
00000210: 34de 2fbd 2314 4bbd e649 e9bd 62ea a8be
00000220: 3e75 69be 5777 a2be c022 7cbd e161 19bd
00000230: 74e1 c2be 8959 593e 6f5a 98bd d08f 353f
00000240: 19a1 5fbe eda8 e83d 7376 b4bc 50db fcbd
00000250: c11f e33d 2636 b8be 42bc 99be 9345 1fbe
00000260: 2161 b6be 3453 85bc 5a68 6dbe 06aa 91bd
00000270: f7a5 063d dd18 653d b99e ccbd 067a 0c3e
00000280: 3780 5e3e a306 f8be ce49 44be fea1 f2bd
00000290: 6f13 503e a5d9 db3d 824b 12be fb2c 6fbe
000002a0: 1322 24be 4108 01bd 13c4 16bf a520 02bf
000002b0: 1802 febd ecd1 4abe fc2f 39be 6452 383e
000002c0: 7df1 05bf aa2c 10bd e152 993d 8705 b8be
000002d0: e9ac 14bd 3185 04bf 6ec6 1dbd 6b1b 33bf
000002e0: e219 98bc 35dc 9b3d ce34 023e d41b dcbe
000002f0: 5d08 31be d0ca 7f3d 846a 303e b854 4dbc
00000300: 94ee bebe 82d8 b8be 7dc5 e0be 9c09 153e
00000310: 7e98 86be e268 f4be 6265 553e 895c 8fbc
00000320: ce04 023c d49e b7bd f11c 013e 47f9 a2be
00000330: 41fc cdbd a05c 23be 2ebe 44be b42b af3e
00000340: fcb1 16bd 6de2 88bc 9096 82be bc0c 1fbd
00000350: 492b 98bd 4d5a 6bbd 8804 0abf e77d 03bc
00000360: e5b3 203e 2c71 d03d 5c4c 5cbe 5559 3bbe
00000370: 12ae f2be 4016 efbd cc7d 603e 09e3 c63e
00000380: 4a5f f1be 643b ca3e 38eb 5cbe 6074 92bd
00000390: 02fc 68be e837 79be 3c32 12be ce0d 823d
000003a0: b836 e4bc d731 30bd ba1e a3bd 12c1 1dbf
000003b0: ada7 dabe 1817 02bc 6555 8ebe 50a3 f6bc
000003c0: 8a41 c9be 3aa0 21bd 399f 1ebd d86e d93c
000003d0: 5acb 00bf d7e4 91be 6ad0 16be 8f73 15bf
000003e0: cafe a7be 83f9 30be 15d5 6dbb 9cc2 24bd
000003f0: 5beb 95be eaae b1be 2259 80be c628 3fbe
-0.1619351 -0.030414242 -0.18319431 -0.018386034 -0.10341149 -0.15396053 -0.35855344 -0.31928846
-0.01641188 0.019518834 -0.35591292 0.28161088 -0.06473511 -0.16430765 -0.16081104 -0.036177803
-0.030276746 -0.20890705 0.20214689 -0.5458283 0.13492127 -0.04648504 0.019279178 -0.00412988
-0.67126155 -0.38444725 0.03355067 -0.25608173 -0.35672045 -0.35857153 -0.37553695 0.10204121
0.012740256 0.09342586 -0.10064513 -0.17913906 -0.19043413 -0.018192658 -0.44001395 -0.36187974
-0.06760503 -0.2950813 -0.5465325 -0.045155693 -0.13035272 -0.1925009 -0.1565896 -0.4166472
-0.045388874 -0.20779541 -0.5136932 -0.27227268 -0.3943316 -0.064587496 0.5457725 -0.23752666
-0.65959096 0.5047629 -0.18583734 0.09626933 -0.30037624 -0.22341235 -0.023801152 -0.23018272
0.48651013 0.17661172 -0.38239178 0.11429568 0.1918248 -0.082386464 -0.4947632 -0.27555555
0.12271183 0.10357681 0.019251179 -0.6530403 -0.049504653 -0.1775405 -0.381454 0.32028416
-0.09471998 0.24686968 0.16887084 0.29322162 -0.01117965 -0.04776774 -0.17714466 -0.05643066
-0.03972488 -0.21865831 -0.13908617 0.29614836 -0.49652258 -0.5109784 -0.021772426 0.0622911
-0.03904782 -0.21599127 0.094022356 -0.12025427 0.14474389 -0.529833 -0.27944174 -0.012627937
-0.04051016 0.0034685426 -0.27453843 0.2899333 0.04200971 -0.421708 0.34776843 -0.062776044
-0.48055372 -0.0278521 -0.009444168 -0.15670039 -0.027992072 0.4597532 -0.2795078 0.21185909
-0.33906296 -0.097378545 -0.3487537 -0.04080282 -0.13380523 0.16326188 -0.30120814 0.1592891
-0.16410564 -0.42489716 -0.08889158 -0.2301105 -0.04293652 -0.04957975 -0.11391048 -0.3299132
-0.2279863 -0.31731674 -0.061556578 -0.03744686 -0.38062632 0.21225561 -0.07439124 0.70922565
-0.21838798 0.11360345 -0.022029137 -0.12346518 0.11090041 -0.35978812 -0.30026442 -0.15553884
-0.35620978 -0.016275026 -0.23184338 -0.071125075 0.03287312 0.055931915 -0.099912114 0.13718423
0.21728598 -0.48442563 -0.19168779 -0.11847304 0.20319913 0.10734872 -0.14286616 -0.23357002
-0.16028623 -0.031502012 -0.58892936 -0.5083106 -0.12402743 -0.19806641 -0.18084711 0.1800018
-0.52321607 -0.035198845 0.07486511 -0.35941717 -0.036297712 -0.51765734 -0.038519315 -0.6996371
-0.01856703 0.076103605 0.12715456 -0.4298998 -0.17288347 0.062449276 0.17228132 -0.012532406
-0.37291396 -0.36102682 -0.43900672 0.14554447 -0.26288217 -0.4773627 0.20839456 -0.017500179
0.007935716 -0.08965841 0.12608697 -0.3183081 -0.10057879 -0.15953302 -0.19213173 0.3421303
-0.036790833 -0.01670953 -0.25505495 -0.038830504 -0.07430131 -0.057459164 -0.53913164 -0.008025623
0.15693624 0.10177836 -0.21513504 -0.18295796 -0.4739843 -0.11674166 0.21922988 0.3884509
-0.47143012 0.39498436 -0.21574104 -0.07151103 -0.22752383 -0.24337733 -0.14276975 0.06350289
-0.027858123 -0.04301628 -0.07964845 -0.61622727 -0.4270605 -0.007940076 -0.27799526 -0.03010717
-0.39307815 -0.039459445 -0.038726065 0.026542112 -0.5031029 -0.28494903 -0.14727941 -0.58379453
-0.32811576 -0.17282681 -0.0036290337 -0.040224656 -0.29281124 -0.3470376 -0.25068003 -0.18667898

model.4.weight f4 [128, 256]
00000000: 9300 933e aeb7 ddbd 18b4 9a3e a1fd d43d
00000010: 07b4 03bd 821d 8bbe 108d 2e3e c5ba c3bd
00000020: 1da7 383e 4639 2dbd 5832 003f 5aa1 f13c
00000030: e065 12be 384b aabe ac61 ae3e 185b ca3e
00000040: 8f52 0f3f 5f14 e03c 4641 2e3d 90dc 823e
00000050: 0a85 47be 01a1 053c 2fa1 10bd d8af 843d
00000060: ebe2 8abe a951 1dbf 8b03 d03d 59e3 eebd
00000070: e9b9 a63e 550e 1b3e 9ebc 89bd aa83 2dbe
00000080: 8652 1fbe b05e 383e 6901 d7bd 2a36 193e
00000090: bf8f 46bb 8f10 973d 94ed b2bd 8702 cf3e
000000a0: 45f3 e9bd 3a5d 183e 3c5f d43e 49a8 e3bc
000000b0: 6396 42bd 0e5d 023e 4d8b 4c3e 2339 b0be
000000c0: a1bf 883d 9b29 843c 2555 c6bd b500 403e
000000d0: a4ae 413e e99b 84bd 03c8 843c 8b90 8e3e
000000e0: 8391 f03d 253a 1a3e 4aa5 d83e 9520 08be
000000f0: 7ee0 653c cc6c 523e 7104 e23d 5f7c eebc
00000100: b87b ce3e 0baa 9c3e 4e07 94be c0ce 883e
00000110: d46f 96be fef1 f93d 830a 4cbe a01c a83d
00000120: f6cc 9ebd a777 a6be 04e0 a83d 7328 ed3d
00000130: 72fa fb3e a10c 85be 751a 0f3d 572a fa3e
00000140: 1ace 2bbc 3637 09be 738e 8c3e e3a0 1d3e
00000150: 38ea 3a3e 2a2a a73e 8aa7 c9be c254 c8bd
00000160: 9160 e7bd dbd7 043e f931 023f 3d4e b5bd
00000170: b41a 7fbd 7e47 f13e c3c6 503e a63a 66be
00000180: 7e8d aa3d 853c 983c 6602 633e 1b72 a7bd
00000190: 9ccf c03e 1add ff3b 7535 093e cc86 773d
000001a0: 3e10 403c 8df8 20bc fadc 2dbd 4463 993e
000001b0: c56e 503e d558 acbd 25cf bd3e 8041 0abe
000001c0: c43f 8cbe ff00 9e3d cfa6 903d c5b4 4ebe
000001d0: b931 f63d b3df c23e 691b 7c3d 18d4 f13e
000001e0: 922d 103e dfc4 f8bd 4d3c 873e f941 38bd
000001f0: 01e8 da3e 200f 1f3e d06c 073e c6b6 b83e
00000200: ea91 4ebe 6eec c1bd 0c2c fabd 0244 a63d
00000210: 8672 303d 8bd9 90bd 296d 7ebc bc26 dabd
00000220: 9925 cebd b807 763d 77ce 50bd ae01 19bd
00000230: 97c4 c33e d04d f83c d1cf a3bc cb13 12bd
00000240: 1229 c93e 2569 56bd 4999 9c3e 6e24 e5be
00000250: c0b9 0c3e 5aa7 05bc 1c5f cc3b d8b3 d43c
00000260: e70b 873d fe63 5a3d fb77 7b3d f948 14be
00000270: efad 1d3d e77d 393e 3d3c 4fbe d995 d53c
00000280: ee89 3e3e d899 cdbd 9e2f 90be deaf 0c3f
00000290: 8d40 8e3e f084 3d3c 95e3 0e3e 6dd9 863e
000002a0: 4ff4 bebc 2b2b fbbd b0c1 de3c 1e3f 50bd
000002b0: c4f2 093e fb0f aa3d e02c 0bbe c2ad 653e
000002c0: 6f9f 203e 45c7 cc3d 51e3 b0be 421a 2ebd
000002d0: 7220 f53d 3e61 41be e7cb 1dbd e10f c43e
000002e0: 1dbb f0bd ac85 0b3f ef95 ff3e 4710 103f
000002f0: e7ff 40be 5684 043e 4a23 2d3f 3ace 5ebc
00000300: 50c9 d3bc fce1 9ebe 6ef0 2c3f 6317 61bd
00000310: 238a a53d 27b7 de3e d48f 893d 5ddc 9a3d
00000320: ff17 e9be 1c9d eabc a665 763e db3b 983e
00000330: 662b 6dbe 1c7a 03be 5284 673e ac31 893c
00000340: 85e3 75bd eaba be3d 87ab 27be d64e 853c
00000350: 34fa 993d 505d 373f e85a bf3e b736 743d
00000360: fc7c bb3c d173 9bbd 066a 4f3e 880b 6d3d
00000370: 9a7d 5fbd 15d4 cb3e bbeb ccbe 770a ccbc
00000380: d6a9 37bd 125d 193f 462d f5bb 83b2 c2bd
00000390: 9838 133e b1c6 3abe 7bdc 83bc 89e2 00be
000003a0: cf1a 133e 99c7 26be 4932 c33e d979 613e
000003b0: 6176 3a3e 05f5 42bd 44b6 663e 52cd 20bc
000003c0: 1da1 af3e a8ac a0bd c63f ee3c 5c63 883e
000003d0: 788d 9fbe 85ae 7ebc cec1 b6bd fd4c 72be
000003e0: fd85 a03e 6103 92be d1fe 0f3e 889d 083d
000003f0: 1d4a 303d 15b2 e0bc ba17 0fbe 28b0 acbe
0.28711376 -0.1082605 0.30215526 0.103999384 -0.03215411 -0.2717095 0.17045999 -0.09557108
0.18032499 -0.04229095 0.5007682 0.029495884 -0.14296675 -0.33260512 0.34058893 0.39522624
0.5598535 0.027353464 0.04254272 0.255589 -0.19484344 0.008156062 -0.035309967 0.06478852
-0.2712625 -0.6145273 0.10156926 -0.11664457 0.32563713 0.15142186 -0.06725429 -0.16944757
-0.15558824 0.1800487 -0.10498316 0.14962068 -0.0030298082 0.07376205 -0.08736721 0.40431616
-0.11423353 0.14879313 0.41478908 -0.027790206 -0.0475067 0.1273081 0.19975014 -0.34418592
0.06677175 0.01613312 -0.09684209 0.1875027 0.18914276 -0.0647505 0.016208654 0.27844653
0.11746504 0.15061243 0.42313606 -0.13293679 0.014030574 0.20549315 0.110360034 -0.02911204
0.40328765 0.30598482 -0.28911823 0.26720238 -0.29382193 0.122043595 -0.19925885 0.08208585
-0.07753937 -0.32513162 0.082458526 0.11579981 0.49214512 -0.25986198 0.03493734 0.48860428
-0.01048615 -0.13399968 0.2745243 0.15393405 0.1825341 0.32649356 -0.39385635 -0.09781791
-0.112977155 0.12972967 0.508575 -0.088528134 -0.062281325 0.47124857 0.20388322 -0.2248331
0.08327769 0.018583545 0.22168884 -0.08176061 0.37658393 0.00780834 0.13399298 0.060431287
0.011722622 -0.009824884 -0.042447068 0.29958546 0.20354755 -0.08415381 0.370721 -0.13501549
-0.273924 0.07715034 0.07063066 -0.20186146 0.120212026 0.38061294 0.061549578 0.47232127
0.14079884 -0.12146925 0.26413193 -0.04498479 0.4275513 0.15533113 0.13225102 0.36076945
-0.2017285 -0.094689235 -0.122154325 0.0811844 0.043077968 -0.07072743 -0.0155289555 -0.10651919
-0.10065765 0.060065955 -0.05097815 -0.037355117 0.38235924 0.030310541 -0.019996556 -0.035663407
0.39289147 -0.052346367 0.30585697 -0.44754356 0.13742733 -0.0081575755 0.006236924 0.025964662
0.06594067 0.053318016 0.06139372 -0.14480962 0.038495954 0.18114434 -0.20237823 0.02607243
0.18607304 -0.10039109 -0.2816133 0.5495585 0.27783623 0.011567339 0.13954003 0.26337758
-0.023309855 -0.12264093 0.027191967 -0.050841443 0.13471514 0.08303829 -0.13591337 0.22429565
0.15685819 0.09998945 -0.3454843 -0.04250551 0.11969079 -0.18884751 -0.038524535 0.38293365
-0.11754439 0.5450084 0.49919078 0.5627484 -0.18847619 0.12941107 0.6763197 -0.013598973
-0.02585283 -0.31031787 0.67554367 -0.054953944 0.08082988 0.4349911 0.06716886 0.07561562
-0.4552612 -0.028639369 0.24062213 0.29733166 -0.23161086 -0.1283955 0.2260907 0.016747318
-0.060031433 0.09312995 -0.16374026 0.016272943 0.075184256 0.7162676 0.37374043 0.059622493
0.022886746 -0.075904496 0.20255288 0.057872325 -0.054563142 0.39810243 -0.40023598 -0.024907334
-0.044839703 0.5990764 -0.0074822037 -0.09506705 0.14377058 -0.18239857 -0.016096344 -0.12586416
0.14365695 -0.16287078 0.38124302 0.22019137 0.1820922 -0.04759695 0.22530466 -0.009814577
0.34302607 -0.078454316 0.029083144 0.26638305 -0.3116262 -0.015544538 -0.08923684 -0.23662181
0.31352225 -0.28518203 0.14062048 0.03335336 0.04303943 -0.027428666 -0.13973895 -0.33728147

model.4.bias f4 [128]
00000000: ccea 173d 0dc3 1f3f 8db1 b2be 13bc 823e
00000010: d94c 4ebf b5ac 14be c053 bebd f6a3 0b3e
00000020: c9a6 10bf 55d4 0cbe fecb 693e 8b18 033f
00000030: 12b1 c7bd c6ee 2cbe 606d ac3e 9de3 edbd
00000040: 127a c8be 509c bf3c 6ec1 afbd 30ad f5be
00000050: 2591 ae3d b2e0 b4be e74e 5c3e fe1d 5ebe
00000060: 2eff f83e 445e fc3e 1836 603d 521e a13e
00000070: 7e23 413e 0b15 b5be 8a08 28bf 0a5d edbe
00000080: 503c ba3e 36a8 dabe 6eb5 2abf 2eac 9ebe
00000090: 1494 ecbc ee78 05bf ef39 1a3f 0f4b f7bd
000000a0: edcf 3d3c d7b5 28be e13b 673d 51e8 d43e
000000b0: 99ca 95be 92af 63be 9ad7 07be 69f5 0f3d
000000c0: 8174 e0bd 10ac 763e c0c3 2f3d f7d1 cebe
000000d0: 5b8a 233e 2ec8 aabd 332c e1be bc90 c63e
000000e0: f19a a6be 6029 a63e 04f1 a83d 4892 61be
000000f0: ad95 c1bd d267 ddbe 569b a9be 26f7 313f
00000100: 9d5a 273e 3a16 b93e ff77 123e bd06 03bd
00000110: acd2 f83d 7bc7 5bbe dbab 2c3e d276 3c3e
00000120: 0a17 bebe 8865 4abe cf20 c2be 653c 27be
00000130: 7418 efbd d964 073b b32e 2abe 6ea3 2d3c
00000140: 3359 84be 3bcd 9e3e d6ca c13d 2986 6d3e
00000150: 2d9f 13bd 2a05 1d3d fe58 1bbe a378 42be
00000160: a91b 95bd 7030 10be d14e 42be 0587 c0be
00000170: cc1a 483e 02e2 22bf 9584 1bbf d826 0dbe
00000180: 88d3 ce3d 161c 5cbd cf49 383e 1246 ae3e
00000190: db61 1abd 8f38 26bf 06da 0b3e d735 8f3e
000001a0: bea3 d5be c994 293f ad19 573e 4dc4 0d3f
000001b0: ccbb db3c c618 4d3e 85f1 223d d8b2 a339
000001c0: d60a df3d ee43 0cbf 0451 bcbe 4785 a33e
000001d0: ab57 19bf 35ae 533e e318 0e3e 4174 e5bd
000001e0: 03a4 86bd 02ef 72be dceb acbe 8bde 91be
000001f0: 526e 593e 1f55 e6be 7ac3 a2bd 87c1 8a3e
0.037089154 0.62407 -0.34901085 0.25534114 -0.8058601 -0.14519008 -0.09293318 0.13636765
-0.56504494 -0.13752873 0.22831723 0.51209325 -0.0975057 -0.1688796 0.33677197 -0.116156794
-0.39155632 0.023389965 -0.08581816 -0.47983694 0.08523778 -0.3532768 0.21514474 -0.21691129
0.48632187 0.4929067 0.054739088 0.31468445 0.18861195 -0.35367617 -0.6563803 -0.46360046
0.3637414 -0.4270646 -0.6668309 -0.30990738 -0.028879203 -0.5213765 0.6024465 -0.12074863
0.011585218 -0.16475616 0.05645359 0.41583493 -0.29256132 -0.22234944 -0.13265839 0.03514615
-0.10959721 0.24089074 0.04291129 -0.40394565 0.15970747 -0.083389625 -0.43979034 0.387823
-0.32540086 0.32453442 0.08249095 -0.22028458 -0.094523765 -0.4324327 -0.33126324 0.69517744
0.1634316 0.3614977 0.14303587 -0.031988848 0.121495575 -0.21462815 0.16862433 0.18404701
-0.37126952 -0.19765294 -0.37915656 -0.16331632 -0.11674586 0.0020659475 -0.16619377 0.010598047
-0.25849304 0.31015953 0.09462516 0.2319571 -0.036040474 0.038335003 -0.15170667 -0.18991332
-0.072806664 -0.14080977 -0.18975379 -0.37603012 0.19541472 -0.6362611 -0.6074918 -0.13784349
0.1009894 -0.053737722 0.17996906 0.34037834 -0.03769098 -0.6493005 0.13657388 0.27970764
-0.41726488 0.66242653 0.21005888 0.55377656 0.026822947 0.20028982 0.039781112 0.00031223032
0.10890739 -0.5479115 -0.3678056 0.3193762 -0.59899396 0.20671923 0.13876681 -0.11203814
-0.065742515 -0.23723987 -0.33773696 -0.284901 0.2123349 -0.44986817 -0.079474404 0.27100775

model.6.weight f4 [64, 128]
00000000: e3bd 41bd d795 d83d 4ba6 0cbf e6e1 df3e
00000010: e936 9a3e a2ec 2a3f e4a8 a1bb 1f8a 773e
00000020: 8ba1 f3bd 64e2 aa3e 0a35 15be dd98 2b3e
00000030: 5724 1e3e 5f1a 883e 31f8 39bf 5cfc 8f3e
00000040: 4401 15be c137 543c 5991 013f f9b8 233e
00000050: 6575 0cbf d3bf 9bbc f5a9 923d 312a 1ebd
00000060: dcfd 5bbe fc32 5c3e 634e 92bc ca4e 2b3e
00000070: eaff a93e 6051 c13e bbca cabe 5953 2f3d
00000080: cf35 0e3e 190a 88be 9ac4 cf3d da12 113e
00000090: 7bfb 253d 0f8e 623e ef8c 67be 4ffe 023e
000000a0: 9a52 34bb a1d3 7d3e 45f7 c63d 574c 893c
000000b0: 159d 893e 0620 4e3d ebca 123e f103 92bc
000000c0: b55e 15be e7e1 833e 8484 e2be c7a6 9b3e
000000d0: b5ac 323c d749 d43c f932 a1be c808 0fbf
000000e0: c1fc 8b3e f47a eebc 44fa 95be 90f2 94be
000000f0: 9f6c 1dbd 7626 a63e c886 92be 2b63 523c
00000100: 5605 56bd 6a97 8fbd d161 f23a aa5b 643c
00000110: 020c 873e 3b45 8cbd ee6e da3c bbca f83d
00000120: d610 3abd 3bdb b0be e0ca 6d3d 49ef e7be
00000130: 14b4 603e bd04 943c f20d eebd 52a5 00be
00000140: 3b08 b23e 963d 3bbe 1fc5 3d3e 9488 acbe
00000150: 360a 7cbe fed3 a83e 7e06 ad3d 0455 103f
00000160: 2a2a 8abe 0360 543e 1c1c 54be bf1d a7be
00000170: 8641 843e 73b3 143e dcdf 5cbe 81b3 7fbd
00000180: 0e27 a33c 5723 6cbb fb8a 0cbf 3001 b73d
00000190: 7d0d 56bf 632b c3bd ff5d a73e 277a dfbd
000001a0: a69c ffbe 2a3b ec3e df54 e73e e9d8 253d
000001b0: 317d f33e 5981 933d aed3 f93d 1b42 a63d
000001c0: 1670 ee3d de64 253d 7eda 9dbd a4c7 333e
000001d0: 2e25 2abf 5067 00bf 094f 49be 5831 633e
000001e0: 028e 29bd 410a 353e 8685 c73d 1d05 0cbe
000001f0: 59b4 c5be 2572 48bf 70a2 59be 3d50 94be
00000200: 3559 653e 7bbb f43d 7df2 56be 3673 883e
00000210: c127 7e3e 105a 2b3e 2a76 84be 26a5 843e
00000220: 4c20 28be 4a8e 6ebd 6d36 33be b1bd b73e
00000230: 7e5d 693d 7181 ba3d 1742 cb3e f85c b5be
00000240: 3f51 0bbd b4d3 3e3c 8f93 14be 2d18 07bf
00000250: 76f6 1dbe 44e4 e0bc 2f08 b7be 1576 03bf
00000260: cb9a 923e 32f3 6c3e ff1e 2f3d cb7c c7be
00000270: 3746 1d3e 8ea3 4fbe a00e 2cbe 1131 d7be
00000280: 7827 fc3c 60f7 21bf 6b18 493e 4f7d 91be
00000290: f2c9 16bf d2fe 9ebd 9bd9 54bc 2a4f 933e
000002a0: 1046 083f 180c 18bb fc41 e73c 189f 833e
000002b0: 24a8 e8bd 3ccb 5cbe 1e3e a2be e6ef 053f
000002c0: 379e a83d 8e53 1c3e 9d67 923e 3609 90be
000002d0: 31b9 2cbb 06f9 933e d6b0 8f3c 5d9c 2d3f
000002e0: 8a3a b6be 7ac1 26be 1242 0cbd 6157 c43d
000002f0: 3c44 5fbc 6b67 913e e670 06be 9fa2 f23e
00000300: 520c 7bbe c7e5 1b3e 1bbe a53e b1ee a43d
00000310: 6550 a73e 5f8e 2dbf fd58 8a3e 8cae 613e
00000320: ce6b 61bc a82a c63c 0d6a 96be ca27 4e3c
00000330: e40c 0c3e 911e 0d3e 550e 0abe d86f 443e
00000340: a86e b33c 3276 8fbd b239 923e 5644 aabe
00000350: eb7c d63b 4805 8abd 7445 0fbf fcce aabd
00000360: ab95 81bd 5931 7fbe ef80 10be d38d 983e
00000370: d099 853e 75e8 613e 30b4 1b3e 7ad1 9e3e
00000380: 8720 d53e 7377 ecbe f5ff b9be fdc4 ac3e
00000390: 6049 70be 1ea9 5bbe 57a7 eabc 0716 e53e
000003a0: fd43 013e 3929 613e 0ce3 303e 2533 be3e
000003b0: 6bd4 eebe e51d a6bd acd4 e1bd c6d8 843e
000003c0: 5c33 0d3e 7904 5e3e 0c4d b5be 5c6e acbe
000003d0: 38df c93d 8289 01bf a276 31bd a476 97be
000003e0: d41a 7fbd f783 6a3f f71a 9f3e f301 aabe
000003f0: 9d5c 463d e2b8 14be 420f 803e 3d03 903e
-0.04730023 0.10575455 -0.5494124 0.43727034 0.30120018 0.66767323 -0.0049334634 0.24173783
-0.11896046 0.33375847 -0.14571014 0.16757531 0.1544355 0.2658262 -0.72644335 0.28122222
-0.14551264 0.012952746 0.5061241 0.1598853 -0.5486663 -0.019012367 0.07161323 -0.038614456
-0.21483558 0.21503824 -0.017859643 0.16729274 0.3320306 0.37757397 -0.39607796 0.042804096
0.13887714 -0.26570204 0.10144921 0.14167348 0.040523034 0.22124504 -0.22612356 0.12792324
-0.0027515055 0.24787761 0.09715132 0.016760034 0.26877657 0.05032351 0.1433522 -0.017824145
-0.14586909 0.25758287 -0.44241726 0.3040068 0.010905434 0.025914116 -0.31484202 -0.55872774
0.27341273 -0.029111363 -0.292925 -0.2909131 -0.038433667 0.32451218 -0.28618455 0.012841026
-0.052251182 -0.07011302 0.0018492286 0.01393787 0.2637635 -0.06849142 0.026664224 0.12148043
-0.045426212 -0.3454226 0.058054805 -0.45299748 0.21943694 0.018068666 -0.116237536 -0.12563065
0.34771904 -0.18285212 0.18532227 -0.3369795 -0.2461327 0.32974237 0.08448504 0.56379724
-0.26985294 0.2073975 -0.20713848 -0.32639882 0.2583124 0.1452158 -0.2156977 -0.062427048
0.019916084 -0.0036031806 -0.5489957 0.089357734 -0.8361433 -0.0952976 0.326889 -0.109119706
-0.499242 0.4613889 0.4518194 0.040490065 0.4755645 0.072024055 0.12198578 0.08118077
0.116424724 0.040379398 -0.0770769 0.17556626 -0.6646298 -0.5015764 -0.19659056 0.22186792
-0.041395195 0.17679693 0.097422644 -0.13673826 -0.38614157 -0.7829917 -0.21253371 -0.28967467
0.22397311 0.119498216 -0.2099094 0.266504 0.24819852 0.16733575 -0.25871402 0.25907248
-0.1641857 -0.058241166 -0.1750123 0.3588691 0.056973927 0.0910672 0.3969886 -0.35422492
-0.03401303 0.011647154 -0.14509414 -0.52771264 -0.15426049 -0.027452596 -0.3574843 -0.51352054
0.28633723 0.23139647 0.04275417 -0.38962397 0.15358816 -0.20277235 -0.16802454 -0.42029622
0.030780539 -0.6326809 0.19638221 -0.28415915 -0.58901894 -0.07763447 -0.012991334 0.28771335
0.53231907 -0.0023200568 0.028229706 0.25707316 -0.11360195 -0.21561903 -0.31688017 0.5231918
0.08233302 0.15266249 0.28594676 -0.28132027 -0.00263555 0.28900927 0.017540377 0.67816716
-0.35591537 -0.16284743 -0.034242697 0.09586979 -0.013627108 0.28399214 -0.13129005 0.47389695
-0.24516419 0.15224372 0.323716 0.08053339 0.32678524 -0.67795366 0.27021018 0.2203924
-0.013758613 0.024190262 -0.29377785 0.012582729 0.13676792 0.13781191 -0.1348203 0.1918329
0.021903351 -0.07004966 0.28559643 -0.3325526 0.006545653 -0.067392886 -0.5596535 -0.083402604
-0.06327375 -0.24921168 -0.14111684 0.29795703 0.26093912 0.22061332 0.15205455 0.31019193
0.4162638 -0.46184883 -0.36328092 0.3374404 -0.2346549 -0.21451232 -0.028644247 0.44743368
0.12623592 0.21988381 0.17274112 0.37148395 -0.46646437 -0.08111171 -0.11026892 0.25946635
0.13789123 0.21681394 -0.35410345 -0.33677948 0.09857029 -0.50600445 -0.043326028 -0.29582703
-0.062281445 0.9160761 0.3107526 -0.33204612 0.048428167 -0.14523652 0.2501164 0.2812747

model.6.bias f4 [64]
00000000: 9a8c 9ebe 3bf3 3e3e 0fe9 9dbe 66c6 23be
00000010: a1bd cc3d afa3 cabd e7ca ed3e 93f4 2a3d
00000020: 6137 283e 2dd7 9c3d dfdb dbbd 395b 3c3e
00000030: a8b0 bf3e bd1c 263e 72a9 90be 3934 c23d
00000040: eea0 f73d 5a60 75be 7c5e 36be cc21 b7be
00000050: d793 123e 8cbe aebd 23cf 45be 5f77 a8bd
00000060: 34a6 ccbd 1399 173d 0811 77be 4487 3bbb
00000070: a540 2c3e 5548 5fbe eb10 6f3e a0c5 aabd
00000080: 1f16 8abe 22a1 223e bd32 283d 8d02 dd3d
00000090: e568 563e 3f64 853d 4b30 1f3e 0b0c c43e
000000a0: 715d 2abd 8e51 5fbb 93f5 95bc 663b 4ebd
000000b0: b1f3 c53d 8792 0b3e 8fe1 f43c d458 163e
000000c0: d71a 5d3e b99f b33d b926 c93c d39f 2f3e
000000d0: 3293 1fbf 3074 31be 9080 2ebd e93d 1cbd
000000e0: fcf9 a43e a336 efbe 6726 2dbe 2022 f9bd
000000f0: 8224 dc3e ae19 633e f41f ae3d b5a2 45bd
-0.30966645 0.18647473 -0.30841872 -0.15993652 0.09997106 -0.098945014 0.46443865 0.04173715
0.16427375 0.07658229 -0.107352965 0.18394174 0.37439466 0.162219 -0.28254277 0.09482617
0.12091242 -0.23962536 -0.1780948 -0.35767972 0.14314209 -0.08532438 -0.19317298 -0.08225893
-0.09992638 0.037011217 -0.2412759 -0.002861456 0.16821535 -0.21804936 0.23346297 -0.08338475
-0.26970002 0.1588178 0.041064013 0.10791502 0.20938452 0.06513261 0.15545766 0.38290438
-0.04159302 -0.003407571 -0.018305575 -0.050349616 0.09665621 0.13630114 0.029892711 0.14682323
0.2159227 0.08770699 0.024554597 0.17150812 -0.6233398 -0.17329478 -0.042603076 -0.03814498
0.32221973 -0.46721372 -0.1690918 -0.12164712 0.42996603 0.22177765 0.08502188 -0.048250873

model.8.weight f4 [12, 64]
00000000: bd98 2ebe e421 c73e daf2 7fbe 4e94 0bbd
00000010: 75c6 28be fe40 89be 0ce0 15bd 91fb 47be
00000020: a664 57bc 2c76 c6be 55d2 5abe d19e 633e
00000030: c869 2ebe 5e65 22be ef98 ffbe 1952 be3d
00000040: 93af ac3e 54c1 96be 7f13 51be 2501 d2bd
00000050: 73c0 78be e01c 233e 386a 96be 4247 b7be
00000060: 0728 60be 2fc5 b0bd 4408 03bf c883 fd3d
00000070: ea80 bcbc d1e4 abbe 9b1e f93e 5289 fcbd
00000080: 9450 b9be 2c15 443e a35f 0b3e 6f7e 5c3e
00000090: 7e22 70be c387 323e be7b 613e d544 bf3e
000000a0: c366 1abe 56b8 8ebe 680b ba3e c5d2 8c3e
000000b0: d397 a5be a9cf a73e c014 613e a26f 193d
000000c0: a17e f2be 8faf c33d 5c51 9c3e e603 823e
000000d0: 27e7 cdbe 7641 f4be 93dc 03be 6629 0fbe
000000e0: 4c20 0d3f ff29 90be 7770 3f3e dea7 25bf
000000f0: 4532 f13e a1cb 993e 28e6 cb3d 6f03 723d
00000100: cb7a 84bd 6be6 bebe 60cb 9f3f 2c57 073f
00000110: 7d0b d33d ff9f bbbd d69b 40bf ed3e 523e
00000120: c420 7bbe 886b 89bf dd96 88bd 19c5 1ebe
00000130: 5c69 a8be 3a41 993e e5cd 353e 0327 74be
00000140: cc05 13be 4b87 efbd d95d 213f cbd5 df3e
00000150: 9d44 f1be ddc6 1dbd 86d7 133f 82fa 49be
00000160: 9137 7ebd 49a9 1cbe 4052 b3be bb7c 06bf
00000170: 159a 02be 6b19 ec3d faa7 b1be 3d0f ba3e
00000180: d305 7b3e 5969 023f d006 bcbe b80a 2bbc
00000190: a7f1 e6be f39f 5bbe 6220 813e 61f5 51bf
000001a0: 77d4 0cbf c9df a43e 870c cfbd a8c0 6fbe
000001b0: c574 aa3e 7503 d8be a451 ef3e 5458 713e
000001c0: d7c8 27bf 721f 0dbe 2ff0 883b 00cf 22bf
000001d0: efcb 983e eb22 0b3f 3f58 933e 710a 2cbf
000001e0: fc56 07bf d3b5 063f a5c2 b1be 6830 083d
000001f0: b411 fabe 665a 91bd 0ff3 123f 9fbc 6abd
00000200: ec88 3c3d 239b 03bd e75a d73e 570c 6fbe
00000210: 3fc5 443e d9e9 0ebe 80c9 f5bd a065 23be
00000220: f9ad bcbd f6bb 98bd 817a a6be c782 6abe
00000230: 052e 2ebe 0387 85be 0107 213e 4f69 e13d
00000240: 3c01 713e 8df9 043f a646 96be 8ea6 a83e
00000250: ff81 803b f3b6 a53d cc12 7b3e 5f1c 85be
00000260: 9f17 6dbe f4ca dabe d712 fdbe 0c3f c7bc
00000270: fa9f be3d 7472 debd 3e75 87bd 9199 00be
00000280: 3e54 92bc c494 91be d5c7 f43d a27f 42be
00000290: 241d c9bb 57a1 d33d f54b 963d 3f3f 7abe
000002a0: 413b 663e 8bf0 2fbd bd95 d03e ed68 7fbd
000002b0: c653 663e e8f8 3c3e 86dc 423e b567 85be
000002c0: 53ff 92bd c6b0 d9bd 2dd2 043e 8fa2 fabd
000002d0: 4194 2f3e 125f 37bd ba77 103e fc45 913e
000002e0: 23f7 acbc 2f50 99bc ed3a 08be 074c 54be
000002f0: 6001 0c3c d197 8c3e 5483 1b3e 0ee1 5abe
00000300: 3a9d a0be f16f 143e fe81 7bbe 46a3 95be
00000310: 6223 7f3e bad3 073e 0f6f fe3d 1a56 ee3d
00000320: f642 0bbe 3464 aabd f01a 3bbf b9b9 b1be
00000330: cb84 42be 3dcf b4be 4e2c 5abd 961a 84be
00000340: 4b4a 573e 0369 973e a165 193d 1395 fcbd
00000350: 256d 103e ee4d 373d 113e a03e 801a 5fbd
00000360: adcf a9be 4ead 97be 3f55 f33e 6783 083e
00000370: afa9 243e 5b93 b43e d827 ee3c 453b 52bd
00000380: 0ba8 eebd a5d8 623e e4d9 ce3d 9bca b0be
00000390: 351f f83c 0ce5 3bbe fd70 57be 75d9 533e
000003a0: c1d1 fdbd e0e0 1cbe fa31 db3d 9a0b d0bd
000003b0: 5564 0ebe fc49 6c3e 2f91 e0bd 83c3 bbbe
000003c0: 374d 913e 1d6b d4be d994 ba3e 3c15 02be
000003d0: a27b 38bd 06b9 09be 0285 47be e22c 583b
000003e0: e1a1 1b3e 906a 053e 2d85 93be 0be0 b9bb
000003f0: 48d9 12be 29be 3e3e 863e d53e 3b19 a3bd
-0.17050453 0.38893044 -0.24994984 -0.03407698 -0.16481955 -0.26807398 -0.03659062 -0.19529559
-0.013146555 -0.38762033 -0.21369298 0.22228552 -0.1703254 -0.15858981 -0.49921367 0.09293003
0.33727702 -0.29444373 -0.20417593 -0.102541246 -0.24292164 0.15928984 -0.29377913 -0.35796553
-0.21890269 -0.0863136 -0.5118449 0.12378651 -0.02301069 -0.3357301 0.48656163 -0.12330879
-0.3619429 0.19148701 0.13610701 0.21532606 -0.23450658 0.17434601 0.2201986 0.37357202
-0.15078263 -0.27875012 0.36336827 0.27504554 -0.32342395 0.3277562 0.21980572 0.037459977
-0.47362235 0.095549695 0.30530822 0.253936 -0.40215418 -0.47706193 -0.12877111 -0.13980636
0.55127406 -0.2815704 0.18695246 -0.6470927 0.47108665 0.3003817 0.09956008 0.059085306
-0.064687334 -0.3728517 1.248394 0.5286739 0.103049256 -0.09161376 -0.75237787 0.20531817
-0.24524218 -1.0735941 -0.066694 -0.15504874 -0.32892883 0.29932576 0.17754324 -0.23843007
-0.1435768 -0.11695727 0.63033825 0.437178 -0.4712266 -0.03851973 0.5775074 -0.19724467
-0.06206471 -0.15298952 -0.3502369 -0.52534074 -0.1275409 0.115282856 -0.34698468 0.3633975
0.2451394 0.50942 -0.36723948 -0.010439567 -0.4510624 -0.21447735 0.2522002 -0.82015043
-0.55011696 0.32201985 -0.10109811 -0.23413336 0.33292213 -0.42190138 0.46741974 0.23568851
-0.6554083 -0.13781527 0.0041790227 -0.63597107 0.2984309 0.54350156 0.28778264 -0.6720343
-0.528671 0.5262119 -0.34718814 0.03324929 -0.4884163 -0.0709732 0.5740213 -0.05730879
0.046029016 -0.03213037 0.4206154 -0.23344551 0.19215868 -0.13956393 -0.12001324 -0.15956736
-0.0921287 -0.07457726 -0.32515338 -0.2290145 -0.17009743 -0.26079568 0.15725328 0.11006414
0.23535627 0.51943284 -0.29350775 0.3293957 0.0039217467 0.080915354 0.24518889 -0.25998208
-0.23153542 -0.42732966 -0.49428436 -0.024322055 0.09307857 -0.10861674 -0.06614159 -0.12558581
-0.017862435 -0.28433812 0.119521774 -0.18994 -0.006137507 0.103335075 0.073387064 -0.24438189
0.22483541 -0.04295401 0.4073924 -0.062355924 0.22492895 0.18454325 0.19029436 -0.26055685
-0.071776055 -0.1062942 0.129708 -0.12238037 0.17146398 -0.0447684 0.14108172 0.28373706
-0.021113938 -0.018714992 -0.13303728 -0.20732127 0.00854525 0.27459577 0.15186816 -0.21374914
-0.31369954 0.14495827 -0.24561307 -0.2922613 0.24915841 0.13264361 0.124235265 0.11637516
-0.13599762 -0.083198935 -0.7308798 -0.34712008 -0.18995969 -0.3531436 -0.05326491 -0.25801533
0.21024434 0.29572305 0.037450437 -0.12333121 0.14104135 0.044752054 0.31297353 -0.05446863
-0.33166257 -0.29624408 0.47525975 0.13331376 0.16080354 0.35268673 0.029071733 -0.051326055
-0.116531454 0.22152956 0.10100153 -0.34529576 0.030288318 -0.18349093 -0.21039195 0.20688422
-0.12393523 -0.15320158 0.10702892 -0.10158463 -0.13905461 0.23075098 -0.109651916 -0.366726
0.28379223 -0.4148797 0.36441687 -0.12703413 -0.04503978 -0.13449487 -0.19484332 0.0032985737
0.1519847 0.13028932 -0.28812543 -0.00567246 -0.14340699 0.18627228 0.41649264 -0.07963797

model.8.bias f4 [12]
00000000: 72e7 583e e133 b9be 47ac 8cbd 4cd9 933d
00000010: 9d5d 0c3e 41bc f13c 265e ddbd baf5 44bc
00000020: bf0d 92bd d0e0 14be 7abc 1ebe f21d b53d
0.2118204 -0.36172393 -0.06868797 0.072191805 0.13707586 0.029508712 -0.10808973 -0.012021476
-0.07131528 -0.14538884 -0.15501586 0.08843602
