models/NN_anova_multi.model (torch, 739611 bytes, 10 tensors)

model.0.weight f4 [512, 20]
0.1329191 0.0587706 -0.11033422 0.39350107 0.2724937 -0.090455085 0.0058846 -0.009341124
-0.23985016 0.042547796 0.094401665 0.099032775 -0.0068432777 -0.057820972 0.017010301 0.022983415
0.211944 -0.008226963 0.28326544 -0.07082461 -0.34918216 -0.14108245 -0.28383645 0.23919195
-0.06670234 -0.09045578 0.13770194 -0.09272614 -0.21107647 -0.19645804 -0.1820401 -0.07505315
0.37395412 0.2557245 -0.19373114 -0.2196642 0.24254134 -0.23558722 0.5084268 0.0011743401
0.041456006 0.19140635 -0.07150481 0.35668275 -0.035718724 -0.10754002 0.160932 0.11743411
0.059025552 0.032295346 0.20193577 0.007490626 0.24719986 0.19147438 -0.16928458 -0.12230225
0.06029922 0.06958956 0.86142206 0.26859346 0.38897663 -0.059192166 -0.16835356 0.06980624
0.35596922 0.16810112 0.028840737 0.26761672 0.078035526 -0.14495593 0.063862525 0.20396987
0.27812067 0.21704024 0.047747754 -0.0033821804 0.54397744 -0.13329989 0.43975005 -0.34648675
-0.010362716 -0.10378792 -0.10241846 0.30316013 0.032778587 -0.050163157 -0.005836453 0.035471488
0.1269525 -0.005806758 0.06966398 0.23507562 0.15800837 -0.19504508 -0.16152574 0.2726985
-0.13089271 0.27263582 1.3364041 0.1238862 0.13044824 -0.40379465 0.12976606 0.24078529
-0.0812482 -0.109702446 0.11721741 -0.42808184 0.16111092 -0.03657488 0.0032712359 -0.21817891
-0.1630988 0.039412953 0.047334123 -0.11381708 -0.0073246453 -0.26000047 0.95218927 0.09273777
0.11802043 0.116393715 0.19813636 0.01611488 0.010127731 0.0472005 -0.077114046 -0.012098539
0.17922801 0.14052166 0.45882773 0.46616906 0.31795755 0.30653808 0.19825768 -0.1587011
0.29888013 0.013825008 0.39816707 -0.32986528 0.018878106 -0.07959365 -0.016315216 0.07493196
0.08138163 0.110395476 -0.16068529 0.14950503 -0.26444712 -0.07130644 -0.21528482 0.33149096
0.15998408 0.19560531 -0.095934816 -0.1000121 0.18910347 0.028182993 -0.09439845 -0.047212366
0.0032694119 0.14446422 0.09308483 0.18621734 0.22298323 -0.16886055 -0.001365226 0.2947449
-0.12365747 -0.09242833 0.17127429 0.39851052 0.34349492 -0.016953826 -0.02747832 -0.054281164
0.03908661 0.12916198 0.89455664 -0.18358187 -0.15428655 -0.06213494 0.20263562 0.30423316
-0.23984769 0.060530093 -0.016447952 0.054746084 0.12237941 0.08368724 0.1855162 -0.15769649
0.08098626 0.03623612 0.041512158 0.21958399 -0.17398058 -0.11938414 0.30130085 -0.3318406
0.04556554 0.11031506 0.025374843 -0.33821377 -0.11519608 0.013024179 0.0045163846 0.030567171
-0.14401957 0.20640688 0.26622683 0.0024864324 0.3622185 0.40821636 0.114401385 -0.14665984
0.090767406 0.08934064 -0.5247073 0.201556 0.13770065 0.2979381 0.07588866 0.08511327
0.13575226 -0.40109628 -0.30185434 0.21777384 -0.018624086 0.31487992 0.1316185 0.6977505
0.17183028 0.43290073 0.12580837 0.07922261 0.18509224 0.04716858 0.14377426 -0.53454953
-0.055380262 0.2417433 0.09174441 0.2840338 -0.34951228 -0.094044626 -0.15535331 0.10857935
-0.12673846 -0.115967415 0.2934014 0.3450084 0.1989343 0.40262145 -0.09087357 0.11855534
00000000: f21b 083e 71b9 703d e8f6 e1bd f978 c93e
00000010: 4b84 8b3e 8440 b9bd 9ad3 c03b 840b 19bc
00000020: 489b 75be 9946 2e3d a955 c13d b2d1 ca3d
00000030: 933d e0bb afd5 6cbd 3059 8b3c b747 bc3c
00000040: d907 593e 62ca 06bc 2b08 913e 7e0c 91bd
00000050: 01c8 b2be eb77 10be 0353 91be bcee 743e
00000060: 3d9b 88bd e140 b9bd bd01 0d3e 34e7 bdbd
00000070: 6e24 58be 4c2c 49be b868 3abe 77b5 99bd
00000080: ea76 bf3e 52ee 823e 7561 46be a7ef 60be
00000090: c25c 783e c73d 71be 4228 023f 51ec 993a
000000a0: c6cd 293d 0700 443e 1d71 92bd 1f9f b63e
000000b0: cc4d 12bd f13d dcbd 5ccb 243e 4b81 f03d
000000c0: c7c4 713d 2048 043d 40c8 4e3e ed73 f53b
000000d0: f621 7d3e dc11 443e f058 2dbe 9a79 fabd
000000e0: 51fc 763d f984 8e3d 2886 5c3f 1585 893e
000000f0: f227 c73e 7c73 72bd e064 2cbe 93f6 8e3d
00000100: 9941 b63e b322 2c3e 6943 ec3c 0f05 893e
00000110: 17d1 9f3d 546f 14be 5bca 823d 7add 503e
00000120: d565 8e3e cc3f 5e3e 2693 433d 92a7 5dbb
00000130: 1b42 0b3f c47f 08be eb26 e13e b666 b1be
00000140: 62c8 29bc c38e d4bd c5c0 d1bd ce37 9b3e
00000150: d742 063d e277 4dbd b73f bfbb 8d4a 113d
00000160: d6ff 013e 9e46 bebb fdab 8e3d aab7 703e
00000170: f2cc 213e e6b9 47be 0167 25be 239f 8b3e
00000180: bd08 06be ec96 8b3e 4a0f ab3f 0cb8 fd3d
00000190: 3994 053e 2cbe cebe 65e1 043e 6b90 763e
000001a0: 7565 a6bd adab e0bd ae0f f03d 8b2d dbbe
000001b0: 43fa 243e 8bcf 15bd 3b62 563b 4b6a 5fbe
000001c0: 5f03 27be 7a6f 213d 6de1 413d ee18 e9bd
000001d0: 9403 f0bb c81e 85be adc2 733f 4ded bd3d
000001e0: b2b4 f13d d45f ee3d 42e4 4a3e 5a03 843c
000001f0: c8ee 253c 5055 413d f8ed 9dbd f338 46bc
00000200: 8c87 373e e9e4 0f3e 78eb ea3e b6ad ee3e
00000210: 55cb a23e 8ff2 9c3e 1004 4b3e 8b82 22be
00000220: d106 993e 4982 623c 8edc cb3e 1ae4 a8be
00000230: 42a6 9a3c ff01 a3bd 7da7 85bc ed75 993d
00000240: 69ab a63d 0617 e23d af8a 24be d917 193e
00000250: 9d65 87be 1c09 92bd a073 5cbe 2fb9 a93e
00000260: ded2 233e c24c 483e 7979 c4bd 25d3 ccbd
00000270: 57a4 413e 05e0 e63c f953 c1bd c161 41bd
00000280: a143 563b 6eee 133e 42a3 be3d c2af 3e3e
00000290: b755 643e c8e9 2cbe 62f1 b2ba cee8 963e
000002a0: 2140 fdbd 104b bdbd 8762 2f3e 9209 cc3e
000002b0: 91de af3e c0e2 8abc 371a e1bc ed55 5ebd
000002c0: 4819 203d 0a43 043e aa01 653f e3fc 3bbe
000002d0: 4bfd 1dbe 3581 7ebd b67f 4f3e 73c4 9b3e
000002e0: a29a 75be 67ee 773d dbbd 86bc 6e3d 603d
000002f0: 0ea2 fa3d 3764 ab3d f5f7 3d3e 307b 21be
00000300: 20dc a53d 536c 143d a708 2a3d a0da 603e
00000310: f727 32be ac7f f4bd 1b44 9a3e 03e7 a9be
00000320: efa2 3a3d ddec e13d e7de cf3c 5b2a adbe
00000330: eceb ebbd 5e63 553c 2efe 933b 0168 fa3c
00000340: de79 13be 535c 533e e24e 883e 6af3 223b
00000350: b474 b93e bc01 d13e 464b ea3d ff2d 16be
00000360: 43e4 b93d 3af8 b63d 3853 06bf b264 4e3e
00000370: 6601 0d3e 588b 983e 846b 9b3d de4f ae3d
00000380: a402 0b3e 7e5c cdbe a78c 9abe 1b00 5f3e
00000390: 8a91 98bc f137 a13e 00c7 063e c79f 323f
000003a0: 47f4 2f3e 2aa5 dd3e e9d3 003e 773f a23d
000003b0: d288 3d3e d733 413d 8f39 133e 3dd8 08bf
000003c0: 6ad6 62bd 8e8b 773e 7ee4 bb3d e16c 913e
000003d0: 46f3 b2be 789a c0bd f014 1fbe da5e de3d
000003e0: bac7 01be 5380 edbd b538 963e f1a4 b03e
000003f0: 6fb5 4b3e 6624 ce3e ec1b babd 24cd f23d

model.0.bias f4 [512]
-0.2850591 -0.06841637 -0.04728259 -0.42662644 -0.12457577 -0.110086314 -0.5364754 -0.41568324
-0.2748328 0.038200635 0.042568218 -0.4586394 -0.18769805 -0.45622852 -0.35207224 -0.6205926
0.1819571 -0.09450803 -0.63175935 -0.0761175 0.27758414 -0.3253569 0.088645324 -0.36273435
-0.32602066 -0.3001643 -0.39412597 -0.47954196 -0.23844466 -0.016878823 -0.42066005 -0.046996713
-0.29447827 -0.20870109 0.13229324 -0.12295034 0.09938353 -0.2317812 -0.5164904 -0.24400806
0.1346861 -0.041173674 0.010101288 -0.2847362 -0.10685302 -0.2037379 -0.26149186 -0.44910836
-0.68572056 -0.2699337 0.15870507 0.19411434 -0.18401787 -0.25511834 -0.37648895 0.04180428
-0.73370224 -0.5661235 0.20509103 -0.4717733 -0.12633511 -0.46037188 0.24657254 -0.2066533
-0.16798627 0.0010696393 -0.38273233 -0.28552902 -0.09266685 -0.1926343 -0.18624896 -0.15965864
-0.3421596 0.07261797 -0.3063656 -0.40609998 -0.13080719 -0.3579973 -0.41476452 -0.21050104
-0.81857955 -0.44627932 -0.54572725 0.33846912 -0.029006353 -0.18222183 -0.29062253 -0.29186898
-0.4682868 -0.14587206 -0.3984169 -0.20221424 -0.012303165 -0.27068737 -0.65310925 -0.47145122
-0.10842541 -0.30411625 0.24228539 0.07922014 -0.5704867 -0.21009447 -0.31204253 -0.19322789
-0.05423595 0.124231145 0.027401345 -0.029209238 0.061769333 -0.28749442 -0.020198038 -0.12047258
-0.29319316 -0.27317068 -0.12865594 0.32329822 -0.05289763 0.28190288 -0.57536185 -0.41458264
-0.37977502 0.082426436 -0.37478888 -0.46758133 -0.17905924 0.057945903 0.16858995 -0.08890627
-0.45304662 -0.12576011 -0.27583668 -0.2953708 -0.26425546 -0.4009075 0.10324427 -0.1551864
0.20399629 0.2534951 -0.3479712 -0.19393589 0.21327429 -0.13776204 0.17544848 -0.34142163
-0.2144374 -0.039443787 -0.13151705 -0.4150481 -0.29327413 -0.57033056 0.08523055 -0.24873689
-0.16151284 -0.18278028 -0.30594662 0.3378513 0.15244547 0.30861357 -0.5185811 -0.013044877
-0.068848446 -0.10761864 0.04868586 -0.17263995 -0.28560287 0.14098252 -0.026117302 -0.33132187
-0.018120836 -0.2553404 0.003552022 -0.4233651 -0.30994087 -0.264369 -0.19505402 -0.32072523
-0.3393179 -0.36721092 -0.39565784 0.3354107 -0.51161474 -0.3252204 -0.22966775 -0.37383634
0.32146144 0.12846704 -0.5776195 -0.31302828 -0.3404399 -0.2639373 -0.1624636 -0.20543902
-0.2620579 -0.5043975 -0.08825882 -0.40899554 0.17198397 -0.34322375 -0.21300088 -0.32949394
-0.6313409 -0.3405422 -0.19221762 -0.52263033 -0.33939597 -0.32022125 -0.5356824 -0.48541212
-0.28976142 -0.2369393 0.0914288 0.04326341 -0.12059241 -0.18971767 -0.17019993 -0.2527205
-0.28596142 0.15241975 -0.04802863 -0.46999747 0.38865632 0.30946976 -0.25383857 -0.51813847
0.1001288 -0.09067616 -0.14678861 -0.37864092 0.008220833 -0.22866122 -0.43398157 -0.14788148
-0.5467015 -0.36963713 0.10412653 -0.13704646 0.08959155 -0.25590444 -0.28379318 -0.2348784
-0.2526654 -0.019988187 -0.09779541 0.38928756 -0.022775572 -0.07210057 -0.022576194 0.30641982
0.0910089 -0.35719624 -0.37702343 -0.35149792 -0.3865889 -0.30044273 -0.21655115 0.17400607
00000000: 44f3 91be e21d 8cbd 64ab 41bd c86e dabe
00000010: 9521 ffbd ef74 e1bd 7456 09bf 6fd4 d4be
00000020: e2b6 8cbe 4578 1c3d 035c 2e3d c9d2 eabe
00000030: eb33 40be c996 e9be d042 b4be 28df 1ebf
00000040: f652 3a3e 6d8d c1bd fbba 21bf 7ee3 9bbd
00000050: 821f 8e3e 2e95 a6be ae8b b53d 51b8 b9be
00000060: 2eec a6be 23af 99be e1ca c9be 8686 f5be
00000070: d62a 74be 7545 8abc c160 d7be a07f 40bd
00000080: dbc5 96be bdb5 55be e177 073e 63cd fbbd
00000090: 9889 cb3d 0d58 6dbe b738 04bf 40dd 79be
000000a0: 27eb 093e baa5 28bd df7f 253c f1c8 91be
000000b0: c2d5 dabd aba0 50be 43e2 85be 88f1 e5be
000000c0: 628b 2fbf c034 8abe 9583 223e e9c5 463e
000000d0: 2e6f 3cbe df9e 82be 29c3 c0be f73a 2b3d
000000e0: e9d3 3bbf 78ed 10bf 6203 523e 458c f1be
000000f0: fe5d 01be ddb5 ebbe 837d 7c3e ec9c 53be
00000100: 9804 2cbe 2433 8c3a 7ef5 c3be dc30 92be
00000110: 1ec8 bdbd ed41 45be 0cb8 3ebe 8e7d 23be
00000120: 8b2f afbe bbb8 943d f4db 9cbe 56ec cfbe
00000130: 52f2 05be 6c4b b7be 045c d4be 968d 57be
00000140: 6e8e 51bf b97e e4be c8b4 0bbf d34b ad3e
00000150: bb9e edbc 5c98 3abe 7acc 94be da6f 95be
00000160: 4ac3 efbe 7c5f 15be 4dfd cbbe 4011 4fbe
00000170: 3793 49bc 8997 8abe 2b32 27bf 0e62 f1be
00000180: 240e debd 20b5 9bbe a919 783e 2b3e a23d
00000190: 6b0b 12bf 0123 57be 0ac4 9fbe 88dd 45be
000001a0: 8426 5ebd e66c fe3d c978 e03c 3648 efbc
000001b0: d701 7d3d 7832 93be 5b76 a5bc 54ba f6bd
000001c0: 6a1d 96be 07dd 8bbe 62be 03be 5887 a53e
000001d0: 2fab 58bd 9355 903e ea4a 13bf 2d44 d4be
000001e0: df71 c2be 31cf a83d 54e4 bfbe d266 efbe
000001f0: 4e5b 37be af58 6d3d d8a2 2c3e 7e14 b6bd
00000200: baf5 e7be 42c7 00be 773a 8dbe d73a 97be
00000210: 7e4c 87be bf43 cdbe bb71 d33d 2fe9 1ebe
00000220: 67e4 503e 1cca 813e 4829 b2be 2197 46be
00000230: 9364 5a3e 7e11 0dbe c4a8 333e d1ce aebe
00000240: 7a95 5bbe cf8f 21bd 68ac 06be 2f81 d4be
00000250: 0728 96be 2f01 12bf 5b8d ae3d e2b4 7ebe
00000260: 9f63 25be c12a 3bbe 09a5 9cbe d8fa ac3e
00000270: aa1a 1c3e 9902 9e3e bbc1 04bf 2eba 55bc
00000280: 6a00 8dbd 2967 dcbd d36a 473d 87c8 30be
00000290: 8a3a 92be b95d 103e f4f3 d5bc 05a3 a9be
000002a0: 2672 94bc fabb 82be 0ac9 683b 4fc3 d8be
000002b0: 92b0 9ebe 605b 87be 3ebc 47be 1936 a4be
000002c0: 13bb adbe 1203 bcbe aa93 cabe f4ba ab3e
000002d0: 2ff9 02bf 4a83 a6be 062e 6bbe 7a67 bfbe
000002e0: 9896 a43e dd8c 033e dfde 13bf 3e45 a0be
000002f0: 234e aebe ca22 87be dc5c 26be 9b5e 52be
00000300: 742c 86be 3220 01bf 0ac1 b4bd dd67 d1be
00000310: 911c 303e 06bb afbe e71c 5abe 6eb3 a8be
00000320: 8f9f 21bf 8c5b aebe b2d4 44be 1acb 05bf
00000330: 4fc5 adbe 0af4 a3be 7b22 09bf f087 f8be
00000340: 9c5b 94be 37a0 72be 063f bb3d f934 313d
00000350: 27f9 f6bd 5945 42be e448 2ebe 9564 81be
00000360: 8969 92be ec13 1c3e abb9 44bd 82a3 f0be
00000370: f6fd c63e d272 9e3e 21f7 81be b9a4 04bf
00000380: 5410 cd3d 6cb4 b9bd c14f 16be 39dd c1be
00000390: acb0 063c 2b26 6abe d532 debe 3e6e 17be
000003a0: a1f4 0bbf 1441 bdbe 4a40 d53d e855 0cbe
000003b0: c67b b73d e805 83be 574d 91be f783 70be
000003c0: 5c5d 81be 44be a3bc f648 c8bd b350 c73e
000003d0: d693 babc 77a9 93bd b6f1 b8bc 0fe3 9c3e
000003e0: e062 ba3d 6de2 b6be 3709 c1be 89f7 b3be
000003f0: fbee c5be a1d3 99be 96bf 5dbe a62e 323e

model.2.weight f4 [256, 512]
0.11284153 -0.084372506 0.2064414 -0.14433843 0.2302554 0.05319609 0.11162926 -0.05825012
0.057794794 0.12671287 0.019206112 -0.28634125 0.1380184 -0.44795752 0.037017506 -0.30699593
-0.25054422 -0.2808619 0.098833635 -0.37500092 -0.25120348 0.010076585 -0.0070126993 -0.31485516
0.008969988 0.20451976 0.004349569 -0.16987795 -0.4110173 -0.545469 0.13486253 0.09928507
-0.4912445 0.21420053 -0.39792374 0.09543403 -0.29178792 0.15345046 0.098621994 0.19298813
-0.5478877 -0.25112328 0.29511455 -0.13106962 -0.07830234 -0.2334196 -0.18752062 0.15995401
0.05305944 -0.027912695 0.07628579 0.088017955 -0.26752365 0.018555589 0.12899782 -0.074380234
0.19652109 0.39685178 -0.116736196 -0.013036631 -0.09531589 -0.18822862 -0.02923192 -0.10588975
-0.17769735 -0.5254623 0.08908358 0.13473994 0.046133757 0.033720028 0.0197765 0.06249214
0.057287376 -0.02879692 -0.049424123 -0.3058042 0.03746665 -0.09066892 0.039755613 -0.036974054
-0.13744241 -0.107896835 -0.35953757 -0.05199212 -0.19165538 -0.0004864097 0.043593712 -0.13456213
0.16737187 -0.17048346 -0.2527043 -0.6960628 0.10509633 -0.25036016 -0.26600754 -0.25182083
-0.052842997 -0.3865786 -0.16901335 0.14688107 0.26800057 0.07622546 0.4036838 -0.33005986
0.23882224 0.14164023 0.086377 0.066551276 -0.3553102 0.13431202 0.17335528 0.06635759
0.029607158 -0.020506231 -0.7583774 0.48563612 -0.22163562 -0.19815524 0.2231886 -0.15535004
-0.07615629 0.03898017 -0.03989162 -0.03677139 -0.10177551 0.06520708 -0.00026788676 -0.2845744
-0.1618028 -0.10252219 -0.09520783 -0.2794638 0.066268675 -0.015109282 0.01077833 0.048008546
-0.3186796 -0.07828702 -0.44848832 0.03833538 -0.004427878 -0.040715914 0.1649098 0.032009125
-0.023865907 0.015126967 -0.12760852 -0.1931396 -0.15131977 -0.795538 0.009501814 -0.0798021
-0.15818477 -0.5541551 0.20102955 -0.0102678025 -0.2864587 -0.043195043 -0.16987075 -0.25330395
0.34123886 -0.043911636 -0.069468096 0.015473561 -0.03005733 -0.4816663 0.10377219 -0.26292357
-0.160444 0.15740891 0.022903189 0.10458701 -0.0628499 0.02503016 -0.04589252 -0.14864643
0.059963904 -0.05289027 -0.028491406 -0.57789314 -0.060815737 0.3106146 0.16456327 -0.02131355
-0.3627429 0.39233214 0.3081005 0.3790111 -0.106794685 -0.03853989 -0.10288199 0.0071434104
0.18134049 -0.08345243 -0.06756891 -0.0020871211 -0.0124476375 0.056247983 0.04828045 0.12026419
0.05881208 -0.57382476 -0.14542793 0.16906366 -0.4092016 0.008186726 0.062327147 0.16584872
-0.6543205 0.09375894 -0.12380274 -0.1289798 -0.14328952 -0.04374108 0.08009969 0.32514
0.027565323 -0.042799093 -0.30252725 -0.037553433 -0.25467616 -0.3240144 -0.33811498 -0.029606633
0.015298216 0.1751157 -0.13724603 0.08121771 -0.34565258 0.007167431 0.0025295601 0.09289177
0.07472213 -0.08322187 0.0824625 0.15800045 0.11933899 -0.33330736 -0.094613485 -0.2479969
-0.0096382275 0.10741971 0.059740804 -0.31474274 -0.0032272472 0.015476515 -0.01026075 0.011597035
-0.35485232 -0.09771193 0.25119713 0.24315692 -0.5333767 0.0011666894 0.080906935 -0.01236117
00000000: 7619 e73d 7ecb acbd 6065 533e 74cd 13be
00000010: 12c8 6b3e 25e4 593d e29d e43d ae97 6ebd
00000020: 3cba 6c3d 05c1 013e 2356 9d3c 529b 92be
00000030: b254 0d3e b05a e5be ab9f 173d 922e 9dbe
00000040: 5547 80be 22cd 8fbe 4a69 ca3d 1f00 c0be
00000050: be9d 80be 4318 253c c9ca e5bb b234 a1be
00000060: dbf6 123c a16d 513e d486 8e3b 7cf4 2dbe
00000070: dc70 d2be dba3 0bbf 6719 0a3e f955 cb3d
00000080: 6684 fbbe 6257 5b3e a9bc cbbe eb72 c33d
00000090: 3a65 95be 1e22 1d3e 54fa c93d ae9e 453e
000000a0: 5e42 0cbf 3b93 80be 4119 973e 1d37 06be
000000b0: fa5c a0bd 8c05 6fbe 6805 40be fcca 233e
000000c0: db54 593d 2aa9 e4bc b93b 9c3d c242 b43d
000000d0: dcf8 88be e401 983c 0118 043e aa54 98bd
000000e0: d33c 493e 2830 cb3e 6313 efbd 9897 55bc
000000f0: fa34 c3bd 01bf 40be c877 efbc badc d8bd
00000100: 4bf6 35be b384 06bf 7471 b63d 44f9 093e
00000110: c0f6 3c3d 031e 0a3d 5402 a23c c2f7 7f3d
00000120: 2ba6 6a3d 85e7 ebbc f370 4abd 5e92 9cbe
00000130: a176 193d a0b0 b9bd c8d6 223d 1b72 17bd
00000140: b4bd 0cbe 04f9 dcbd 4f15 b8be b0f5 54bd
00000150: 4f41 44be ce04 ffb9 528f 323d a8ca 09be
00000160: 8863 2b3e 3793 2ebe 7562 81be 2c31 32bf
00000170: bf3c d73d 352f 80be 2432 88be a9ee 80be
00000180: e671 58bd a1ed c5be d611 2dbe fe67 163e
00000190: 5f37 893e 181c 9c3d a5af ce3e 9bfd a8be
000001a0: d18d 743e 230a 113e 6de6 b03d 094c 883d
000001b0: 38eb b5be 1789 093e 0c84 313e 7de6 873d
000001c0: b68a f23c affc a7bc 0525 42bf 4ca5 f83e
000001d0: 73f4 62be 35e9 4abe 8d8b 643e 1514 1fbe
000001e0: d4f7 9bbd aca9 1f3d 6565 23bd 999d 16bd
000001f0: ae6f d0bd 4a8b 853d 2773 8cb9 bcb3 91be
00000200: a2af 25be 27f7 d1bd 53fc c2bd e115 8fbe
00000210: dfb7 873d ec8c 77bc 9897 303c 9ca4 443d
00000220: f929 a3be f254 a0bd 43a0 e5be 8f05 1d3d
00000230: bc17 91bb bbc5 26bd 1dde 283e 001c 033d
00000240: 6f82 c3bc 19d7 773c cfab 02be 63c6 45be
00000250: 92f3 1abe 61a8 4bbf 7fad 1b3c 496f a3bd
00000260: 30fb 21be 1cdd 0dbf b1da 4d3e 493a 28bc
00000270: b7aa 92be 49ed 30bd 99f2 2dbe 0eb1 81be
00000280: dcb6 ae3e b0dc 33bd 4a45 8ebd d284 7d3c
00000290: ca3a f6bc f79c f6be 8486 d43d eb9d 86be
000002a0: 6f4b 24be cd2f 213e 789f bb3c b731 d63d
000002b0: 73b7 80bd 0d0c cd3c ccf9 3bbd c536 18be
000002c0: b69c 753d 78a3 58bd cf66 e9bc cef0 13bf
000002d0: ec19 79bd e008 9f3e 4683 283e c199 aebc
000002e0: 70b9 b9be c2df c83e 59bf 9d3e be0d c23e
000002f0: 2cb7 dabd 01dc 1dbd cbb3 d2bd 4513 ea3b
00000300: 52b1 393e 1ce9 aabd 9261 8abd 15c8 08bb
00000310: 2df1 4bbc 4964 663d b9c1 453d 124d f63d
00000320: f0e4 703d 2ee6 12bf 0feb 14be 061f 2d3e
00000330: df82 d1be 9e21 063c c04a 7f3d 3fd4 293e
00000340: 8c81 27bf b004 c03d 4a8c fdbd 4813 04be
00000350: 7dba 12be d929 33bd 4e0b a43d c078 a63e
00000360: acd0 e13c 1a4e 2fbd dae4 9abe a1d1 19bd
00000370: ea64 82be 37e5 a5be 681d adbe 9c89 f2bc
00000380: 5ea5 7a3c 8851 333e 398a 0cbe 7955 a63d
00000390: 60f9 b0be c5dc ea3b fac6 253b 0a3e be3d
000003a0: eb07 993d 3a70 aabd 19e2 a83d dfca 213e
000003b0: 0068 f43d 43a7 aabe b7c4 c1bd e6f2 7dbe
000003c0: a8e9 1dbc ddfe db3d c6b2 743d f625 a1be
000003d0: 3980 53bb 3591 7d3c b41c 28bc 7e01 3e3c
000003e0: 34af b5be 311d c8bd e99c 803e 21fe 783e
000003f0: 608b 08bf 9aeb 983a 89b2 a53d 8186 4abc

model.2.bias f4 [256]
-0.08388215 0.039826933 -0.015385486 -0.18764114 -0.16488801 -0.45197052 0.047807295 0.010254205
0.32472405 0.04047748 0.07148102 -0.22272979 0.013046796 0.047253415 -0.22662796 -0.39129618
-0.62362933 -0.18288156 0.4399746 -0.50278044 -0.18105313 -0.011102697 0.14954706 -0.3819599
-0.02551467 -0.40414765 0.37682047 0.4279434 -0.52050024 0.28943533 -0.33146146 -0.11505501
-0.077931434 0.05606561 -0.124678016 -0.018448228 -0.6053158 0.26253828 0.023470292 0.24037334
0.20769168 0.49156836 -0.17467035 -0.016173664 0.3837627 0.19775186 -0.5143911 -0.2852881
-0.1760963 0.06960528 -0.06649165 -0.11235421 -0.25173125 -0.4135886 0.19199744 -0.15549682
-0.11849619 -0.049477812 -0.13332735 -0.3305373 -0.17008929 -0.095042415 0.060658116 -0.37177843
-0.27853423 -0.11700214 0.032354977 -0.14891489 -0.020367771 0.077163294 -0.18751135 -0.06997909
-0.1265297 -0.21813758 0.010042123 0.07481472 -0.35925755 0.080007225 -0.20075658 0.4703389
-0.17583048 0.17167662 0.33206844 0.02374284 -0.067593865 -0.023650648 0.02490599 -0.40463877
0.3305587 0.1386752 0.10155826 -0.047704164 -0.3962051 -0.2608598 -0.18067008 0.0862076
-0.020473635 -0.17517269 -0.16152154 -0.16610761 -0.1867691 0.047912024 0.3462426 -0.026598342
-0.030505734 0.43079752 0.011015875 -0.07616723 0.013161697 -0.09077743 -0.24831878 -0.1933271
-0.13363831 0.32351544 -0.046423927 -0.028284065 0.1821395 0.124795265 -0.06920718 -0.21035159
-0.15926082 -0.14999454 0.10079143 -0.58424664 -0.31532484 -0.09347507 -0.05102403 0.12104264
-0.44541374 -0.12871481 -0.37508497 0.23457661 0.21701205 -0.13347112 0.4808745 0.052634943
0.15949358 0.04621388 0.003658154 -0.43192706 -0.4250217 -0.37965807 -0.18696134 -0.045285996
-0.04622986 -0.20343685 -0.3921714 -0.11706752 -0.34089807 -0.09798189 -0.44071573 0.11980718
0.010588702 -0.1532613 0.2168812 -0.01221105 -0.32469755 0.0075654103 -0.19528934 -0.3199649
-0.017568773 0.024683869 0.04818899 0.20507026 -0.4460641 0.42900735 -0.20003025 0.11971592
-0.1099429 -0.039394088 -0.41724816 -0.03524328 -0.16932397 0.023612149 -0.36912537 -0.080789894
0.12523997 0.33219925 -0.20829436 -0.38127857 -0.04926854 -0.2449512 -0.14375189 0.0033125798
-0.01805367 -0.011992583 0.1537809 0.029293396 0.18924566 0.09796135 -0.028958557 -0.009637936
-0.15445179 -0.22420624 -0.20666859 -0.015868424 0.070086315 0.032221463 -0.09563576 -0.27189478
0.32765344 0.05309568 -0.6262074 0.09537167 -0.024641542 -0.5843432 -0.16662946 0.086950466
0.25965685 -0.005157312 -0.5266252 0.10009203 0.052287232 -0.02556204 0.062746406 0.32509696
-0.44793716 0.16415218 0.089211084 0.008587585 0.049899563 -0.049979083 -0.21366851 0.18146184
0.020520614 -0.28440914 -0.45792538 0.034699187 0.0010652584 0.00086790853 -0.06019408 -0.35945585
-0.22539388 -0.10949735 -0.053858895 -0.22221476 -0.22071347 -0.0599268 -0.007330207 0.13219114
-0.04965804 -0.6495965 -0.116802186 0.073906414 0.023135662 0.14450173 -0.4366985 -0.3792106
-0.00039315497 0.06998805 0.01494014 -0.007215201 0.04197712 -0.034140803 -0.004377997 0.023953335
00000000: 68ca abbd 9121 233d 6813 7cbc 0025 40be
00000010: 67d8 28be ae68 e7be 95d1 433d 4101 283c
00000020: 3b42 a63e b7cb 253d a464 923d 4713 64be
00000030: 3bc2 553c cc8c 413d 2911 68be f957 c8be
00000040: 2ca6 1fbf 4e45 3bbe 5a44 e13e 38b6 00bf
00000050: fe65 39be 16e8 35bc dd22 193e 3f90 c3be
00000060: 2404 d1bc 71ec cebe 9dee c03e 661b db3e
00000070: 813f 05bf de30 943e 51b5 a9be f6a1 ebbd
00000080: 849a 9fbd 0ea5 653d 3057 ffbd bd20 97bc
00000090: faf5 1abf 6b6b 863e c544 c03c 6e24 763e
000000a0: 21ad 543e d9ae fb3e c9dc 32be a27e 84bc
000000b0: 8b7c c43e 777f 4a3e 23af 03bf 4811 92be
000000c0: 9752 34be 378d 8e3d c62c 88bd f719 e6bd
000000d0: ebe2 80be e3c1 d3be fa9a 443e 8f3a 1fbe
000000e0: 21ae f2bd 3fa9 4abd f786 08be 2f3c a9be
000000f0: e32b 2ebe 99a5 c2bd a574 783d be59 bebe
00000100: 0a9c 8ebe d19e efbd a786 043d 257d 18be
00000110: 50da a6bc ca07 9e3d fa02 40be 3251 8fbd
00000120: 0091 01be 755f 5fbe b787 243c 7638 993d
00000130: 9bf0 b7be d4da a33d 2293 4dbe 43d0 f03e
00000140: e80c 34be ffcb 2f3e e004 aa3e 5880 c23c
00000150: a76e 8abd 01bf c1bc a607 cc3c d02c cfbe
00000160: fd3e a93e df00 0e3e c7fd cf3d 7165 43bd
00000170: 65db cabe 6a8f 85be 9401 39be 9c8d b03d
00000180: 53b8 a7bc 7860 33be e765 25be 1d18 2abe
00000190: 6640 3fbe 663f 443d b646 b13e c4e4 d9bc
000001a0: 29e7 f9bc 7e91 dc3e ee7b 343c 91fd 9bbd
000001b0: 29a4 573c 84e9 b9bd 4747 7ebe 8af7 45be
000001c0: 7bd8 08be d1a3 a53e 0427 3ebd fcb3 e7bc
000001d0: c782 3a3e a994 ff3d 7ebc 8dbd 6866 57be
000001e0: 4515 23be 2b98 19be bd6b ce3d 3091 15bf
000001f0: 4272 a1be dc6f bfbd 93fe 50bd 34e5 f73d
00000200: 450d e4be d1cd 03be 230b c0be da34 703e
00000210: 6838 5e3e a7ac 08be 2f35 f63e bd97 573d
00000220: 4952 233e c44a 3d3d a4bd 6f3b 8b25 ddbe
00000230: 729c d9be 8b62 c2be cb72 3fbe cf7d 39bd
00000240: 865b 3dbd c051 50be b1ca c8be 19c1 efbd
00000250: 318a aebe bbaa c8bd 7ea5 e1be 775d f53d
00000260: 3c7c 2d3c 88f0 1cbe 1b16 5e3e db10 48bc
00000270: c23e a6be 43e7 f73b eef9 47be 70d2 a3be
00000280: 63ec 8fbc d335 ca3c d261 453d f0fd 513e
00000290: 8462 e4be daa6 db3e bbd4 4cbe 9f2d f53d
000002a0: be29 e1bd b25b 21bd 8da1 d5be 425b 10bd
000002b0: 4363 2dbe 446e c13c 00fe bcbe 2c75 a5bd
000002c0: e83e 003e 0516 aa3e 1e4b 55be f236 c3be
000002d0: cfcd 49bd 7dd4 7abe b233 13be de17 593b
000002e0: 4ae5 93bc 8a7c 44bc be78 1d3e b4f8 ef3c
000002f0: 9dc9 413e f69f c83d 7f3a edbc 6fe8 1dbc
00000300: 9c28 1ebe 5296 65be eea0 53be 7ffe 81bc
00000310: 6a89 8f3d a7fa 033d aedc c3bd cb35 8bbe
00000320: 31c2 a73e db7a 593d 214f 20bf 3952 c33d
00000330: 0fdd c9bc 8497 15bf eaa0 2abe 1613 b23d
00000340: bef1 843e abfe a8bb e9d0 06bf 0dfd cc3d
00000350: 232b 563d 7c67 d1bc 3081 803d 1c73 a63e
00000360: 0558 e5be 8217 283e 4db4 b63d f1b2 0c3c
00000370: 7c63 4c3d deb6 4cbd ebcb 5abe 22d1 393e
00000380: d91a a83c 139e 91be 3275 eabe bc20 0e3d
00000390: 24a0 8b3a 5b84 633a 118e 76bd 990a b8be
000003a0: a7cd 66be 2640 e0bd 259b 5cbd 448c 63be
000003b0: b602 62be ce75 75bd 3c32 f0bb 1d5d 073e
000003c0: 3b66 4bbd f54b 26bf fc35 efbd 3f5c 973d
000003d0: 0087 bd3c 43f8 133e f296 dfbe e427 c2be
000003e0: 5e20 ceb9 e555 8f3d 7dc7 743c 7e6d ecbb
000003f0: 33f0 2b3d 3ad7 0bbd 4d75 8fbb c939 c43c

model.4.weight f4 [128, 256]
-0.00153623 -0.23766038 -0.031463467 0.028074564 0.005574031 0.28519756 -0.08041876 -0.12632698
0.0027969466 -0.040685754 -0.092431314 -0.09928535 -0.018935688 0.02882708 -0.14276205 -0.14055926
0.17199609 -0.112303056 0.11138327 0.12049535 -0.14768642 0.005293281 -0.9638641 -0.10948526
0.50928366 -0.19346206 0.15620896 0.17395818 0.41534063 0.1291956 0.15824668 -0.14607394
-0.041013233 -0.09455177 -0.025141519 -0.0044086273 0.011465432 -0.29633155 0.015752845 0.5328513
0.59957355 0.20942941 -0.26835537 0.15052995 0.30717427 -0.28231913 0.124464236 -0.13718183
-0.25929764 0.1291889 0.036994006 -0.2920707 -0.26892775 -0.19600014 -0.24299708 0.39230096
0.50166017 0.14890021 0.4459463 0.13580236 -0.049905084 -0.22312818 0.17853552 -0.30590254
-0.009429586 -0.112009756 -1.085521 -0.058147583 0.0013930519 0.515503 0.015921205 -0.10692988
0.20673145 -0.48407653 0.08655356 0.510301 0.28395712 -0.18280403 -0.159535 0.14437565
-0.020740582 -0.36652905 -0.09859576 0.052383143 0.048946086 -0.057106398 -0.10310317 -0.13229275
1.1853381 0.24037544 -0.92838645 -0.24121417 -0.15426202 0.16738011 -0.023525035 -0.08095386
-0.15674007 -0.09378062 -0.3908496 -0.123843536 -0.16637635 -0.4631271 0.016849875 0.035987705
-0.006939799 0.19789958 -0.0006367857 0.17112061 0.07057764 -0.052327495 -0.2532014 -0.055773158
0.15851177 0.012330475 -0.039299034 -0.38281402 -0.16984382 -0.79971457 -0.0755548 -0.027960595
-0.16254427 -0.25471333 -0.56054276 0.10968495 0.16539986 0.022874415 0.04788345 -0.17335726
0.34281966 0.3116738 -0.15408774 0.0016120895 -0.037701547 -0.1196481 0.12771873 -0.92209667
-0.13157496 -0.19109431 0.33753663 -0.21983184 0.23918006 0.103770584 0.119712055 0.058358017
-0.22314031 -0.0024831377 0.26351064 0.062137246 0.036329415 -0.096508674 0.030847857 -0.008698555
-0.051729284 -0.46165332 -0.0051572137 -0.033387773 -0.2316186 -0.010098244 0.12965924 -0.01765684
-0.80206466 0.31993228 0.025341138 -0.6000817 0.1940342 0.08943946 0.051399585 0.3037528
0.32897717 -0.008106585 -0.21696648 0.16969459 0.039159074 -0.28317773 -0.08640238 -0.6990388
-0.491233 1.3035951 -0.11874324 -0.141796 -0.12648946 0.49431658 -0.02265683 0.0017621686
0.023731474 -0.054865245 0.5273298 -0.23518261 -0.16345581 -0.6558264 -0.059163317 0.10763356
-0.06583803 -0.010016268 0.02210923 -0.14177555 0.2793817 0.05461012 0.110680215 0.25746614
0.3658013 0.045706272 0.22752577 -0.940659 -0.05302121 0.12900892 0.11917923 0.012815421
0.07647862 -0.040243328 -0.086579464 0.26093102 -0.12833406 0.040232103 -0.18588777 0.20957448
0.5405691 0.12352379 -0.2194181 -0.04572913 -0.019161165 -0.037163433 0.085744224 0.35273275
0.1951601 0.628281 0.4091846 -0.061606307 -0.00961285 -0.10553916 0.7033348 0.28276885
0.020841476 0.26253802 -0.054857563 -0.15735272 -0.23865844 -0.21076168 0.059371557 -1.0437933
-0.05086667 0.065763555 -0.2288528 -0.05057466 -0.07447802 0.094626024 -0.11559522 0.24921772
-0.059339043 -0.09067966 -0.028373308 0.15411685 0.22042981 0.01873326 -0.5246557 -0.069429494
00000000: 535b c9ba 3e5d 73be d6df 00bd a1fc e53c
00000010: 5ca6 b63b 6a05 923e 97b2 a4bd dc5b 01be
00000020: fa4c 373b 1ba6 26bd a14c bdbd 1e56 cbbd
00000030: 041f 9bbc c526 ec3c 3730 12be c4ee 0fbe
00000040: be1f 303e 25ff e5bd e91c e43d 44c6 f63d
00000050: 1c3b 17be 4273 ad3b ccbf 76bf cf39 e0bd
00000060: 6a60 023f eb1a 46be 3ef5 1f3e 1822 323e
00000070: 87a7 d43e da4b 043e 6b0b 223e 6894 15be
00000080: 7efd 27bd 5ca4 c1bd 96f5 cdbc 3f76 90bb
00000090: 82d9 3b3c c5b8 97be 1c0c 813c f168 083f
000000a0: a77d 193f aa74 563e e065 89be 8624 1a3e
000000b0: f245 9d3e 228c 90be 1be7 fe3d 6579 0cbe
000000c0: a9c2 84be 184a 043e 0787 173d 4a8a 95be
000000d0: e6b0 89be 43b4 48be 3ad4 78be acdb c83e
000000e0: cd6c 003f 4c79 183e 1353 e43e c60f 0b3e
000000f0: 4669 4cbd b77b 64be 04d2 363e 429f 9cbe
00000100: 8d7e 1abc 5f65 e5bd 5af2 8abf 292c 6ebd
00000110: 1197 b63a 01f8 033f 306d 823c 0efe dabd
00000120: 69b1 533e e1d8 f7be fe42 b13d 16a3 023f
00000130: d462 913e fb30 3bbe 255d 23be 36d7 133e
00000140: 27e8 a9bc b2a9 bbbe 93ec c9bd b58f 563d
00000150: b17b 483d 66e8 69bd c127 d3bd c077 07be
00000160: 29b9 973f fb24 763e bcaa 6dbf d900 77be
00000170: ddf6 1dbe b165 2b3e 93b7 c0bc 23cb a5bd
00000180: 7880 20be 0e10 c0bd 701d c8be aea1 fdbd
00000190: 905e 2abe ff1e edbe c008 8a3c d867 133d
000001a0: 4167 e3bb 30a6 4a3e f7ed 26ba 3e3a 2f3e
000001b0: 028b 903d 5b55 56bd 9da3 81be 6572 64bd
000001c0: e950 223e c305 4a3c 06f8 20bd 3300 c4be
000001d0: 8aeb 2dbe 18ba 4cbf 7abc 9abd 9e0d e5bc
000001e0: 0172 26be c969 82be bb7f 0fbf 81a2 e03d
000001f0: 955e 293e 2063 bb3c 7021 443d 9184 31be
00000200: 0f86 af3e b593 9f3e 2dc9 1dbe bf4c d33a
00000210: f06c 1abd 100a f5bd b3c8 023e 870e 6cbf
00000220: 96bb 06be 3aae 43be 9ad1 ac3e 991b 61be
00000230: 9eeb 743e ac85 d43d 982b f53d d108 6f3d
00000240: e57e 64be 23bc 22bb deea 863e a083 7e3d
00000250: 27ce 143d 57a6 c5bd a5b4 fc3c 6284 0ebc
00000260: 16e2 53bd d35d ecbe d8fd a8bb 9ec1 08bd
00000270: 6d2d 6dbe 1b73 25bc 64c5 043e 14a5 90bc
00000280: 1c54 4dbf 2ace a33e 3898 cf3c f49e 19bf
00000290: e7b0 463e 092c b73d 5f88 523d 7d85 9b3e
000002a0: b26f a83e 7bd1 04bc 762c 5ebe 6bc4 2d3e
000002b0: 4465 203d acfc 90be bbf3 b0bd 35f4 32bf
000002c0: e482 fbbe 34dc a63f a82f f3bd f832 11be
000002d0: 7486 01be 1017 fd3e d19a b9bc 91f8 e63a
000002e0: 8268 c23c 61ba 60bd 16ff 063f b6d3 70be
000002f0: f660 27be 3de4 27bf 3c55 72bd fc6e dc3d
00000300: 17d6 86bd 461b 24bc 6a1e b53c 9c2d 11be
00000310: 1e0b 8f3e dcae 5f3d 4fac e23d 9ad2 833e
00000320: 4f4a bb3e 8036 3b3d 84fc 683e 07cf 70bf
00000330: c52c 59bd ea1a 043e 3d14 f43d c6f7 513c
00000340: d3a0 9c3d 30d6 24bd 9350 b1bd c098 853e
00000350: 016a 03be 6bca 243d 5d59 3ebe b19a 563e
00000360: bd62 0a3f 0afa fc3d 23af 60be 784e 3bbd
00000370: e0f7 9cbc af38 18bd ab9a af3d 6399 b43e
00000380: 0dd8 473e 06d7 203f a580 d13e e556 7cbd
00000390: 377f 1dbc ea24 d8bd c00d 343f 14c7 903e
000003a0: bebb aa3c 626b 863e 53b2 60bd 1221 21be
000003b0: e162 74be e9d1 57be 972f 733d 059b 85bf
000003c0: 9259 50bd 0baf 863d 6358 6abe 6027 4fbd
000003d0: ef87 98bd 4acb c13d 30bd ecbd ee32 7f3e
000003e0: 7f0d 73bd 42b6 b9bd 246f e8bc cfd0 1d3e
000003f0: 5ab8 613e 7e76 993c d64f 06bf 0d31 8ebd

model.4.bias f4 [128]
0.065812804 0.14208922 0.19566637 0.36433762 0.20888959 -0.375209 -0.16309614 -0.15412728
-0.25977117 -0.3521203 0.29950717 -0.15838541 -0.3886216 -0.23654877 -0.31012252 -0.14699857
-0.15334775 0.06589092 0.11158878 0.03030394 -0.11758017 -0.06842413 0.30713767 -0.27276805
-0.22131948 -0.15248896 -0.16394381 -0.12456849 0.39579454 -0.034626473 0.11333517 0.2129916
-0.4754861 -0.18397255 -0.61521214 -0.011983257 -0.25733906 -0.1001269 0.05951745 0.061412267
0.2869197 -0.18901275 -0.33572057 -0.05043322 -0.3630581 -0.39909312 0.22309309 -0.27431452
0.48220557 0.12536508 0.27761206 -0.15798464 -0.14533308 0.23944412 0.20116223 -0.09432739
0.16270041 -0.108639315 -0.27647334 0.0983142 0.33699983 -0.26360506 0.25488576 0.1403803
0.3951829 0.060750585 -0.27419734 0.21745302 0.05597866 -0.29409277 0.15837087 0.21236277
-0.07717533 0.33888423 -0.14691876 -0.11137445 0.25567374 -0.060793594 0.18923856 -0.18050304
0.27415857 -0.16844991 0.16876431 -0.14431351 0.1797585 0.20619729 -0.36107752 0.65620124
-0.46723804 -0.072692044 0.28213266 -0.057660118 -0.25648072 0.30158803 0.007065443 -0.11245618
-0.038872223 -0.12066909 -0.20000648 -0.11915402 0.33672976 0.10401061 0.048333567 0.09984934
0.20460181 0.2738812 0.2411181 0.0712069 -0.450007 -0.06471831 -0.2189218 0.22289647
0.44576085 -0.19126858 -0.14343861 0.20022896 -0.23932314 -0.10972937 0.28912878 -0.3954173
0.005559408 0.24079362 -0.14291418 0.12457976 0.24236485 -0.0470742 -0.1621239 0.33781323
00000000: ddc8 863d d67f 113e c45c 483e 768a ba3e
00000010: 27e7 553e 651b c0be ad02 27be 8bd3 1dbe
00000020: ba00 85be 1d49 b4be 0159 993e c92f 22be
00000030: 69f9 c6be d739 72be 61c8 9ebe cb86 16be
00000040: 3107 1dbe d2f1 863d a988 e43d f83f f83c
00000050: dfcd f0bd f321 8cbd 2641 9d3e 41a8 8bbe
00000060: 93a1 62be 1126 1cbe e3e0 27be c41d ffbd
00000070: 95a5 ca3e 7dd4 0dbd 451c e83d 781a 5a3e
00000080: ea72 f3be 4d63 3cbe 8b7e 1dbf 6c55 44bc
00000090: f2c1 83be 550f cdbd 92c8 733d 6e8b 7b3d
000000a0: 24e7 923e 8f8c 41be 91e3 abbe 1093 4ebd
000000b0: c0e2 b9be ef55 ccbe 8472 643e f472 8cbe
000000c0: a6e3 f63e b45f 003e 2b23 8e3e bac6 21be
000000d0: 32d2 14be d730 753e 79fd 4d3e b82e c1bd
000000e0: f09a 263e 4a7e debd ea8d 8dbe f558 c93d
000000f0: 3e8b ac3e 3ef7 86be 6380 823e dabf 0f3e
00000100: 6a55 ca3e 9bd5 783d 9863 8cbe 01ac 5e3e
00000110: e149 653d 5493 96be f92b 223e a075 593e
00000120: 190e 9ebd 3c82 ad3e df71 16be 4a18 e4bd
00000130: abe7 823e b402 79bd c1c7 413e cad5 38be
00000140: 835e 8c3e 227e 2cbe 8dd0 2c3e ecc6 13be
00000150: 9d12 383e 6225 533e 27df b8be cefc 273f
00000160: d339 efbe 91df 94bd b173 903e 042d 6cbd
00000170: 7151 83be bf69 9a3e 3b85 e73b 6d4f e6bd
00000180: 7b38 1fbd 5b21 f7bd 80ce 4cbe 0607 f4bd
00000190: d867 ac3e 8403 d53d 6bf9 453d d07d cc3d
000001a0: 2383 513e 283a 8c3e aae7 763e ecd4 913d
000001b0: 5167 e6be 098b 84bd 092d 60be f93e 643e
000001c0: c43a e43e e9db 43be 92e1 12be d208 4d3e
000001d0: 2011 75be cbb9 e0bd b008 943e 2374 cabe
000001e0: b22b b63b 9a92 763e 1858 12be ac23 ff3d
000001f0: 7e2e 783e e0d0 40bd cf03 26be dbf5 ac3e

model.6.weight f4 [64, 128]
0.12413256 0.26250926 0.070502244 -0.22271904 0.14779846 0.039916053 -0.18425003 -0.17479946
-0.12594476 0.10213556 0.0785483 -0.43898657 0.14914237 -0.15920012 0.025156023 0.117049724
-0.38656238 0.29327017 0.5171048 -0.027640095 -0.017137751 -0.375635 0.3101351 -0.050504964
-0.243951 -0.18623543 0.10040117 0.02779901 -0.020382859 0.08046465 0.116268046 0.277837
0.61435217 -0.114167936 0.30369478 -0.095877476 0.054905485 -0.26711166 0.27485862 0.049855202
-0.16517797 -0.2987631 -0.029170351 -0.0460452 0.18153878 0.3746529 -0.10796964 -0.10226922
-0.019895839 -0.043342967 0.14435218 -0.29187286 -0.42730474 0.027471697 -0.2725025 -0.15593697
0.51074183 0.30263138 0.118697904 0.3629549 0.26763925 0.30217424 0.22257492 -0.17038593
0.26145285 -0.03244535 -0.089038365 0.215157 -0.33488616 0.08021737 -0.12129875 -0.0425754
-0.09006664 0.09923836 0.28161526 -0.19579715 -0.26336452 -0.09110382 -0.04159039 0.050001748
-0.15557256 0.31606963 0.38270336 0.47632837 0.030225262 -0.31372023 -0.11562571 -0.6960483
-0.33240393 -0.027449427 0.009821359 0.1812729 -0.11556645 0.21561491 -0.2806701 -0.38880208
-0.14138104 -0.041738003 -0.2563757 0.15453318 0.26451975 0.39165875 0.09455329 -0.000697349
0.25060245 0.13762653 -0.22410867 -0.019014394 -0.27545822 -0.016875865 0.17187633 0.059662867
0.578613 -0.08752051 -0.510458 0.07339284 -0.08931215 0.33773044 -0.15909769 -0.120981455
0.016958918 0.052445367 -0.07107023 0.498391 -0.2432004 0.073177636 0.046990618 -0.40920427
-0.03249023 -0.04261322 0.38677898 0.083099075 -0.111282475 -0.1398514 0.013560876 0.16812095
0.12919717 -0.12988736 -0.23021571 0.14760989 0.11349071 -0.15354438 -0.16366649 -0.2642959
0.3522524 0.015469169 0.24742635 -0.061261635 0.011514725 -0.04764563 0.004762806 -0.0778216
-0.20557053 0.08757686 0.14467502 -0.06331169 0.122453034 0.109541856 0.0027508845 -0.6559251
0.27199215 -0.15997633 -0.023272583 0.27118203 -0.002413324 0.05504242 -0.19329774 0.30589908
0.3385312 -0.0032060198 0.17118683 0.13962367 -0.28460205 0.18590687 0.1616856 0.0346265
-0.041210055 0.39798734 -0.35949904 0.021977322 -0.08772457 0.032900453 0.20847593 0.075346895
-0.42975205 -0.69788903 -0.1815546 0.063726395 0.61324525 0.10860813 0.3343605 0.22317392
0.30459714 0.42636257 -0.16800934 0.09662391 -0.19457272 -0.40364072 0.25520444 -0.06133712
0.12836294 0.16439009 0.21096079 0.060075596 0.06901245 -0.10352266 0.32087657 -0.41206998
-0.025481364 0.09199955 -0.16619447 -1.0634261 0.020159706 -0.28899235 0.039368354 0.00977486
-0.2123203 0.10815753 0.32092845 0.6209384 -0.08598281 -0.28391525 0.38033074 0.12091367
0.03750572 0.17383966 -0.36725402 0.19527635 -0.343989 0.11745933 0.16631998 0.27762038
-0.05741596 0.22149976 0.53036165 0.018505657 -0.2093521 0.31211352 -0.23942587 -0.17158009
-0.2586529 0.113231875 0.09906179 0.01184495 -0.13698892 -0.13465072 0.18795423 0.11004925
-0.022549197 0.0042722635 -0.19276644 -0.1279251 -0.02774511 0.22248092 0.08996552 -0.14230515
00000000: 3639 fe3d 9d67 863e 7b63 903d 7610 64be
00000010: 7b58 173e 047f 233d 0aac 3cbe a1fe 32be
00000020: aaf7 00be 732c d13d eedd a03d d9c2 e0be
00000030: c7b8 183e 5b05 23be 0114 ce3c c4b7 ef3d
00000040: 81eb c5be 8227 963e fb60 043f 7b6d e2bc
00000050: 7864 8cbc 3b53 c0be 07ca 9e3e 4bde 4ebd
00000060: 4ace 79be 80b4 3ebe 219f cd3d c0ba e33c
00000070: f4f9 a6bc a7ca a43d f11d ee3d a740 8e3e
00000080: 2f46 1d3f e1d0 e9bd e27d 9b3e 695b c4bd
00000090: 93e4 603d dcc2 88be 45ba 8c3e f834 4c3d
000000a0: 6a24 29be 7af7 98be a9f6 eebc e499 3cbd
000000b0: 4de5 393e 81d2 bf3e 301f ddbd 8672 d1bd
000000c0: 99fc a2bc 6588 31bd 0fd1 133e 5c70 95be
000000d0: b0c7 dabe 530c e13c 7385 8bbe f1ad 1fbe
000000e0: fabf 023f 80f2 9a3e e317 f33d 3ad5 b93e
000000f0: 0308 893e 95b6 9a3e aeea 633e a679 2ebe
00000100: 26dd 853e 6ae5 04bd bf59 b6bd 1e52 5c3e
00000110: 3376 abbe 0149 a43d 7b6b f8bd 8b63 2ebd
00000120: dc74 b8bd 7b3d cb3d e02f 903e 0c7f 48be
00000130: b7d7 86be a494 babd af5a 2abd a2ce 4c3d
00000140: 6a4e 1fbe e1d3 a13e b2f1 c33e 50e1 f33e
00000150: f89a f73c f09f a0be 2ccd ecbd 3930 32bf
00000160: d930 aabe 9fdd e0bc c4e9 203c 9a9f 393e
00000170: 1aae ecbd 28ca 5c3e feb3 8fbe 1111 c7be
00000180: 31c6 10be 78f5 2abd ad43 83be f23d 1e3e
00000190: 226f 873e 7f87 c83e 28a5 c13d 4dce 36ba
000001a0: f74e 803e f8ed 0c3e be7c 65be 13c4 9bbc
000001b0: dc08 8dbe 413f 8abc 5900 303e 0d61 743d
000001c0: fb1f 143f f43d b3bd 60ad 02bf fc4e 963d
000001d0: 4ae9 b6bd 01eb ac3e 81ea 22be 20c5 f7bd
000001e0: 6eed 8a3c f4d0 563d 458d 91bd 1b2d ff3e
000001f0: 8709 79be 28de 953d 3c79 403d 3983 d1be
00000200: 7a14 05bd 338b 2ebd e507 c63e d92f aa3d
00000210: 11e8 e3bd 3535 0fbe 702e 5e3c e627 2c3e
00000220: 434c 043e 3101 05be abbd 6bbe 0c27 173e
00000230: d16d e83d bd3a 1dbe 3098 27be cb51 87be
00000240: 6d5a b43e 6672 7d3c 555d 7d3e 7bed 7abd
00000250: 42a8 3c3c 1028 43bd 5011 9c3b ee60 9fbd
00000260: 1581 52be 7f5b b33d b025 143e 8fa9 81bd
00000270: a8c8 fa3d 7b57 e03d 2f48 343b b5ea 27bf
00000280: 8e42 8b3e d6d0 23be 25a6 bebc 5fd8 8a3e
00000290: dc28 1ebb 2974 613d d8ef 45be ce9e 9c3e
000002a0: f653 ad3e 161c 52bb 9a4b 2f3e 82f9 0e3e
000002b0: 5cb7 91be 5f5e 3e3e e990 253e 84d4 0d3d
000002c0: e0cb 28bd ffc4 cb3e 4210 b8be c909 b43c
000002d0: f0a8 b3bd a0c2 063d b77a 553e 794f 9a3d
000002e0: 7608 dcbe dba8 32bf 73e9 39be fc82 823d
000002f0: a4fd 1c3f f06d de3d 4d31 ab3e b487 643e
00000300: 28f4 9b3e 324c da3e a40a 2cbe c2e2 c53d
00000310: 123e 47be ffa9 cebe 28aa 823e a23c 7bbd
00000320: 9371 033e e055 283e 1b06 583e d411 763d
00000330: 6656 8d3d b003 d4bd ef49 a43e d6fa d2be
00000340: 4bbe d0bc 436a bc3d e22e 2abe 591e 88bf
00000350: f825 a53c cef6 93be b640 213d bc26 203c
00000360: 7e6a 59be b281 dd3d bc50 a43e d2f5 1e3f
00000370: c117 b0bd 575d 91be b6ba c23e 96a1 f73d
00000380: 999f 193d 0603 323e b808 bcbe 86f6 473e
00000390: 541f b0be 848e f03d c94f 2a3e 4224 8e3e
000003a0: ff2c 6bbd d5d0 623e c8c5 073f 2d99 973c
000003b0: 6660 56be 58cd 9f3e 0e2c 75be b1b2 2fbe
000003c0: 276e 84be 1de6 e73d e8e0 ca3d 5211 423c
000003d0: d346 0cbe e1e1 09be 1377 403e 8061 e13d
000003e0: 18b9 b8bc 58fe 8b3b 9164 45be ccfe 02be
000003f0: b749 e3bc 0ad2 633e d83f b83d 71b8 11be

model.6.bias f4 [64]
-0.079433344 0.33579755 0.061744086 -0.1386946 -0.07228051 0.0799918 0.077200696 0.20458022
-0.34459883 0.1459858 -0.011665811 -0.15564102 0.24822909 -0.110588804 -0.07734622 -0.4167107
-0.12309747 0.37034068 -0.16461653 -0.20789623 -0.18173073 -0.09992127 -0.010737725 -0.19578546
-0.08187729 -0.053859755 -0.16536236 0.12896697 0.2238504 -0.12433046 -0.30106044 -0.50048035
0.0881709 0.17619552 0.14060856 -0.09038763 -0.4043857 0.07431379 -0.102233104 0.15941127
0.29059714 0.26899448 0.19106136 0.12938946 -0.023411622 0.13839778 0.22805703 -0.27763182
0.067200586 -0.22285634 -0.071240306 0.1986001 0.34866527 -0.15834469 0.17798416 -0.016046055
-0.12125559 -0.19391042 8.186307e-05 -0.049631827 0.3538041 -0.056725424 0.057679214 -0.063977435
00000000: f3ad a2bd a8ed ab3e 5ee7 7c3d f505 0ebe
00000010: ce07 94bd bed2 a33d 661b 9e3d 7a7d 513e
00000020: 426f b0be 4d7d 153e f521 3fbc 5c60 1fbe
00000030: c42f 7e3e 627c e2bd b267 9ebd 1b5b d5be
00000040: 871a fcbd 4b9d bd3e 3c91 28be c0e2 54be
00000050: 9f17 3abe 86a3 ccbd 48ed 2fbc fc7b 48be
00000060: 48af a7bd 0c9c 5cbd c054 29be eb0f 043e
00000070: 0a39 653e f8a0 febd 9824 9abe 7b1f 00bf
00000080: f292 b43d 996c 343e b1fb 0f3e 261d b9bd
00000090: a40b cfbe d431 983d 975f d1bd b53c 233e
000000a0: 26c9 943e a5b9 893e 97a5 433e ac7e 043e
000000b0: bbc9 bfbc 26b8 0d3e c887 693e c225 8ebe
000000c0: 76a0 893d 7434 64be 70e6 91bd d35d 4b3e
000000d0: 4184 b23e 1c25 22be 7b41 363e 0473 83bc
000000e0: da54 f8bd 7490 46be e7ad ab38 be4a 4bbd
000000f0: d025 b53e eb58 68bd 0a41 6c3d 9a06 83bd

model.8.weight f4 [12, 64]
-0.093325704 0.2769698 0.10316464 -0.28544486 -0.16488156 -0.28417364 0.23711997 0.21473737
0.102966346 0.48992965 -0.45460513 -0.29463625 0.2939105 -0.055645525 -0.20462686 -0.16372468
-0.048841063 -0.14221744 0.009699916 -0.11551286 -0.09382797 0.081047945 0.4459233 -0.14627188
0.23358163 -0.032989256 -0.3212237 0.07091571 0.13741095 0.0611522 -0.1074821 -0.40069124
0.19924165 0.031396445 -0.1648868 0.3174613 -0.04891563 0.3420868 -0.007494397 0.083282135
0.21718727 0.15366943 0.31076035 0.109305784 -0.0984685 -0.08270711 0.21678291 -0.28569087
0.3856291 0.23719692 0.20018348 -0.37452054 0.024787642 -0.016745308 -0.020690294 -0.3984386
-0.18333249 -0.05186502 -0.025901858 -0.253943 0.21454893 0.15881214 0.224494 0.13993937
-0.4085079 -0.3364093 -0.8637367 0.19230258 0.362876 -0.011929868 -0.352348 -0.8954018
-0.049908962 -1.0711441 -0.6520245 0.4138104 -0.32406443 0.49451995 -0.35805097 0.04139405
-0.49067444 0.16745071 0.26765618 0.10742652 -0.03305493 0.1722249 1.1194121 0.29438183
-0.45245975 -0.29182714 -0.05774954 -0.11908395 -0.74547195 0.007463713 0.1301286 1.1503239
-0.07546441 -0.47384387 0.6006169 -0.16418603 0.28720945 0.04097806 -0.8420195 0.17566517
-0.076494426 -0.1399111 -0.4783553 -0.14899877 0.083140664 -0.54324985 0.5634578 -0.22987285
-0.105494775 0.51500165 -0.15057792 -0.033990998 -0.16169782 0.81858736 -0.078821674 -0.27117917
-0.86958605 -0.124178134 0.21935111 0.32427984 0.15347178 -0.12614903 0.19659908 -0.15713838
-0.043212987 0.05791879 0.092381984 -0.1442544 -0.18878137 -0.08796833 -0.36979362 0.16499956
-0.06681935 -0.043639675 -0.11690178 0.1275952 0.13759787 0.47466198 -0.2093447 -0.031178666
-0.21969084 0.206787 0.0016794631 0.28643283 0.029267615 -0.2249482 0.4273339 -0.22991401
0.12496143 -0.024500998 -0.23279563 0.110504344 0.117378846 -0.17047179 -0.06288794 -0.070933715
0.09276784 0.12385938 0.05759638 0.06273511 -0.118516706 0.16612162 -0.24074048 -0.09280267
0.22288555 0.02933384 0.07187714 -0.31094316 -0.07488578 0.15552236 0.10856638 -0.023634342
-0.018577611 0.37274212 0.17315821 0.02087948 0.124278955 0.060063764 0.16846325 -0.2938427
0.32637665 0.24098258 -0.1407147 -0.19207852 -0.048021235 -0.06104653 0.1488214 0.033568747
0.04005002 -0.15108374 0.027453097 -0.4921791 -0.10990677 -0.2876695 0.30062604 0.18577988
-0.098994814 -0.354929 -0.45863974 -0.23644957 0.0542257 -0.06802816 0.18438525 -0.13704778
-0.08438391 -0.111655444 -0.18125352 -0.07709967 0.23816945 -0.88177043 0.17183474 0.27069148
-0.1018399 -0.17819612 0.14996755 -0.4248174 0.14586501 -0.07764186 0.10066341 -0.29391003
-0.3732222 -0.10617447 0.022890335 0.26277453 -0.5885435 -0.38026357 -0.023511084 -0.26440597
-0.2460231 -0.036112662 0.33316377 -0.20628636 -0.0044579688 -0.20118 -0.08519679 0.44803277
0.028840989 0.91203517 0.13003092 -0.19385976 -0.3003961 -0.39024705 0.33112633 0.3338222
-0.171746 -0.22094655 0.010990292 -0.0011975386 0.17312069 0.11679923 0.29843134 0.060383294
00000000: 8c21 bfbd fcce 8d3e fc47 d33d d425 92be
00000010: b6d6 28be 357f 91be 94cf 723e 1de4 5b3e
00000020: 05e0 d23d 0fd8 fa3e 01c2 e8be 90da 96be
00000030: 707b 963e 90ec 63bd b489 51be 71a7 27be
00000040: 910d 48bd 73a1 11be 65ec 1e3c 0292 ecbd
00000050: e128 c0bd 77fc a53d 0f50 e43e 4cc8 15be
00000060: 0630 6f3e be1f 07bd 6f77 a4be 413c 913d
00000070: 75b5 0c3e bb7a 7a3d 931f dcbd 6727 cdbe
00000080: 0106 4c3e 8f99 003d 16d8 28be 4a8a a23e
00000090: c15b 48bd 0026 af3e 8f93 f5bb d38f aa3d
000000a0: 5766 5e3e 855b 1d3e fb1b 9f3e b6db df3d
000000b0: daa9 c9bd 5862 a9bd 57fc 5d3e 1346 92be
000000c0: 2d71 c53e c0e3 723e e6fc 4c3e 28c1 bfbe
000000d0: 740f cb3c 752d 89bc b17e a9bc 2500 ccbe
000000e0: 83bb 3bbe 6a70 54bd 2230 d4bc d104 82be
000000f0: b7b2 5b3e a69f 223e c1e1 653e 444c 0f3e
00000100: f327 d1be d73d acbe d91d 5dbf f8ea 443e
00000110: e2ca b93e 7e75 43bc f566 b4be 0d39 65bf
00000120: 576d 4cbd 401b 89bf 14eb 26bf f5de d33e
00000130: c6eb a5be b831 fd3e 7552 b7be cf8c 293d
00000140: ae39 fbbe 3378 2b3e 3b0a 893e 6f02 dc3d
00000150: 9b64 07bd b95b 303e e548 8f3f 37b9 963e
00000160: cea8 e7be 5e6a 95be c88a 6cbd 49e2 f3bd
00000170: 40d7 3ebf 2a92 f43b 6f40 053e d03d 933f
00000180: 168d 9abd aa9b f2be 07c2 193f 6220 28be
00000190: 1e0d 933e 9cd8 273d 978e 57bf 92e1 333e
000001a0: 1ca9 9cbd db44 0fbe fcea f4be 2293 18be
000001b0: a745 aa3d 6c12 0bbf c53e 103f ca63 6bbe
000001c0: a50d d8bd 26d7 033f 1931 1abe 253a 0bbd
000001d0: 1d94 25be f18e 513f 426d a1bd ffd7 8abe
000001e0: 319d 5ebf 1b51 febd 949d 603e 0208 a63e
000001f0: b527 1d3e 362d 01be 4551 493e e2e8 20be
00000200: 1a00 31bd 413c 6d3d c432 bd3d 6db7 13be
00000210: e74f 41be bd28 b4bd 9755 bdbe a5f5 283e
00000220: 95d8 88bd 84bf 32bd 336a efbd 51a8 023e
00000230: 75e6 0c3e e506 f33e 755e 56be 676a ffbc
00000240: a3f6 60be f9bf 533e 6e21 dc3a 53a7 923e
00000250: a3c2 ef3c d258 66be 82cb da3e 946e 6bbe
00000260: c7eb ff3d 51b6 c8bc fa61 6ebe 1a50 e23d
00000270: 5264 f03d 2890 2ebe 64cb 80bd b245 91bd
00000280: 11fd bd3d fda9 fd3d 2fea 6b3d 447b 803d
00000290: e3b8 f2bd c91b 2a3e ac84 76be 540f bebd
000002a0: 1c3c 643e 854d f03c 5234 933d f133 9fbe
000002b0: b75d 99bd 4141 1f3e 0d58 de3d cf9c c1bc
000002c0: 1330 98bc 0ed8 be3e 6350 313e 710b ab3c
000002d0: f785 fe3d 6c05 763d a181 2c3e 8d72 96be
000002e0: d71a a73e 23c4 763e 8417 10be 3bb0 44be
000002f0: eab1 44bd ed0b 7abd a364 183e 627f 093d
00000300: 7d0b 243d b2b5 1abe 51e5 e03c e6fe fbbe
00000310: cd16 e1bd 6b49 93be a8eb 993e 153d 3e3e
00000320: cbbd cabd 41b9 b5be d4d2 eabe d61f 72be
00000330: c51b 5e3d 5952 8bbd 7dcf 3c3e 4156 0cbe
00000340: 79d1 acbd 9cab e4bd 869a 39be 6fe6 9dbd
00000350: b1e2 733e b5bb 61bf 72f5 2f3e 1398 8a3e
00000360: 7091 d0bd 0b79 36be 1891 193e ab81 d9be
00000370: a35d 153e b202 9fbd 9e28 ce3d 607b 96be
00000380: fb16 bfbe 0072 d9bd 8384 bb3c 628a 863e
00000390: c9aa 16bf e8b1 c2be 519a c0bc 3860 87be
000003a0: 7bed 7bbe dfea 13bd 7194 aa3e bb3c 53be
000003b0: 2714 92bb 2102 4ebe a87b aebd 8d64 e53e
000003c0: f043 ec3c 237b 693f d326 053e 2c83 46be
000003d0: 85cd 99be 76ce c7be 6489 a93e beea aa3e
000003e0: 2fde 2fbe d03f 62be a010 343c baf6 9cba
000003f0: 8d46 313e 6f34 ef3d fecb 983e 7954 773d

model.8.bias f4 [12]
0.32341525 -0.3246912 -0.2764134 0.22273344 -0.219856 -0.35996547 -0.042433314 0.05432326
-0.08380765 0.16396616 -0.18975955 0.019442802
00000000: af96 a53e ed3d a6be 0f86 8dbe 3c14 643e
00000010: ee21 61be 654d b8be 8ece 2dbd 1182 5e3d
00000020: 58a3 abbd bfe6 273e 5450 42be 8346 9f3c
